models/deepvesselnet_final_batchnorm+dropout.model (torch_old, 243978 bytes, 26 tensors)

weight f4 [5, 1, 3, 3, 3]
0	0x3c50849f	0.012726932
1	0xbd6190c9	-0.05506972
2	0x3d05b0b8	0.032639235
3	0xbde7f239	-0.11325497
4	0x3d9bb851	0.07603515
5	0x3e2e5039	0.1702279
6	0xbd8b2a84	-0.067952186
7	0xbcbdc924	-0.0231672
8	0xbd23facc	-0.0400341
9	0x3e0b3f25	0.13598306
10	0x3ddbf804	0.107406646
11	0x3dcf9505	0.10135845
12	0xbddf71e3	-0.10910394
13	0x3e483749	0.1955234
14	0x3df69477	0.12040036
15	0xbdff4740	-0.12464762
16	0x3cb8f91c	0.022579722
17	0x3d6c3e4e	0.057676606
18	0xbe27dcb0	-0.1639278
19	0xbd86f88a	-0.06590374
20	0xbd63ac8a	-0.055584468
21	0xbdb8d98b	-0.09025868
22	0xbd9338a5	-0.071885385
23	0x3dc5c7aa	0.096572235
24	0x3d6ead12	0.05827052
25	0x3d4b83a4	0.04968609
26	0x3e084424	0.13307244
27	0xbd166348	-0.036715776
28	0x3d98784e	0.07444821
29	0xbdcf2ce6	-0.101159856
30	0x3e24edad	0.16106291
31	0x3e890ce8	0.2676766
32	0x3de3966a	0.111126736
33	0xba16d2fc	-0.0005753485
34	0x3e071650	0.13192105
35	0xbcbef091	-0.02330807
36	0xbd592636	-0.053014956
37	0x3e105e2b	0.14098422
38	0xbcd40c78	-0.025884852
39	0x3e0fd35d	0.14045472
40	0x3e3899a4	0.18027359
41	0x3ba0a0a3	0.004901962
42	0xbc400026	-0.011718785
43	0x3e09cd4d	0.13457222
44	0xbd8164bb	-0.06318041
45	0xbde0230d	-0.109441854
46	0xbd7328c7	-0.05936506
47	0x3c25a858	0.010110937
48	0x3dca0a94	0.09865299
49	0x3c9f9c74	0.019483782
50	0xbd67395b	-0.056451183
51	0xbd876279	-0.06610579
52	0xbe0d433e	-0.13795182
53	0x3d719811	0.058982912
54	0x3c0bd785	0.008535271
55	0x3de88cdd	0.113549925
56	0x3d843b99	0.0645668
57	0xbdbeae76	-0.093106195
58	0x3e1e02b4	0.15430719
59	0x3ca3ad61	0.019980134
60	0xbdac16ff	-0.08402824
61	0x3dd28e89	0.10281093
62	0xbcb35b02	-0.021893982
63	0xbd562cf8	-0.05228898
64	0x3e68a28e	0.2271826
65	0xbe137962	-0.14401773
66	0xbd82e921	-0.06392122
67	0x3da8b9e4	0.08238581
68	0x3e07b400	0.13252258
69	0xbdd48311	-0.103765614
70	0xbda07f0d	-0.07836733
71	0xbe2a1655	-0.16610081
72	0x3c86e2a9	0.016465502
73	0x3e289c00	0.1646576
74	0xbc34b305	-0.01102901
75	0xbc9070f3	-0.017631983
76	0x3e0ce56d	0.13759394
77	0x3d7dea1e	0.06199085
78	0x3d73cfcf	0.059524354
79	0x3d92718e	0.07150565
80	0xbe6dfc08	-0.23240674
81	0x3dcdd39c	0.10050127
82	0xbdf0db51	-0.11760581
83	0xbd1e8baf	-0.03870743
84	0x3dc75ad0	0.09734118
85	0xbde6b05c	-0.11264107
86	0xbe0b06ba	-0.13576785
87	0xbad929a4	-0.0016568196
88	0xbd8616ad	-0.06547294
89	0xbddfd854	-0.10929933
90	0xbdd09b02	-0.101858154
91	0xbbb4134e	-0.0054954654
92	0xbde8a8e7	-0.113603406
93	0x3e20b0df	0.15692471
94	0x3d9958a0	0.07487607
95	0x3db74957	0.08949535
96	0xbd8f80bd	-0.07006977
97	0x3de379c5	0.1110721
98	0x3e1ba862	0.15200952
99	0x3d0a1bc4	0.033717886
100	0xbd8131ae	-0.06308304
101	0xbd9f5e37	-0.07781642
102	0xbe29cf98	-0.16583097
103	0x3df1bd4c	0.11803684
104	0xbc8354cd	-0.016031647
105	0x3d12ed14	0.035870627
106	0xbd8567b5	-0.06513921
107	0xbdee8a1d	-0.11647437
108	0xbd585656	-0.05281671
109	0xbdf5a06f	-0.11993491
110	0xbe0968e7	-0.13418923
111	0xbdccb5db	-0.09995624
112	0xbdfe6dc4	-0.1242328
113	0x3dfaca6f	0.122456424
114	0xbc9c91a4	-0.019112416
115	0x3d3af606	0.045644782
116	0x3cecf006	0.028923046
117	0xbc92dd8c	-0.017927907
118	0xbdf23abf	-0.11827611
119	0xbe1a8295	-0.15088876
120	0x3e152d94	0.14568168
121	0x3e1901b5	0.14942057
122	0x3d943305	0.07236294
123	0x3d7ea8cf	0.062172707
124	0x3e17e1fa	0.14832297
125	0x3ccdc412	0.025117908
126	0xbd0bcab1	-0.03412885
127	0x3de161f9	0.11005015
128	0xbdeff6e4	-0.117170125
129	0x3c04e81c	0.00811198
130	0x3d530950	0.051522553
131	0xbda77d02	-0.0817814
132	0xbd62100a	-0.055191077
133	0x3b91496e	0.0044338023
134	0x3ddf2aa7	0.10896807

bias f4 [5]
0	0xbe1ab1f6	-0.15106949
1	0x3db4ffbe	0.088378415
2	0xbe1ae379	-0.15125836
3	0xbe1cf22a	-0.15326753
4	0xbe0bea01	-0.13663484

weight f4 [10, 5, 5, 5, 5]
0	0xbc6428d2	-0.013925748
1	0x3d817956	0.06321971
2	0xbd74c472	-0.059757657
3	0xbd5f22ed	-0.054476667
4	0x3c87d9a4	0.016583271
5	0xbcc11a17	-0.02357201
6	0x3d3a2775	0.045447785
7	0x3c76f28c	0.015072476
8	0x3d81a941	0.06331111
9	0x3ce16453	0.027513659
10	0x3d048d7a	0.032361485
11	0x3d3d6f70	0.046248853
12	0x3c65e59e	0.014031796
13	0x3d359073	0.04432721
14	0x3d812d6d	0.063074924
15	0xbc289e16	-0.010291597
16	0x3ce13fb5	0.027496198
17	0xbcba8e32	-0.022772882
18	0x3d2c3d35	0.04205056
19	0xbc50c77f	-0.012742876
20	0x3d614f74	0.055007413
21	0xbd19c079	-0.03753707
22	0xbce8cca9	-0.028417902
23	0x3d915b42	0.07097484
24	0xbd57c58f	-0.05267864
25	0xbca234be	-0.01980054
26	0xbc1fb7a0	-0.009748369
27	0xbd7ae15a	-0.06125007
28	0x3d5dc054	0.054138497
29	0x3d64d661	0.05586851
30	0x3ce0313a	0.027367223
31	0xbd521f0e	-0.051299147
32	0xbd0858f5	-0.03328796
33	0xbd4d0dab	-0.050061863
34	0xbd49fc32	-0.049312778
35	0x3d2a15b3	0.0415246
36	0xbd1d5390	-0.03840977
37	0x3d2ec81a	0.0426713
38	0xbd5b6f56	-0.053572975
39	0xbd5fed7f	-0.054669853
40	0x3bdb8892	0.00669963
41	0xbc966380	-0.018357992
42	0x3c565721	0.013082297
43	0x3c6c7dad	0.01443426
44	0x3d7fdcc5	0.0624664
45	0xbd14abaa	-0.036296524
46	0xbd348819	-0.044075105
47	0xbd6b5a76	-0.057459317
48	0xbc52ea1c	-0.012873199
49	0x3d047727	0.032340195
50	0x3cbb7a5b	0.022885492
51	0xbd8d5e6a	-0.06902774
52	0x3d82e217	0.063907795
53	0x3d085d2d	0.033291984
54	0xbd37c017	-0.044860926
55	0xbccadedf	-0.024764476
56	0xbd5631b8	-0.05229351
57	0xbd7d4d6f	-0.061841425
58	0xbd164495	-0.0366865
59	0x3b4b0185	0.0030976248
60	0xbd394348	-0.04523018
61	0x3cb6078b	0.022220394
62	0xbc158277	-0.0091253435
63	0x3a3f66b9	0.00073013786
64	0x3db6c5aa	0.0892442
65	0x3c516d7c	0.012782451
66	0x3d81c726	0.06336813
67	0xbb42680b	-0.0029664065
68	0x3d2e32e5	0.042529006
69	0x3b10e1c3	0.002210722
70	0xbd0302c8	-0.031985074
71	0xbca9256c	-0.020647727
72	0x3d5690f9	0.05238435
73	0xbd8b4d8c	-0.068019
74	0x3d41d0c1	0.047318224
75	0xbd0a9c48	-0.033840448
76	0xbcfea4fd	-0.031084532
77	0x3cba9c80	0.022779703
78	0xbd5d76d1	-0.05406839
79	0x3d44b49a	0.048023798
80	0xbc64c993	-0.013964075
81	0xbd6a6561	-0.05722559
82	0xbc7adaa8	-0.015310921
83	0xbd3377f6	-0.043815576
84	0xbcaf465c	-0.021395855
85	0x3c04e250	0.008110598
86	0x3ce9cd0b	0.028540155
87	0x3c2918e4	0.010320876
88	0xbc6188b7	-0.0137655055
89	0x3d1b3204	0.037889495
90	0x3ba67062	0.005079315
91	0xbd1a0f62	-0.037612326
92	0x3d5e92fd	0.054339398
93	0xbcad724d	-0.021172667
94	0xbb9b60d2	-0.0047417665
95	0x3d7c7d06	0.06164267
96	0x3d527ec6	0.05139043
97	0x3d2dbd7c	0.042417035
98	0x3b45e592	0.003019665
99	0x3d4978f3	0.04918761
100	0x3da608dd	0.08107159
101	0x3d48ec0c	0.049053237
102	0xbd43e2f7	-0.047823872
103	0x3d41ad34	0.04728432
104	0x3c0bed83	0.008540514
105	0x3d196a97	0.037455168
106	0xbc3b2be3	-0.011424038
107	0xbd53a586	-0.051671527
108	0x3d80a0ec	0.062806934
109	0x3d6def25	0.058089394
110	0x3bec551c	0.0072122943
111	0x3cae07ae	0.021243896
112	0x3d20c4c0	0.039250135
113	0xbd67e23c	-0.05661224
114	0xbc14ea11	-0.009089009
115	0x3c292a4e	0.010325028
116	0x3d3edc9c	0.04659711
117	0x3bdb175c	0.0066861343
118	0x3da28773	0.07935991
119	0xbc8eb4ab	-0.017420134
120	0xbc99920d	-0.0187464
121	0xbd842b99	-0.06453628
122	0x3d7750d3	0.060379814
123	0x3d5c05b2	0.05371637
124	0x3d805b16	0.06267373
125	0x3ccbf56e	0.024897303
126	0x3d8ee9f2	0.06978215
127	0x3ce82c25	0.028341362
128	0x3c81e1cd	0.01585474
129	0x3d05552f	0.03255194
130	0xbd6a5b49	-0.057215963
131	0x3d5a900a	0.053360023
132	0xbc43e855	-0.011957248
133	0xbd86bad3	-0.06578603
134	0x3d73c2e6	0.05951204
135	0x3bc3de47	0.0059774253
136	0x3bf9db0d	0.00762499
137	0xbcadc120	-0.021210253
138	0xbd8d96af	-0.06913506
139	0xbcc77c2e	-0.024351206
140	0xbd90e19a	-0.0707428
141	0x3b15c809	0.0022854826
142	0x3d87b277	0.06625836
143	0xbc91d6d4	-0.017802633
144	0xbd3b45f4	-0.04572101
145	0x3c3f429b	0.011673595
146	0xbd3889f1	-0.045053426
147	0xbc6490ce	-0.01395054
148	0xbad9bf43	-0.0016612787
149	0xbc2bb424	-0.010479961
150	0x3d0efc29	0.034908447
151	0xbcb86376	-0.022508364
152	0xbc93dc30	-0.01804933
153	0x3d1ad159	0.037797306
154	0xbcb9f582	-0.022700075
155	0xbd2451cf	-0.04011708
156	0x3d7f24b1	0.06229085
157	0x3d1da231	0.038484756
158	0x3d49ae7d	0.04923867
159	0xbd8e3385	-0.0694342
160	0xbd41a005	-0.047271747
161	0x3d5ec520	0.05438721
162	0xbd819bca	-0.063285425
163	0x389fd9b3	7.6222605e-05
164	0xbd9414a9	-0.07230503
165	0xbcd208ec	-0.02563902
166	0x3c88bdba	0.016692031
167	0x3d75b34f	0.059985455
168	0x3cb52f23	0.022117203
169	0x3d6210ae	0.05519169
170	0x3d5bb3f0	0.0536384
171	0x3bf83eaf	0.007575832
172	0x3d1985ef	0.037481245
173	0x3d622103	0.055207264
174	0x3d7a25c9	0.06107119
175	0xbd143f37	-0.0361931
176	0xbcb7fcea	-0.022459466
177	0x3d67bf4c	0.05657892
178	0x3cef32d1	0.029199036
179	0x3d17a74d	0.037024785
180	0x3d784dfd	0.06062125
181	0x3a99ea4d	0.0011742801
182	0x3cee7974	0.029110648
183	0xbcdb8903	-0.02679873
184	0xbd47b20b	-0.04875378
185	0x3d18bae0	0.037287593
186	0x3d08d0b7	0.03340217
187	0xbd121f89	-0.035674606
188	0xbd672b11	-0.056437556
189	0xbd8de008	-0.06927496
190	0x3c353321	0.011059553
191	0x3d2ab2b8	0.041674346
192	0x3b4f80c4	0.0031662444
193	0x3d3fc210	0.04681593
194	0xbcecb043	-0.028892642
195	0x3d81c2ce	0.06335984
196	0xbcb8e5ec	-0.022570573
197	0x3ce6a08c	0.028152727
198	0xbd787d7b	-0.060666543
199	0x3c8948eb	0.016758403
200	0xbd2a87b8	-0.041633338
201	0xbba5fdf4	-0.005065674
202	0xbd0c4e41	-0.034254316
203	0xbc710c73	-0.014712441
204	0xbd832c14	-0.064048916
205	0xbd2f3487	-0.042774703
206	0xbc984ccb	-0.018591305
207	0x3c8cd2a9	0.017190294
208	0xbd821d3a	-0.06353231
209	0xbca4e864	-0.020130344
210	0x3d04a643	0.032385122
211	0xbdaf9c63	-0.0857475
212	0xbd23bd5a	-0.0399755
213	0xbcadfd1f	-0.021238862
214	0xbd1a57eb	-0.0376815
215	0xbd125ee4	-0.035735026
216	0xbda5f0e2	-0.081025854
217	0xbc09a556	-0.008401236
218	0xbd058a49	-0.032602582
219	0xbc4fd53f	-0.012685119
220	0x3ce8aa15	0.028401414
221	0x3a53b132	0.00080754154
222	0xbd5ff8f5	-0.054680783
223	0xbd18ea63	-0.037332904
224	0xbd6b7768	-0.05748692
225	0x3d765e63	0.060148608
226	0xbcfdbce9	-0.030973868
227	0x3d585529	0.05281559
228	0x3cd8b8c9	0.0264553
229	0xbd1458bc	-0.036217436
230	0xbd3da14c	-0.046296403
231	0xbd86515f	-0.06558489
232	0xbce7d000	-0.028297424
233	0xbd38483d	-0.044990767
234	0x3d08d507	0.033406284
235	0xbd5f9e76	-0.05459448
236	0x3ca3ee03	0.020010954
237	0xbd07760f	-0.033071574
238	0xbd4bf117	-0.049790468
239	0xbcd318e3	-0.025768703
240	0x3bf17c05	0.0073695206
241	0xbda5c352	-0.08093895
242	0x3d39b5eb	0.045339506
243	0xbd96152b	-0.07328256
244	0x3d8230fe	0.06357001
245	0x3c90d00f	0.017677335
246	0x3d21b301	0.039477352
247	0xbd84be7a	-0.06481643
248	0x3d88ddea	0.06682952
249	0x3ca179f8	0.01971148
250	0xbd254009	-0.04034427
251	0x3ca2a877	0.01985572
252	0x3cb7e310	0.022447139
253	0xbd3d0c2b	-0.046154182
254	0x3c4daca8	0.0125533715
255	0x3d212930	0.03934592

bias f4 [10]
0	0xbcf06baf	-0.029348223
1	0x3c584ff8	0.01320266
2	0xb95bf258	-0.00020975748
3	0x3cfd7365	0.030938813
4	0xbb54491f	-0.0032392216
5	0xbcdea28c	-0.027177118
6	0x3c88602d	0.016647423
7	0xbc455db0	-0.012046263
8	0x3bb3cfd2	0.0054874206
9	0xbc375a84	-0.011191014

weight f4 [20, 10, 5, 5, 5]
0	0xbd67ce4a	-0.056593217
1	0x3d786bf9	0.060649846
2	0xbd8768a7	-0.06611758
3	0xbd8539a4	-0.06505135
4	0x3d5101a0	0.05102694
5	0xbd745eba	-0.05966065
6	0x3cc89de0	0.024489343
7	0x3d4abef6	0.04949852
8	0xbc555e4d	-0.013022971
9	0x3cc0ce6c	0.02353593
10	0xbc9ead6b	-0.019369802
11	0x3d6f8e27	0.058485176
12	0x3cb3d18d	0.021950508
13	0x3d60bd31	0.054867927
14	0x3bb4ec56	0.0055213375
15	0x3d688e3e	0.056776278
16	0x3c81de69	0.015853124
17	0xbd8f832f	-0.07007443
18	0xbd085bdf	-0.03329074
19	0xbd841543	-0.06449368
20	0x3d76443f	0.06012368
21	0x3bc84f00	0.006112933
22	0x3d1c66d1	0.03818399
23	0xbcebb25c	-0.028771572
24	0x3c59b4ac	0.013287704
25	0xbc5a8607	-0.013337619
26	0x3d8afa34	0.06786004
27	0xbd443d4f	-0.04791003
28	0xbcd7a116	-0.026321929
29	0x3bbb2db1	0.005712234
30	0x3c54bb39	0.0129840905
31	0x3d2bb04a	0.04191617
32	0x3cd13821	0.02553946
33	0x3d6237ab	0.05522887
34	0xbd77949f	-0.06044447
35	0xbd4e8c0d	-0.05042653
36	0xbd820690	-0.06348908
37	0x3c8478d1	0.016170891
38	0xbc14a765	-0.009073113
39	0xbcd8be4e	-0.026457932
40	0x3d7dedcc	0.06199436
41	0xbd5e2e2d	-0.054243255
42	0x384b39c6	4.8452777e-05
43	0x3c7ddd58	0.015494667
44	0xbc1ed166	-0.009693479
45	0x3d062181	0.032746796
46	0x3d914b69	0.070944615
47	0xbc622718	-0.013803266
48	0xbcbdaa5b	-0.02315252
49	0x3ccd0fa6	0.025031876
50	0x3cf3edd3	0.02977649
51	0xbce5d803	-0.028057104
52	0x3d6022cf	0.054720696
53	0x3b4a224f	0.0030843203
54	0xbcc5506e	-0.024086203
55	0xbd83f269	-0.064427204
56	0x3d6e3de1	0.05816448
57	0xbcec0cbd	-0.028814668
58	0xbd7fca2b	-0.06244866
59	0xbd463ce9	-0.048397932
60	0xbd8cae5b	-0.06869193
61	0x3d55c9e0	0.052194476
62	0xbc81d8fb	-0.015850535
63	0xbb00ec8d	-0.0019672245
64	0xbcdb0920	-0.02673775
65	0x3c98814e	0.018616345
66	0xbd4588fa	-0.048226334
67	0xbd184c02	-0.03718186
68	0xbc7f9834	-0.015600253
69	0xbd5c2bb5	-0.05375262
70	0xbc72b2fc	-0.014813181
71	0xb66e3a19	-3.549858e-06
72	0x3ca53dfc	0.020171158
73	0x3d68a6c9	0.056799684
74	0x3d5222a4	0.051302567
75	0x3d4c54f6	0.049885713
76	0xbcfa5fef	-0.030563323
77	0xbd41c092	-0.04730279
78	0x3d2278b1	0.03966588
79	0x3d2af403	0.041736614
80	0x3cbe4be8	0.023229554
81	0x3d25fad7	0.040522423
82	0xbcc71e92	-0.02430657
83	0x3d85ddc7	0.06536441
84	0xbd7a284d	-0.06107359
85	0x3c79194e	0.015203787
86	0x3d65fc21	0.056148652
87	0x3d86694b	0.06563052
88	0xbcadf8bd	-0.021236772
89	0xbd937718	-0.0720045
90	0x3b8a5e69	0.0042226803
91	0x3d8ba332	0.068182364
92	0xbd2f406f	-0.042786058
93	0xbd6ceeb4	-0.057844833
94	0xbd0c7844	-0.03429438
95	0x3d9b869d	0.07594035
96	0xbd883081	-0.066498764
97	0xbd5764fc	-0.05258654
98	0xbd171907	-0.036889102
99	0x3cadfa9b	0.021237662
100	0xbad020d7	-0.0015878928
101	0x3d04cf25	0.03242411
102	0x3d6cc9fd	0.05780982
103	0xbd5e746a	-0.05431024
104	0xbd234cbe	-0.03986811
105	0xbd6d14a8	-0.057881027
106	0xbd055710	-0.032553732
107	0xbd3d50e5	-0.046219725
108	0xbd423a44	-0.047418848
109	0xbced5b3e	-0.028974172
110	0x3cbe0e14	0.023200072
111	0x3d00e95e	0.031472556
112	0xbca65cf2	-0.020307992
113	0xbd82515c	-0.06363174
114	0xbd5e4b94	-0.054271296
115	0xbd97de89	-0.07415492
116	0xbd8910f8	-0.0669269
117	0xbcfeda94	-0.031110086
118	0x3d0f6af3	0.035014104
119	0xbd8ca427	-0.06867247
120	0x3c9a87f6	0.01886366
121	0x3cd15424	0.025552817
122	0x3c40753f	0.011746704
123	0xbd1e175f	-0.038596507
124	0x3c76c823	0.015062365
125	0xbd72eb90	-0.05930668
126	0xbce7bac1	-0.028287293
127	0x3cf7a9d7	0.030232353
128	0xbc0deacf	-0.00866194
129	0xbcb3d48b	-0.021951934
130	0x3ce4db16	0.0279365
131	0xbd336f21	-0.043807153
132	0x3bf0afb9	0.0073451665
133	0x3d393b38	0.04522249
134	0xbd2de41f	-0.04245388
135	0x3ca12f1d	0.019675786
136	0x3d615d1b	0.055020433
137	0x3b67b29b	0.003535426
138	0xbd9369ce	-0.07197915
139	0x3d6d1894	0.057884768
140	0xbb9c82ee	-0.00477635
141	0xbd0fdede	-0.035124652
142	0xbcac8fdf	-0.021064697
143	0xbcc7bc89	-0.024381893
144	0xbcb58543	-0.02215827
145	0xbcda4b00	-0.02664709
146	0xbce680f4	-0.028137662
147	0x3d292d25	0.04130282
148	0xbd812686	-0.06306176
149	0xbd432b4b	-0.04764871
150	0xbd1a9756	-0.03774198
151	0x3d2866da	0.041113712
152	0xbd41a15a	-0.047273017
153	0x3d877cb8	0.06615585
154	0xbd136974	-0.03598924
155	0xbd79d777	-0.0609965
156	0x3d4196cd	0.047262955
157	0xbd8f63e3	-0.07001474
158	0xbc9b5a09	-0.01896383
159	0xbd6ed1f5	-0.0583057
160	0x3d5b1269	0.053484354
161	0xbc8a44bb	-0.016878476
162	0x3b527115	0.003211086
163	0x3d35b346	0.04436042
164	0xbd6504e5	-0.05591287
165	0xbb5dfd2a	-0.0033872821
166	0xbccd81ad	-0.025086248
167	0x3cb7cf78	0.022437796
168	0xbd17d0c0	-0.037064314
169	0x3d588c5e	0.05286824
170	0x3d6bd99b	0.05758057
171	0x3d42f974	0.04760118
172	0x3d61bdf7	0.055112805
173	0x3d1002cd	0.03515892
174	0xbc6bdf6d	-0.014396531
175	0xbd124592	-0.03571088
176	0xbcbde624	-0.023181029
177	0xbd9066d7	-0.07050865
178	0x3d6874f1	0.05675215
179	0x3ca357bc	0.019939296
180	0xbce354b7	-0.027750356
181	0x3d70cc8d	0.058788825
182	0xbd74469c	-0.05963765
183	0xbd2960c0	-0.041352034
184	0xbd7b8a7a	-0.06141136
185	0xbc3d4c6b	-0.011553864
186	0xbd09464f	-0.033514317
187	0x3d3cc20f	0.046083506
188	0xbd4bdb78	-0.04976985
189	0x3d101bd6	0.035182796
190	0x3ba08496	0.004898618
191	0x3d4b11c9	0.049577508
192	0x3d16e15b	0.03683601
193	0x3d83bc16	0.06432359
194	0xbb700bfb	-0.0036628235
195	0xbd973605	-0.0738335
196	0xbadd319f	-0.001687575
197	0xbd7587bc	-0.0599439
198	0x3d28113e	0.04103207
199	0xbca01195	-0.019539634
200	0x3d809dcb	0.062800966
201	0x3ca2110c	0.01978352
202	0xbd5f0391	-0.05444676
203	0xbcf33508	-0.029688373
204	0x3c74e487	0.014947063
205	0x3d2bb4ae	0.041920356
206	0x3d17c58c	0.03705363
207	0xbd261fd5	-0.0405577
208	0x3d787f8d	0.060668517
209	0xbc1aa843	-0.009439531
210	0x3d146adb	0.036234718
211	0x3d64c8e2	0.05585564
212	0xbcde80c3	-0.027161008
213	0xbb93c533	-0.004509592
214	0x3cd8d4df	0.026468692
215	0xbc9f404b	-0.019439837
216	0xbd2d75e5	-0.04234876
217	0x3d2c76b6	0.0421054
218	0x3d3d26cf	0.04617959
219	0xbd2dec9d	-0.04246198
220	0xbd6a6b1e	-0.05723106
221	0x3c9ea428	0.019365385
222	0x3d83b17c	0.06430337
223	0x3c6fe36c	0.014641624
224	0xbd5bd433	-0.053669166
225	0xbc95e467	-0.018297387
226	0xbd8e8640	-0.069592
227	0x3d6143b1	0.054996196
228	0xbcd71e9a	-0.02625971
229	0xbd2196e0	-0.039450526
230	0xbc8a4507	-0.016878618
231	0xbd8e84f8	-0.069589555
232	0xbcd2d51e	-0.025736388
233	0xbd6ee16f	-0.05832046
234	0xbc327d3f	-0.010894119
235	0xbd63ff2f	-0.055663284
236	0xbd4f3894	-0.050591066
237	0x3d14cc2b	0.036327522
238	0xbd7a041d	-0.06103908
239	0xbd63dc44	-0.055629984
240	0xbd95bc4d	-0.07311306
241	0xbd299ef1	-0.041411344
242	0x3d86a95e	0.06575273
243	0xbbcecb88	-0.006310884
244	0xbd4479da	-0.04796777
245	0x3cfb40ac	0.030670486
246	0xbb22c1bc	-0.0024834713
247	0xbd556b98	-0.052104563
248	0xbd00edf2	-0.031476922
249	0x3c5e5133	0.013569164
250	0xbbd69e84	-0.0065496583
251	0x3ce55e5e	0.0279991
252	0x3c334321	0.010941298
253	0xbd94756e	-0.072489604
254	0xbcc1b3b3	-0.023645258
255	0xbd872185	-0.0659819

bias f4 [20]
0	0x3c8a3ebb	0.016875615
1	0xbbaadce3	-0.00521432
2	0xbc367338	-0.011135869
3	0x3bc5ebf9	0.006040093
4	0x3cb76fd8	0.022392198
5	0x3c8f870d	0.017520452
6	0x3c8882a7	0.016663862
7	0x3c287f0a	0.010284195
8	0xbc14366a	-0.009046176
9	0xbc18d348	-0.009327717
10	0x3c099f85	0.008399849
11	0xbbd5456c	-0.00650852
12	0x3c5997ff	0.013280868
13	0x3bacb010	0.0052700117
14	0x3c00e4c7	0.007867045
15	0xbcba0564	-0.022707649
16	0x3b5b02f6	0.0033418513
17	0x3c8894d9	0.016672539
18	0x3c48aad9	0.0122477645
19	0xbc79d2b6	-0.015247991

weight f4 [50, 20, 3, 3, 3]
0	0xbd82c7ea	-0.06385787
1	0xbc9dc886	-0.019260656
2	0x3df2db77	0.11858266
3	0xbde80592	-0.113291875
4	0x3def6d32	0.11690749
5	0x3dbfda7b	0.09367844
6	0x3dbd8f99	0.09255905
7	0x3dcc2790	0.099684834
8	0xbd0e0654	-0.034674004
9	0xbde9fa63	-0.114247106
10	0xbd7c7499	-0.061634634
11	0x3d8613f4	0.065467745
12	0x3e151b07	0.14561091
13	0xbd708b69	-0.058726702
14	0x3dd6c574	0.1048688
15	0xbdf1f701	-0.118146904
16	0xbb1b9f13	-0.0023745939
17	0x3dac41e3	0.084110044
18	0xbd278d0e	-0.040906005
19	0x3caf28b2	0.02138171
20	0xbd916a7f	-0.07100391
21	0x3e1cf3ea	0.15327421
22	0x3e0fddab	0.14049403
23	0x3d968aa2	0.07350661
24	0x3d73ce85	0.059523124
25	0x3d9cef67	0.0766285
26	0x3d99379c	0.0748131
27	0x3bea219f	0.007145121
28	0x3dbfc171	0.09363068
29	0x3d957816	0.07298295
30	0x3abe87c8	0.0014536316
31	0xbd5a1ff0	-0.053253114
32	0x3d88c2fa	0.06677814
33	0x3ce0da39	0.027447807
34	0x3d1e58a3	0.03865875
35	0xbd911a43	-0.07085087
36	0xbdb50797	-0.08839338
37	0xbdb99b56	-0.09062831
38	0xbd05eb1e	-0.03269493
39	0xbd56c05f	-0.052429553
40	0x3b141065	0.002259278
41	0xbe1e2078	-0.15442073
42	0xbd43bd13	-0.047787737
43	0xbce7ce5a	-0.028296638
44	0xbe2f208a	-0.17102256
45	0xbdf16f2e	-0.11788784
46	0x3d526878	0.05136916
47	0xbda62747	-0.0811296
48	0xbc7c7364	-0.015408371
49	0x3dfd6a5f	0.12373804
50	0x3cf596e9	0.029979186
51	0x3c8df599	0.017329024
52	0x3d86566a	0.06559451
53	0x3d1eac2d	0.03873842
54	0xbd713548	-0.058888704
55	0xbdf2e94c	-0.11860904
56	0xbdcf81b4	-0.10132161
57	0x3e07ae60	0.13250113
58	0x3dc59227	0.09647017
59	0x3d1d6527	0.038426545
60	0xbd994d0b	-0.07485398
61	0x3c135f10	0.008994833
62	0xbe20b8cd	-0.15695496
63	0xbc8d5dbc	-0.01725661
64	0x3d99b013	0.075042866
65	0xbd5f5d05	-0.05453207
66	0x3dfb41a6	0.12268381
67	0xbd1ddd26	-0.03854098
68	0xbe09462c	-0.13405675
69	0x3de3b184	0.11117843
70	0xbcd47c97	-0.025938315
71	0x3d7dda9e	0.061976068
72	0xbdb4272e	-0.087965354
73	0x3dbef3b0	0.093238235
74	0xbddd59d5	-0.1080815
75	0xbd375cb8	-0.044766158
76	0xbd27ad7a	-0.040936925
77	0xbd72045e	-0.059086196
78	0x3da7a0dd	0.08184979
79	0x3c38eb54	0.011286575
80	0xbe102551	-0.14076735
81	0xbddef6ed	-0.10886941
82	0x3dc0d743	0.09416058
83	0x3e054814	0.13015777
84	0xbde956ce	-0.1139351
85	0x3ccd3aac	0.025052391
86	0xbd9e14cd	-0.07718811
87	0xbd46a710	-0.048499167
88	0xbd0a6fad	-0.03379791
89	0xbdd5ec15	-0.1044542
90	0xbdbeb628	-0.09312087
91	0xbd0f5623	-0.034994256
92	0x3d20fd1e	0.03930389
93	0xbdc5c871	-0.09657372
94	0x3d2b9c15	0.0418969
95	0xbbb6c543	-0.0055777146
96	0xbe14aff0	-0.1452024
97	0xbd8c8500	-0.06861305
98	0x3d16b5c9	0.036794458
99	0xbdbe2412	-0.092842236
100	0xbd2b47e4	-0.041816607
101	0xbdc4fb0b	-0.09618195
102	0x3d7cec07	0.06174853
103	0x3db0862a	0.0861934
104	0xbc7a5ab0	-0.015280411
105	0xbd8e2ee9	-0.06942541
106	0xbe06cc58	-0.13163888
107	0xbd994b05	-0.07485012
108	0x3bedc310	0.0072559193
109	0x3d240b27	0.0400497
110	0xbe0bf766	-0.13668594
111	0x3d2e1ef7	0.04251
112	0x3d41727d	0.047228325
113	0xbe182f38	-0.14861763
114	0xbaebf151	-0.0018000995
115	0x3d2aaaa8	0.041666657
116	0x3da86ade	0.08223508
117	0xbe067939	-0.1313218
118	0x3d94eaea	0.07271369
119	0xbe0d3ea3	-0.13793425
120	0x3e0af76c	0.13570946
121	0xbdc16bdc	-0.09444401
122	0x3d7fe09d	0.062470067
123	0x3dfab9fb	0.12242504
124	0x3e0c29fb	0.1368789
125	0x3cd3e046	0.025863778
126	0x3c777966	0.015104627
127	0x3e02e5a0	0.12782907
128	0x3dfaab1a	0.12239666
129	0xbcc1735e	-0.023614582
130	0x3e244f25	0.16045816
131	0x3d9725a3	0.073802255
132	0xbd4e5751	-0.05037624
133	0xbdbbfc1e	-0.09178947
134	0x3e14e8f1	0.14541985
135	0xbd615bd2	-0.055019207
136	0x3daba76d	0.08381543
137	0x3e191f31	0.14953305
138	0x3cf0ccfb	0.029394617
139	0xbcfb1bd1	-0.030652912
140	0x3e09dacb	0.13462369
141	0x3e15c910	0.1462748
142	0xbd28bc58	-0.041195244
143	0x3d69f08f	0.05711418
144	0x3d9d82ff	0.07691001
145	0x3d8f9ef5	0.070127405
146	0xbd99a965	-0.075030126
147	0x3dd14f1b	0.10220166
148	0xbdddc186	-0.10827927
149	0xbd1a4c5e	-0.037670486
150	0x3c1e0816	0.0096454825
151	0x3e15d0dc	0.14630455
152	0xbdc4807e	-0.095948204
153	0x3e08dbc1	0.1336508
154	0xbc38e58c	-0.011285197
155	0xbe0df89d	-0.1386437
156	0x3d4f1cdf	0.050564643
157	0x3cfc236b	0.030778607
158	0xbdebf444	-0.11521199
159	0xbe0f205d	-0.1397719
160	0x3e1b3588	0.1515714
161	0x3d5fefd0	0.054672062
162	0x3e000367	0.12501298
163	0xbdff544d	-0.12467251
164	0x3d1f35f5	0.038869817
165	0xbd82cb23	-0.063864015
166	0xbbffdaee	-0.007808081
167	0xbd5e3e72	-0.05425877
168	0x3d47a807	0.048744228
169	0x3d84e501	0.064889915
170	0xbdf76764	-0.12080267
171	0x3de8a41a	0.11359425
172	0x3dcad8fe	0.09904669
173	0x3dd5cfbb	0.10440012
174	0x3db1bc2b	0.08678468
175	0x3d0031d2	0.031297512
176	0xbe0ecfaf	-0.13946413
177	0x3ded2d76	0.115809366
178	0xbdce930b	-0.1008664
179	0xbe0bc6a7	-0.13649999
180	0x3d1b6cba	0.037945487
181	0x3d8f8533	0.070078276
182	0xbe1366d7	-0.14394699
183	0xbdbed922	-0.093187585
184	0xbde2ff58	-0.11083859
185	0x3bbf9ec7	0.005847785
186	0xbcc14385	-0.023591766
187	0x3d53d4c7	0.051716592
188	0x3dfe4603	0.124156974
189	0xbdb59aae	-0.088673934
190	0x3de10e3e	0.109890446
191	0xbd183511	-0.037159983
192	0x3e1c5b13	0.15269117
193	0xbdc7c362	-0.09754063
194	0x3e1c2a67	0.1525055
195	0xbd2047a8	-0.039130837
196	0xbc07cbf7	-0.008288375
197	0xbd032916	-0.032021604
198	0xbd795949	-0.060876165
199	0xbc231294	-0.00995316
200	0x3c15c0d8	0.009140216
201	0x3db4a2f3	0.088201426
202	0x3da30617	0.07960146
203	0xbd7c27d8	-0.061561435
204	0xbdae2a5c	-0.08504173
205	0x3db1eff5	0.08688346
206	0x3dae8908	0.085222304
207	0x3d7a8dda	0.061170436
208	0xbcc6f891	-0.024288448
209	0xbd767ef5	-0.06017967
210	0x3dbc05f8	0.09180826
211	0x3d8d9e4c	0.06914958
212	0xbaeab01c	-0.0017905268
213	0xbddff836	-0.10936014
214	0xbcc143a3	-0.023591822
215	0x3c7b3449	0.01533229
216	0xbcca4627	-0.024691654
217	0xbc8c82fb	-0.0171523
218	0xbb7c61c2	-0.0038510417
219	0x3d6e9157	0.058244076
220	0x3df37091	0.11886705
221	0xbbe76f7f	-0.007062852
222	0xbb060672	-0.002045062
223	0x3d8946fe	0.06702994
224	0xbdd5cb37	-0.10439151
225	0x3d9310f9	0.07180972
226	0xbc1d39ce	-0.009596301
227	0x3e2056d3	0.15658121
228	0x3c81057c	0.015749685
229	0x3e0af121	0.13568546
230	0x3cfe49c3	0.031041032
231	0xbd752c82	-0.0598569
232	0x3c2b4034	0.010452319
233	0xbdfe53c2	-0.12418319
234	0xbd66bf51	-0.056334797
235	0x3cc3636b	0.023851117
236	0xbdbbc72a	-0.09168847
237	0x3dcb4d42	0.09926845
238	0x3d996a6c	0.074910015
239	0x3dabb87f	0.08384799
240	0xbdad9be1	-0.08476997
241	0xbe174482	-0.14772227
242	0xbcc230ed	-0.02370497
243	0xbd21309e	-0.039353006
244	0xbd11cd7f	-0.035596367
245	0x3d99c1af	0.07507645
246	0x3dc701fa	0.09717174
247	0xbddb4207	-0.10705953
248	0x3c984608	0.018588081
249	0x3dd8598f	0.10563957
250	0x3d71c518	0.059025854
251	0x3dc57ee4	0.09643343
252	0xbe0ed21b	-0.13947336
253	0xbdc30514	-0.09522453
254	0xbdda1419	-0.106483646
255	0xbe159e23	-0.14611106

bias f4 [50]
0	0x3cfb825d	0.03070181
1	0xbd23f914	-0.04003246
2	0xbd2f0ab7	-0.042734828
3	0xbcc663e6	-0.024217557
4	0xbd3668cc	-0.044533536
5	0xbcc10dfa	-0.023566235
6	0xbced64d0	-0.028978735
7	0x3d437203	0.047716152
8	0xbbdac939	-0.0066768196
9	0x3df99a74	0.12187663
10	0xbcaae7f2	-0.020862553
11	0x3ccc8e2e	0.02497014
12	0xbc130b9a	-0.008974934
13	0xbbd1aa61	-0.0063984846
14	0x3d315741	0.043296102
15	0x3d0b175a	0.033957817
16	0x3d850715	0.064954914
17	0x3c931f2a	0.017959196
18	0xbbd27999	-0.006423187
19	0x39862324	0.00025584653
20	0x3dac48f9	0.08412356
21	0x3d874fb0	0.06606996
22	0x3d0ab9c5	0.03386857
23	0xbd34a08a	-0.044098414
24	0x3c53ce1f	0.012927561
25	0xbb66a07a	-0.0035190866
26	0xbd189481	-0.037251
27	0xbd084759	-0.033271167
28	0x3da9eb7e	0.0829687
29	0x3cb5a616	0.022173923
30	0xbd131b0b	-0.035914462
31	0x3ce4f016	0.027946513
32	0xbd21d5e5	-0.039510626
33	0x3b6a1842	0.0035720025
34	0xbc8714d1	-0.016489418
35	0x3c8944df	0.016756473
36	0x3c0b3aca	0.008497903
37	0x3b2648ef	0.0025373062
38	0x3d4707a9	0.04859129
39	0x3cb60729	0.022220211
40	0xbce36bec	-0.027761422
41	0x3cc92876	0.024555426
42	0x3c3d46b1	0.011552499
43	0x3d433c8a	0.047665156
44	0x3c147a31	0.009062336
45	0x3ce47c5f	0.027891336
46	0x3ced65cc	0.028979205
47	0x3d49da27	0.049280312
48	0xbd0879dc	-0.03331934
49	0xbd7a6784	-0.061133876

weight f4 [2, 50, 1, 1, 1]
0	0x3e5e280d	0.21694966
1	0xbee872cb	-0.4540008
2	0xbf07ebe8	-0.5309434
3	0xbea31f43	-0.31859788
4	0xbe929a62	-0.2863341
5	0xbe077cc5	-0.1323119
6	0xbf3b74ef	-0.732253
7	0x3f1c6d8e	0.6110467
8	0x3e91148a	0.28335983
9	0x3f0b068c	0.54306865
10	0x3e830cfa	0.25595838
11	0x3e9d10f5	0.30677
12	0xbca04174	-0.01956246
13	0x3e20098d	0.15628643
14	0x3f14e7ad	0.5816601
15	0x3e607840	0.21920872
16	0x3ee61243	0.44935808
17	0x3dad3fcb	0.08459433
18	0x3f0b3501	0.5437775
19	0xbf4f327a	-0.80936396
20	0x3f0ef816	0.558473
21	0x3ed721fd	0.42018119
22	0x3e7e5258	0.24836099
23	0x3be15b94	0.006877372
24	0x3ececc85	0.4039041
25	0xbee2e5a1	-0.44315818
26	0x3c05f716	0.008176586
27	0xbdc2201e	-0.09478782
28	0x3f45a227	0.7720055
29	0xbe7db176	-0.24774727
30	0xbe115832	-0.141938
31	0x3f2e4dfa	0.6808773
32	0x3c29e5a7	0.010369695
33	0x3ea9189a	0.33026582
34	0xbf2f44b1	-0.6846419
35	0x3f485f72	0.7827064
36	0x3f223674	0.6336434
37	0xbe8d942f	-0.27652118
38	0x3ec5b7f4	0.38616908
39	0x3e836f6f	0.25670955
40	0xbf3e5ca8	-0.7436013
41	0xbc5c5bed	-0.013449651
42	0x3eddc19d	0.43311778
43	0x3f235fa8	0.63817835
44	0x3f3aad9f	0.72921175
45	0x3e81c06d	0.25342122
46	0x3e845fae	0.25854248
47	0x3e8bab3f	0.27279088
48	0x3f28b28b	0.65897435
49	0xbf09c195	-0.5381101
50	0xbeb88c3f	-0.360445
51	0x3ef6c4f9	0.48197153
52	0x3f12f2a2	0.5740148
53	0x3d5db8dd	0.054131377
54	0x3e84d7ea	0.2594598
55	0x3e59e329	0.21278061
56	0xbf0d753e	-0.5525702
57	0xbe0982fb	-0.13428871
58	0x3df65a70	0.12028968
59	0xbf3869a0	-0.7203617
60	0x3ea92db3	0.33042678
61	0xbf4ed8f2	-0.8079978
62	0xbe33b833	-0.17550735
63	0x3f10b8b0	0.5653181
64	0xbf1bb31b	-0.6082017
65	0xbcb13b56	-0.021634739
66	0xbf2b20bb	-0.6684682
67	0xbf241c8e	-0.6410607
68	0x3e264c26	0.16239986
69	0x3eaff863	0.34369192
70	0xbf19e95e	-0.60121715
71	0xbe978539	-0.29593828
72	0xbe5469e6	-0.20743522
73	0x3f2aadd0	0.66671467
74	0xbee7c624	-0.45268357
75	0x3f03280e	0.51232994
76	0x3f2b4d78	0.6691508
77	0x3f41e7e9	0.7574449
78	0xbf24e4ff	-0.6441192
79	0xbd35440a	-0.04425434
80	0xbc913ea6	-0.017730068
81	0x3e31307b	0.1730365
82	0x3d5811f8	0.05275151
83	0xbf30f023	-0.6911642
84	0xbf45d849	-0.7728315
85	0xbe622494	-0.22084266
86	0x3f2a24be	0.66462314
87	0xbd8d8741	-0.06910563
88	0xbaa04103	-0.0012226406
89	0xbedf6e7c	-0.4363898
90	0xbee6c697	-0.45073387
91	0xbbc714ad	-0.006075463
92	0xbdeee6f3	-0.11665144
93	0xbf00255a	-0.50056994
94	0x3ed6c8c2	0.4195004
95	0xbf0109b6	-0.5040544
96	0x3e1ddac2	0.1541548
97	0xbe900d60	-0.28135204
98	0x3f00a3d7	0.5025
99	0xbde79fe8	-0.113097966

bias f4 [2]
0	0xbb174577	-0.0023082176
1	0xbe15af18	-0.14617574

weight f4 [5]
0	0x3f4d88f7	0.80287117
1	0x3f4f3c73	0.80951613
2	0x3f4adeb5	0.79246074
3	0x3f4d4f03	0.8019869
4	0x3f5522ad	0.83256036

bias f4 [5]
0	0xbb26fd91	-0.0025480727
1	0xbd5f4154	-0.05450566
2	0xbd0fbb1d	-0.035090555
3	0xbb287614	-0.0025705146
4	0x3b610c80	0.0034339726

running_mean f4 [5]
0	0x4220f114	40.235428
1	0x42a6122c	83.03549
2	0x421de20f	39.47076
3	0xc224ed5d	-41.2318
4	0xbfe1d88b	-1.7644209

running_var f4 [5]
0	0x4398a350	305.27588
1	0x43cde9ff	411.8281
2	0x43a817fe	336.18744
3	0x43768ba4	246.54547
4	0x43811d45	258.22867

weight f4 [10]
0	0x3f5553e6	0.83331144
1	0x3f522310	0.8208475
2	0x3f5210af	0.8205671
3	0x3f377dc4	0.7167628
4	0x3f47545e	0.7786311
5	0x3f3f8fdb	0.7482888
6	0x3f539ab8	0.8265796
7	0x3f4fb097	0.8112883
8	0x3f5a2f7b	0.852287
9	0x3f5a6da9	0.8532358

bias f4 [10]
0	0x3c9e795f	0.019344984
1	0x3c85d71e	0.016337927
2	0x3cd75d90	0.026289731
3	0xbe06c129	-0.13159622
4	0xbd64fd3d	-0.05590557
5	0xbd39dab1	-0.045374576
6	0x3af1fad0	0.0018461589
7	0x3c6e591b	0.014547612
8	0x3cdf3cf8	0.027250752
9	0x3c7252e1	0.014790268

running_mean f4 [10]
0	0x3cb81bb0	0.02247414
1	0xbf246bbc	-0.6422689
2	0xbf24e2fd	-0.64408857
3	0x3fa00048	1.2500086
4	0x3f09cd96	0.53829324
5	0x3de73829	0.112900086
6	0xbab91dd5	-0.001412327
7	0xbf2ad044	-0.6672404
8	0xbe0cd429	-0.13752808
9	0xbc5d74ea	-0.013516644

running_var f4 [10]
0	0x3ede4c2b	0.43417487
1	0x3f18d8da	0.5970589
2	0x3f27cae5	0.6554397
3	0x40536be0	3.3034592
4	0x3fb009cd	1.3752991
5	0x3efbea4f	0.492022
6	0x3f0bb41d	0.54571706
7	0x3f5d2693	0.86386985
8	0x3ee08490	0.43851137
9	0x3ee285c5	0.44242683

weight f4 [20]
0	0x3f5b68fa	0.85707057
1	0x3f4e5d9e	0.806116
2	0x3f3a0a9e	0.7267245
3	0x3f5543ea	0.83306754
4	0x3f57abc7	0.84246486
5	0x3f570a2a	0.83999884
6	0x3f4a5eea	0.7905108
7	0x3f4db987	0.8036122
8	0x3f540601	0.8282166
9	0x3f5dded8	0.8666816
10	0x3f34fa14	0.7069409
11	0x3f460e42	0.77365506
12	0x3f623cd4	0.88374066
13	0x3f57fe73	0.84372634
14	0x3f2ed0a0	0.68287086
15	0x3f641ad1	0.8910342
16	0x3f3d89e1	0.7403851
17	0x3f592912	0.84828293
18	0x3f610f8f	0.87914366
19	0x3f53f11a	0.82789767

bias f4 [20]
0	0x3e16e290	0.14734864
1	0xbe507743	-0.20357995
2	0xbe0f48fe	-0.13992688
3	0x3c93e90e	0.018055465
4	0x3dae589e	0.08512996
5	0x3d35177d	0.044211853
6	0x3d11e8ea	0.035622515
7	0x3cb025e0	0.021502435
8	0x3cc7b276	0.024377089
9	0x3ddd9643	0.10819676
10	0xbe2e8f31	-0.1704681
11	0xbc8d39ca	-0.01723947
12	0x3e58ec09	0.2118379
13	0x3ddbfb55	0.10741297
14	0xbd899fd6	-0.067199394
15	0x3dfd5898	0.123704135
16	0xbdff9a3d	-0.124805905
17	0x3d829681	0.063763626
18	0x3e322a7e	0.17399022
19	0x3d909d80	0.07061291

running_mean f4 [20]
0	0xbf32c3bd	-0.6982992
1	0x3f7a16ea	0.97691214
2	0x3fc06b78	1.5032797
3	0x3ea9ab53	0.33138523
4	0xbe81afcd	-0.25329438
5	0xbe92f031	-0.28698877
6	0xbe32e294	-0.17469245
7	0xbf4780d4	-0.7793095
8	0x3efe93b5	0.49722067
9	0xbea431f3	-0.32069358
10	0x3f89abb0	1.075552
11	0x3d0d261a	0.034460165
12	0xbf8c4272	-1.0957778
13	0xbd26f205	-0.04075815
14	0x3f1ac942	0.60463345
15	0x3f048c58	0.5177665
16	0x3f87a7ec	1.0598121
17	0x3de2d62b	0.110760055
18	0xbf3e2216	-0.7427076
19	0xbe62733d	-0.22114272

running_var f4 [20]
0	0x3ff01034	1.8754945
1	0x41271248	10.441963
2	0x41620d8a	14.128305
3	0x3f986d9e	1.1908453
4	0x3fbae1b6	1.4600132
5	0x3fa81747	1.3132104
6	0x3f4e0fd5	0.8049291
7	0x3fc675fc	1.5504756
8	0x3f849b78	1.0359945
9	0x3f854f69	1.0414859
10	0x4161aaf5	14.104238
11	0x3f767949	0.96278816
12	0x3ff65155	1.924357
13	0x3fa43a82	1.2830355
14	0x402ca92e	2.697826
15	0x3fbe392c	1.4861197
16	0x40b147b5	5.5400033
17	0x3fb18da1	1.3871347
18	0x3fffa796	1.9973018
19	0x3fb2167a	1.3913109

weight f4 [50]
0	0x3f800000	1.0
1	0x3f800000	1.0
2	0x3f800000	1.0
3	0x3f800000	1.0
4	0x3f800000	1.0
5	0x3f800000	1.0
6	0x3f800000	1.0
7	0x3f800000	1.0
8	0x3f800000	1.0
9	0x3f800000	1.0
10	0x3f800000	1.0
11	0x3f800000	1.0
12	0x3f800000	1.0
13	0x3f800000	1.0
14	0x3f800000	1.0
15	0x3f800000	1.0
16	0x3f800000	1.0
17	0x3f800000	1.0
18	0x3f800000	1.0
19	0x3f800000	1.0
20	0x3f800000	1.0
21	0x3f800000	1.0
22	0x3f800000	1.0
23	0x3f800000	1.0
24	0x3f800000	1.0
25	0x3f800000	1.0
26	0x3f800000	1.0
27	0x3f800000	1.0
28	0x3f800000	1.0
29	0x3f800000	1.0
30	0x3f800000	1.0
31	0x3f800000	1.0
32	0x3f800000	1.0
33	0x3f800000	1.0
34	0x3f800000	1.0
35	0x3f800000	1.0
36	0x3f800000	1.0
37	0x3f800000	1.0
38	0x3f800000	1.0
39	0x3f800000	1.0
40	0x3f800000	1.0
41	0x3f800000	1.0
42	0x3f800000	1.0
43	0x3f800000	1.0
44	0x3f800000	1.0
45	0x3f800000	1.0
46	0x3f800000	1.0
47	0x3f800000	1.0
48	0x3f800000	1.0
49	0x3f800000	1.0

bias f4 [50]
0	0x00000000	0.0
1	0x00000000	0.0
2	0x00000000	0.0
3	0x00000000	0.0
4	0x00000000	0.0
5	0x00000000	0.0
6	0x00000000	0.0
7	0x00000000	0.0
8	0x00000000	0.0
9	0x00000000	0.0
10	0x00000000	0.0
11	0x00000000	0.0
12	0x00000000	0.0
13	0x00000000	0.0
14	0x00000000	0.0
15	0x00000000	0.0
16	0x00000000	0.0
17	0x00000000	0.0
18	0x00000000	0.0
19	0x00000000	0.0
20	0x00000000	0.0
21	0x00000000	0.0
22	0x00000000	0.0
23	0x00000000	0.0
24	0x00000000	0.0
25	0x00000000	0.0
26	0x00000000	0.0
27	0x00000000	0.0
28	0x00000000	0.0
29	0x00000000	0.0
30	0x00000000	0.0
31	0x00000000	0.0
32	0x00000000	0.0
33	0x00000000	0.0
34	0x00000000	0.0
35	0x00000000	0.0
36	0x00000000	0.0
37	0x00000000	0.0
38	0x00000000	0.0
39	0x00000000	0.0
40	0x00000000	0.0
41	0x00000000	0.0
42	0x00000000	0.0
43	0x00000000	0.0
44	0x00000000	0.0
45	0x00000000	0.0
46	0x00000000	0.0
47	0x00000000	0.0
48	0x00000000	0.0
49	0x00000000	0.0

running_mean f4 [50]
0	0x00000000	0.0
1	0x00000000	0.0
2	0x00000000	0.0
3	0x00000000	0.0
4	0x00000000	0.0
5	0x00000000	0.0
6	0x00000000	0.0
7	0x00000000	0.0
8	0x00000000	0.0
9	0x00000000	0.0
10	0x00000000	0.0
11	0x00000000	0.0
12	0x00000000	0.0
13	0x00000000	0.0
14	0x00000000	0.0
15	0x00000000	0.0
16	0x00000000	0.0
17	0x00000000	0.0
18	0x00000000	0.0
19	0x00000000	0.0
20	0x00000000	0.0
21	0x00000000	0.0
22	0x00000000	0.0
23	0x00000000	0.0
24	0x00000000	0.0
25	0x00000000	0.0
26	0x00000000	0.0
27	0x00000000	0.0
28	0x00000000	0.0
29	0x00000000	0.0
30	0x00000000	0.0
31	0x00000000	0.0
32	0x00000000	0.0
33	0x00000000	0.0
34	0x00000000	0.0
35	0x00000000	0.0
36	0x00000000	0.0
37	0x00000000	0.0
38	0x00000000	0.0
39	0x00000000	0.0
40	0x00000000	0.0
41	0x00000000	0.0
42	0x00000000	0.0
43	0x00000000	0.0
44	0x00000000	0.0
45	0x00000000	0.0
46	0x00000000	0.0
47	0x00000000	0.0
48	0x00000000	0.0
49	0x00000000	0.0

running_var f4 [50]
0	0x3f800000	1.0
1	0x3f800000	1.0
2	0x3f800000	1.0
3	0x3f800000	1.0
4	0x3f800000	1.0
5	0x3f800000	1.0
6	0x3f800000	1.0
7	0x3f800000	1.0
8	0x3f800000	1.0
9	0x3f800000	1.0
10	0x3f800000	1.0
11	0x3f800000	1.0
12	0x3f800000	1.0
13	0x3f800000	1.0
14	0x3f800000	1.0
15	0x3f800000	1.0
16	0x3f800000	1.0
17	0x3f800000	1.0
18	0x3f800000	1.0
19	0x3f800000	1.0
20	0x3f800000	1.0
21	0x3f800000	1.0
22	0x3f800000	1.0
23	0x3f800000	1.0
24	0x3f800000	1.0
25	0x3f800000	1.0
26	0x3f800000	1.0
27	0x3f800000	1.0
28	0x3f800000	1.0
29	0x3f800000	1.0
30	0x3f800000	1.0
31	0x3f800000	1.0
32	0x3f800000	1.0
33	0x3f800000	1.0
34	0x3f800000	1.0
35	0x3f800000	1.0
36	0x3f800000	1.0
37	0x3f800000	1.0
38	0x3f800000	1.0
39	0x3f800000	1.0
40	0x3f800000	1.0
41	0x3f800000	1.0
42	0x3f800000	1.0
43	0x3f800000	1.0
44	0x3f800000	1.0
45	0x3f800000	1.0
46	0x3f800000	1.0
47	0x3f800000	1.0
48	0x3f800000	1.0
49	0x3f800000	1.0
