models/deepvesselnet_noisy.model (torch_old, 243940 bytes, 26 tensors)

weight f4 [5, 1, 3, 3, 3]
00000000: 8e49 153d 4a43 023d 699d 913d 9854 5bbe
00000010: bded e0bd f015 70be 08d3 da3d 89d7 55be
00000020: 2fc5 0d3e bd26 743d 833c 473d ac86 893d
00000030: 3dd3 553e 4302 d93d 0065 64be 9989 07bd
00000040: 4f04 23be 8a9f 9ebd d8e8 c13e a4ac 6d3e
00000050: baf8 353c 4be2 6f3c 6c64 283e 3012 31bd
00000060: 3c77 99bc effb 51be 5224 febd 6fdb 753e
00000070: dd10 7a3d 7e74 cf3d 516c 173e a1ef 763e
00000080: 01c6 9d3e 94d2 fa3d 2b88 743d d61c f33d
00000090: 1084 303e 834b b23e 6ef7 da3d d669 b93e
000000a0: 1f29 003f 2b01 893e d60a 953d 048f 833e
000000b0: b4cd 8d3e 62a0 913e 2255 cf3e cca5 813e
000000c0: 3ee7 293e 7272 db3e 768a c53e 2f26 843e
000000d0: 9a2b 853e d06d bb3e c42b 9cbc cc63 a3bc
000000e0: 7461 a93c 5066 3abb 11b6 b5bd d9fc f43b
000000f0: 3aaf 85bc 176e 4dbe 0864 26be a1e9 37be
00000100: 19f9 1e3e dde6 313e ee05 edbd 9f75 e53c
00000110: 9cde f9bd 6049 3d3d 41be a0ba 7e91 1fbd
00000120: 5c1a e9bd 35be 3a3d cbca 1abd 200b 413c
00000130: 1f79 583e d6b4 e53d 8dfe 6e3d a781 9d3e
00000140: bfcc cdbc e178 9a3d 5f8e 2cbd c32c c33d
00000150: 50a7 54be cd5c b2bd 06dc 34bd 94dd 363e
00000160: aaa2 dfbd e083 14bd 069e 99bc 35d9 b0bd
00000170: 03c5 acbd 2207 25be b609 1ebe 6f69 39be
00000180: 4775 febd 1fb8 1cbe 72ae fc3c 6168 803d
00000190: 7285 4e3d b8e3 9b3d ab51 ec3d 15e4 7abe
000001a0: 2cda 003e 62b9 6cbd faf9 123e 098f 81bd
000001b0: ce0b b8bd 3610 a0bd c7cd f2bd 3de0 24bd
000001c0: c991 bebc 1e1a 49be b7a1 9f3e ccde 373d
000001d0: a007 d43d 13e5 283e 8694 3fbe 362d f7bd
000001e0: 3a20 debd f4e8 35be 72bc 57bd 990e ee3d
000001f0: 3a51 413e 4f3d dabb 1456 4d3e adc4 203d
00000200: 44ac 103e a1be 20be 9522 76be a829 4dbe
00000210: 2038 3a3d 6ff7 d8bc cd07 393e
0.0364471 0.031802453 0.07110102 -0.21418989 -0.10982845 -0.23445868 0.10684782 -0.20883001
0.13844751 0.059607256 0.048641693 0.0671514 0.20881362 0.105961345 -0.22304153 -0.033090208
-0.15919612 -0.077452734 0.37872958 0.23210388 0.011106664 0.014641355 0.16444558 -0.043230236
-0.018733613 -0.20506261 -0.12409271 0.24009489 0.06105124 0.10129641 0.14787413 0.24114849
0.30815127 0.12247196 0.059700172 0.118707344 0.17237878 0.34823236 0.10691725 0.3621356
0.50062746 0.26758704 0.072774574 0.2569505 0.27696002 0.28442675 0.4049464 0.25321805
0.16592118 0.42860752 0.385822 0.25810382 0.26009828 0.36607218 -0.019063838 -0.019945048
0.020676352 -0.002844233 -0.08872617 0.007476431 -0.016318906 -0.20061527 -0.16249096 -0.17960216
0.1552471 0.17373224 -0.115733966 0.028010188 -0.122006625 0.046212554 -0.0012263731 -0.03895711
-0.11381981 0.04559155 -0.037791055 0.011782438 0.21139954 0.11216132 0.058348227 0.3076298
-0.025122045 0.07542587 -0.042127963 0.09530022 -0.2076695 -0.087091066 -0.044155143 0.17857963
-0.109196976 -0.03625858 -0.01875211 -0.08635179 -0.084360145 -0.16116002 -0.15433392 -0.18106626
-0.12424713 -0.15304612 0.0308449 0.06269909 0.050420232 0.07611793 0.115390144 -0.24501069
0.12583226 -0.057793982 0.14353171 -0.0632611 -0.089866266 -0.07815592 -0.11855655 -0.040252913
-0.023262875 -0.19638869 0.31178066 0.04489021 0.10353017 0.16493635 -0.18709001 -0.1206917
-0.108459905 -0.17764646 -0.05266995 0.11623878 0.18878642 -0.0066601406 0.20052367 0.039250065
0.14128214 -0.15697719 -0.2403663 -0.20035422 0.04546368 -0.026485173 0.18069382

bias f4 [5]
00000000: f3c9 1f3c 4042 32bd c07c 1ebe 8746 bdbd
00000010: 8164 de3b
0.009752738 -0.043520212 -0.15477276 -0.09241968 0.0067868833

weight f4 [10, 5, 5, 5, 5]
00000000: 44ad c13b a843 55bc aa9b 3fbc 69f4 26bd
00000010: f7a7 e2bd 9302 acbd db0f 933a b5ff 9b3b
00000020: b192 7f3d b789 89bd f58c a2bd 3335 9cbd
00000030: 249b 91bd b7c2 93bd 8a12 8b3d 84cb 03bc
00000040: 8553 ef3c a722 f73b c133 26bd f74c 8a3d
00000050: c742 c3bb afa9 4f3c e3b7 3dbd 300b 22bd
00000060: 7a20 b73d 474f 2dba 64d6 9c3b b288 aebd
00000070: b927 1c3d b687 39bd 1793 183c 517c 9d3d
00000080: e3c2 a83d a71f 42bc 11c3 90bd 8660 9d3c
00000090: b6d1 f23c af21 d63d 7c7c 2cbd 8d20 f1bc
000000a0: 2cd6 15bd 53a3 063d 1e1d dd3d 94b4 8e3d
000000b0: 7348 7dbd d771 7aba 5023 453c 0ab0 c13c
000000c0: 1829 173e 7b54 b63d 2f3c d1bd 4667 223d
000000d0: 0e87 e1bc 54ee 49bb acfc f83c e68f a63c
000000e0: b97c 133d 0420 b2bd 31cc 343c 3d59 5a3d
000000f0: 969c 8abd 620a baba 6e7b c5bc e6de 033e
00000100: 4d40 c6bc eb6a a6bd a315 d0bc 0cfa fa3d
00000110: 68aa f73c 9c5b df3c 602e 583d 49ba d83d
00000120: 46c8 f23d 389a d73c c9d3 f33d 58b2 9fbd
00000130: a28e dfbd 4eb4 d5bd 4ffe 853d 2e71 0a3d
00000140: 3cc2 573d 148f 82bd 941f 9dbc a71f 103b
00000150: 2d10 ad3b 5664 fa3c 3865 72bd 7a5c 9bbd
00000160: be77 4b3d 68a8 8f3d a833 823c 6ebf 6dbd
00000170: 6696 a43d da7a a03d 00ef 74bd f5e2 65bd
00000180: 4861 a73d 61ec acbc aa27 9d3d f3aa efbb
00000190: 3c17 353d 938a 933b bd02 303d 54f4 803d
000001a0: 6478 02be 9a4c d5bc 6d26 bbbd 5205 a3bd
000001b0: ca47 62bc 99a1 adbd cc52 6e3d a50b 17bd
000001c0: 182f 353d f5c7 42bd 864c c33b 302d 2e3b
000001d0: c66c ac3c 81a1 a1bd ca99 30bd ea8a 8c3c
000001e0: 695a febc ad5f 493d 33a7 f9bb abbd 6ebd
000001f0: 0c8f 6cbc 23f8 803b ce13 053d 7726 bdbd
00000200: 014a 16bc aadd c2bd 7e12 cb3c 17ce 25bc
00000210: f07a 5fbd 3372 95bd 9f8f 06bd 74bb 46bd
00000220: d552 91ba e098 7bbd b14e 753c d859 533d
00000230: 4234 b8bc c9dd b5bc 1bbd 2b3d 0e47 e1bd
00000240: 0bbd dcbd 46ba 00bd b6b4 b8bd 4822 323d
00000250: 86a2 ca3c 8988 d3bd e4d5 abbd 8299 59bd
00000260: 8321 2fbd 761d 7dbd 63ec 393d 6023 57bd
00000270: 1210 c33d b0d9 a03c cd81 b73d 6082 933c
00000280: f71b 30bd 0b51 793d b731 923d 8ca1 4e3d
00000290: 3e1c c6bc 67b5 213d 42b8 183d 3bfb a0bb
000002a0: 3da6 bd3d e676 3dbd 5a25 333d 4a3e 7e3d
000002b0: a00d 893d 727d 4abd 6a9e 303c a6f1 033d
000002c0: 004f 5fbb 0e0c c13d 34e6 93bc bc56 433d
000002d0: 9745 bc3d 8b77 65bc 26d8 4f3d 4383 16bd
000002e0: 85f3 5cbd 3036 c83d 29c2 133e 0ca5 c53c
000002f0: 1422 b83d 5ae0 043d 3dbc 3ebd fd1f 443d
00000300: f52e b63d 966f 0fbb 4b29 97bc 8f32 8b3c
00000310: fbdd 0c3c 3bc4 da3c baeb b53d f529 e43c
00000320: b8f0 d3bc dc8b 763d 6b2f 8d3d 280a 04bd
00000330: 65bc a8bd 11cd a03c 199b 91bb b123 ee3c
00000340: f9ba 10bd f3a1 89bd 7443 39bd b620 ad3d
00000350: d799 083e 1d23 b3bb 75a7 adbc 6715 bf3d
00000360: 16e6 b53d c387 3abc efb5 413d 99ac 3ebd
00000370: f737 bcbc 2078 0fbd 5176 43bd a08f 933d
00000380: f797 93bb 8bd7 edbc e3b4 b33a 0e90 86bd
00000390: 03f0 0bbc 7281 713c b4cf 02bd e569 193d
000003a0: cc49 603d 0030 ae3d a6ca 81bd 868c d53c
000003b0: ee24 643c f1d6 7e3d d90b a43d 46ed 08bd
000003c0: dd2d 83bd 57b0 28bd 27d1 67bd 50b4 683d
000003d0: 6c2e 93bc 13d1 95bd 9883 85bc ed69 4b3a
000003e0: 5032 eb3c 288b 053c 907b 60bc b4b1 2b3d
000003f0: 2eb5 413d 0c18 88bc 96a8 a8bd 1263 97bd
0.0059105475 -0.013016619 -0.011694828 -0.04076043 -0.11067193 -0.083989285 0.0011219935 0.0047607073
0.062395755 -0.0671572 -0.07937042 -0.076273344 -0.07109669 -0.07214873 0.067906454 -0.008044127
0.02921463 0.0075419727 -0.0405767 0.06752961 -0.005958888 0.012674733 -0.046317946 -0.03956145
0.08941741 -0.00066112395 0.0047862995 -0.08522166 0.03812382 -0.04529544 0.009312413 0.07689727
0.08240297 -0.011848367 -0.07068456 0.019211065 0.029641014 0.104556434 -0.042110905 -0.029434467
-0.036581203 0.032870602 0.10796569 0.06968036 -0.06183667 -0.00095537066 0.012032345 0.023643512
0.1476177 0.08902832 -0.10216557 0.03964927 -0.02753022 -0.003081222 0.03039392 0.020332288
0.036007617 -0.08697513 0.011035011 0.05330776 -0.06768148 -0.0014193768 -0.024106707 0.12877998
-0.024200583 -0.08125862 -0.025400942 0.12254724 0.030232623 0.027265362 0.0527786 0.10582406
0.118546054 0.026318654 0.11905629 -0.07797688 -0.10915877 -0.10434781 0.06542646 0.033799343
0.05267547 -0.06374946 -0.019180097 0.0021991523 0.0052814693 0.030565422 -0.05917856 -0.07585998
0.049674742 0.07014543 0.015893772 -0.05804389 0.08036499 0.07835932 -0.05979824 -0.056124646
0.08172852 -0.021108808 0.07673581 -0.00731408 0.04421161 0.0045026033 0.04297136 0.06296602
-0.12741238 -0.026037503 -0.091381885 -0.07959999 -0.013811061 -0.08478088 0.05818443 -0.03687634
0.044234365 -0.047553975 0.00596005 0.0026577227 0.021047961 -0.078921326 -0.043115415 0.017156083
-0.03104897 0.04916351 -0.0076188087 -0.05828635 -0.014438402 0.00393583 0.03248959 -0.09235852
-0.009172917 -0.09514935 0.024789091 -0.010119936 -0.0545606 -0.072971724 -0.03285181 -0.048518613
-0.0011087308 -0.06142509 0.014972375 0.051599354 -0.022485856 -0.022200482 0.041928392 -0.10999881
-0.107782446 -0.031427644 -0.09018843 0.043489724 0.0247357 -0.103287764 -0.08390406 -0.053124912
-0.04275657 -0.061795674 0.04539145 -0.05252397 0.095245495 0.019635051 0.089603044 0.018006504
-0.04299542 0.060868304 0.071383886 0.05044703 -0.024183389 0.03947964 0.037285097 -0.0049127615
0.09260223 -0.04625597 0.043736793 0.062071122 0.06692052 -0.04943604 0.010779956 0.032212876
-0.0034074187 0.094261274 -0.018054105 0.04769014 0.09192961 -0.014005552 0.050743245 -0.036746275
-0.053943176 0.097759604 0.14429535 0.024126552 0.08990875 0.03244052 -0.046566237 0.04788207
0.08895675 -0.0021886579 -0.018452307 0.016991882 0.008597846 0.026704898 0.08882852 0.027852038
-0.02587162 0.060191974 0.0689381 -0.03223625 -0.082390584 0.019629033 -0.004443538 0.029069753
-0.03533456 -0.067203425 -0.045230344 0.08453505 0.13339935 -0.0054668323 -0.021198014 0.09330254
0.08881776 -0.011384907 0.047292646 -0.04655132 -0.022975905 -0.03502667 -0.047720257 0.07205129
-0.0045041996 -0.029033443 0.0013710525 -0.06570445 -0.00854111 0.014740335 -0.031936362 0.037454505
0.05475788 0.08505249 -0.0633748 0.026067983 0.01392482 0.062216703 0.08010072 -0.033429407
-0.06405232 -0.041183796 -0.056595948 0.056812584 -0.017966472 -0.07315268 -0.0162981 0.00077596196
0.028710514 0.008150853 -0.013701335 0.041917518 0.047291927 -0.016613029 -0.0823528 -0.07391943

bias f4 [10]
00000000: 9cfe 163d 8fe5 c1bc 5733 d6ba 6ef9 9dbc
00000010: 369c bbbc 9752 1c3d 7610 b539 ca3e d4b9
00000020: cec8 ccbc 0f6e e33a
0.03686391 -0.023669032 -0.0016342205 -0.019283976 -0.022901636 0.0381647 0.00034535275 -0.00040482573
-0.024998095 0.0017351526

weight f4 [20, 10, 5, 5, 5]
00000000: 3bc5 973d d6d1 b7bd 314d 8e3d 09da c2bc
00000010: b710 833d 5d42 b0bb 5e51 8bbd 2249 993d
00000020: 4441 b03d 9211 80bd ed1e 0c3d 5677 f73b
00000030: 2d61 7e3c 6e3c ae3d 9fe2 94bd 810d 7d3d
00000040: 058f 9dbc f782 79bd e614 afbd 6670 b7bd
00000050: 1bde e5bc 05e4 6abd a910 74ba 6642 2f3d
00000060: bb10 56bd e53d 433d 550b 30bc 7f2d 903d
00000070: 9b1f 9dbd d429 75bd d706 a03d 0bd6 613d
00000080: aa4a afbd 3d97 36bd 0257 e2bc 29d3 613d
00000090: 9667 80bd 4e40 a23d 648b 353c b69a 00bd
000000a0: 76c4 cbbc 4969 92bd 29fe 61bc b91a 66bd
000000b0: c160 04bb 8367 903c b6e9 3b3d b636 babc
000000c0: f066 743d c915 f43c db11 3dbd d7a2 c7bd
000000d0: 8a81 393d b21a 77bd 6711 8abc e6c8 45bc
000000e0: 628f 48bd 569f e23c cce8 113d 6ac1 b5bd
000000f0: 1b6d bcbc dcb6 ab3b 73da 613d 02f8 9f3d
00000100: a5aa dbbb 9610 7a3d a23e a73c 2dad 7c3d
00000110: 8607 0f3d aeec fe3c 4beb 8a3d a2b3 a2bd
00000120: f8d3 e2bc 8bcc 2b3d 5f8f b4bc 07b5 cc3c
00000130: f407 a93c 2295 a6ba 986e c0bd 66e6 b6bd
00000140: b4a4 10bd d5be ebbb cc6d 293d b4b0 653d
00000150: 329e a8bc e3ea b43c 9e7b 54bd 2c77 2ebd
00000160: f958 8d3c a9e0 aebd 7081 98bd c78d a4bd
00000170: b934 483d 39e2 903c a6ff 313d fcc8 353c
00000180: 2752 a9bd aaf4 a8bd 5181 05bd e2f2 48bd
00000190: d9d6 6fbd e3e1 283d 3c67 813d 2438 363c
000001a0: 6ca7 68bd 6988 153d c2b1 95bd bc64 5b3d
000001b0: 4cc9 053d ed3d c2bd 774a e63c 5608 87bc
000001c0: a334 2c3d 6ff2 a93d eec5 a53c 230d 3e3c
000001d0: 7cd6 9a3d 53b7 ccbb 5676 a23d 58c6 8b3c
000001e0: c5c3 323d cc53 46bd ec82 52bd 19e7 40bd
000001f0: a09f 8ebd d686 843c c016 8d3c 20c2 26bd
00000200: a3c3 34bd 014c ab3c 1f97 26bc f61c 2c3c
00000210: 42f6 b3bd 16fd a03c 56cd 3bbc 8095 70bd
00000220: 9f29 6a3d 4e2c 38bd 49eb 85bc ed72 383d
00000230: e8d5 a7bd e03c d6bc 8712 f03c ff46 afbd
00000240: 7406 1c3d ea7b 683d 1064 b63c 0f5a 90bd
00000250: dd38 313d 2da6 873d 9ee3 053d 37f1 5b3d
00000260: b8f5 6bbb 6def 8fbc a803 a83d 232e bebc
00000270: f9c7 5b3d f46c 823d 8cb4 1a3c dcdb 00bb
00000280: 88d0 f03c de2b a23d be49 683c 8ce8 22bd
00000290: 76ba 79bd 75de 1b3d 16a3 533d b8ef 033d
000002a0: 4409 35bd 0e36 933d e936 b2bc b3f0 ae3d
000002b0: 218c 163d 8973 4a3d 0170 683d d89c b03d
000002c0: 303a cfbc 123a 8c3c 92a1 0d3d a42f 873d
000002d0: a626 8a3c 0997 63bd 43de 9c3d d174 8fbd
000002e0: 7bdf 083d 69f1 9bbd 03d3 053d 2ca2 523d
000002f0: a5bf 2b3d 16e1 9bbd 6692 b3bb bbe3 543d
00000300: 63e6 45bd e36b 0a3d 324d 29bd 7e35 413c
00000310: da83 38bd 7c44 c1bd 456d acbd 9dd6 a6bd
00000320: e5a2 233d 9555 933d f086 b33d 2428 873d
00000330: 3c13 8d3c c54c 9bbd 2838 453b 686a 823d
00000340: 536c 5c3c f36c 8239 9434 debb aeec 59bc
00000350: 71ea 2ebb 227b b63d 56f6 bb3d eb88 86bd
00000360: 8f52 733d 05bf 193c 25b8 033c d670 0abd
00000370: f2cf 08bd 73ba 8f3d aea4 04bd e2a0 55bd
00000380: 48f3 b43c ab3c d13c 44fe ecbc 8bc3 a33c
00000390: b212 973d 97e9 62bd 931f 453c 0324 83bd
000003a0: 9427 24bd 9a66 753d c73d b23c 7706 a23d
000003b0: cf1c 843b 58c6 6db9 238d ae3d e2e4 24bb
000003c0: 6d75 a53d 03b2 ae3d c397 a03d 4406 c2bc
000003d0: 6e94 24bb 6d40 5f3c 8a35 24bc 6d94 00bd
000003e0: 7510 70bd 7815 78bd 2930 073c 7e67 dbba
000003f0: a273 0fbc b62c 913d 60c2 893c 45fe c8bc
0.074106656 -0.0897557 0.06948317 -0.023785608 0.063996725 -0.005379005 -0.06802629 0.07484652
0.086061984 -0.06253351 0.03420918 0.0075520677 0.015526098 0.0850762 -0.07269787 0.061780456
-0.019233236 -0.060915913 -0.08548908 -0.08956985 -0.02806001 -0.057346363 -0.0009310344 0.04278793
-0.05226205 0.04766645 -0.010744889 0.07039928 -0.07672044 -0.059854344 0.078138046 0.055135768
-0.08559163 -0.044577826 -0.02762938 0.05513302 -0.062697574 0.079224214 0.011080597 -0.031397544
-0.024873953 -0.07148988 -0.013793507 -0.05617783 -0.0020199271 0.017627483 0.04587718 -0.022731166
0.05966848 0.029795544 -0.046159606 -0.09747856 0.045289554 -0.060328193 -0.016854001 -0.012071824
-0.048964866 0.027663868 0.035622403 -0.088747814 -0.023001244 0.0052403044 0.05513997 0.078109756
-0.006703692 0.061050974 0.020415608 0.06168859 0.034919284 0.031118717 0.0678316 -0.079444185
-0.027688965 0.041943114 -0.02204102 0.024988664 0.020633675 -0.001270924 -0.09396094 -0.08930664
-0.035313323 -0.00719438 0.041364476 0.05607672 -0.020583246 0.022084659 -0.051875703 -0.04259412
0.01725434 -0.08538944 -0.07446563 -0.080348544 0.048878405 0.017685996 0.043456696 0.011095282
-0.082676224 -0.08249791 -0.03259403 -0.049059756 -0.058554504 0.041231047 0.063185185 0.011121783
-0.05680029 0.036507044 -0.07309295 0.053562865 0.032662675 -0.09484468 0.02811168 -0.016483467
0.042042386 0.08298194 0.020235982 0.011599812 0.07560441 -0.00624744 0.07932727 0.017062351
0.04364373 -0.04841976 -0.051394388 -0.047095392 -0.0696404 0.016177576 0.017222762 -0.040712476
-0.044131886 0.020910265 -0.010167866 0.010504952 -0.08787204 0.01965193 -0.01146253 -0.058736324
0.0571686 -0.044964127 -0.016347544 0.045031477 -0.08195096 -0.026152074 0.02930571 -0.08558463
0.03809209 0.0567588 0.02226451 -0.07048427 0.04326712 0.066234924 0.032687776 0.053696837
-0.0036004614 -0.017570222 0.082038224 -0.02321536 0.053657506 0.063684374 0.00944246 -0.0019662296
0.02939631 0.07918523 0.014177738 -0.039772555 -0.06096884 0.03805395 0.051669203 0.032211035
-0.04419829 0.071880445 -0.021754699 0.085420035 0.03675473 0.04942659 0.05674744 0.086236656
-0.0252963 0.017117534 0.034577914 0.066008836 0.016864132 -0.05556396 0.076595806 -0.07004703
0.033416253 -0.07614405 0.03267194 0.05142419 0.041930813 -0.07611291 -0.0054800985 0.051974993
-0.048315417 0.033794295 -0.041333385 0.011792539 -0.04504762 -0.094368905 -0.08419279 -0.08146403
0.03995027 0.07194058 0.08765972 0.06599453 0.017221086 -0.07583002 0.0030093286 0.06367952
0.013453561 0.00024876706 -0.00678117 -0.013301058 -0.002669003 0.089102045 0.09177844 -0.06569084
0.059404906 0.0093839215 0.008039509 -0.033799015 -0.033401437 0.07017984 -0.032383613 -0.052155383
0.022088662 0.025541624 -0.028929837 0.019990703 0.07376613 -0.05539855 0.012031454 -0.06403353
-0.040076807 0.0599123 0.021757973 0.07911389 0.0040317546 -0.0002267597 0.085230134 -0.002516084
0.08079038 0.08530047 0.07841446 -0.023684628 -0.0025112885 0.0136262 -0.01002253 -0.03139155
-0.058609445 -0.06056735 0.008251228 -0.0016739217 -0.008755596 0.07088606 0.016816318 -0.024535308

bias f4 [20]
00000000: e3c8 443b 195a bebb ebd0 d33c f217 3dbc
00000010: 9869 e63c f07b 533c e33c 6c3c 1bd6 bf3b
00000020: 8ca3 97bc a5dc ad3c 4d7c 9ebc f8a1 d53b
00000030: f240 183c bee2 20bc 998a 2a3c 1454 bb39
00000040: a433 233a 2b44 1f3c 52ce 173c bd23 a9bc
0.0030026964 -0.0058090803 0.025856456 -0.011541354 0.028126523 0.012907967 0.014418813 0.005854381
-0.018510602 0.021223376 -0.01934638 0.0065195523 0.009292828 -0.009819685 0.010409021 0.00035730063
0.00062256516 0.009720842 0.009265499 -0.020646924

weight f4 [50, 20, 3, 3, 3]
00000000: 142d 99bd 9d8a 3bbe 6edd 55bd fd3d bfbd
00000010: 2e03 8e3d d601 0c3e 560c d5bd c195 d5bc
00000020: a5c4 ce3d b645 a4bd def5 98bc a216 c5bc
00000030: 5546 6a3d e9fe 083e 2701 c2bd 7c97 38be
00000040: fc1c 053e 044b 193e e9e7 153e 42aa 53bc
00000050: 046a 273d 864a ebb9 ac15 32bd 8fc2 ccbd
00000060: abbd 093e 49ce 64bc 476f 023e 4a07 0f3d
00000070: 8b88 253e bcae 83bd 3a58 633d f127 db3b
00000080: 258a 90bd e28f 313e 8258 f23d c0ad e23d
00000090: 9e65 84bd e707 c33d 962a 1fbd 4c9a 413d
000000a0: 9037 07bd d816 3abe 9e53 f9bd 932e f93c
000000b0: 881f abbd 88fd 64bd cb1f 0fbe 6a9c a2bd
000000c0: 6cb9 e33d 8157 f53d b0ca 203e 4528 0b3e
000000d0: acbd 9a3d dcff 1f3c c0e0 3ebe 987d d43d
000000e0: 4f7c f73c 94a0 19be 12d6 a63d b2f9 36bd
000000f0: 9050 443d 4ab4 983d 856b 3dbe bda9 5c3d
00000100: f268 ef3d c278 3d3e 2f92 143b 3261 5cbd
00000110: e34e dd3a 1f7d 4c3d 7d7a 843d 19e5 563d
00000120: 0bf4 aabb 7c64 81bd 3ec3 94bd 6b3a 6a3d
00000130: 97f4 113d e501 acbd fcea 213e ffe3 113e
00000140: 11f9 d03d 2935 37bd 7987 92bd d7f1 a63c
00000150: a349 3dbe 82c5 a63d bd9c f33d 835a f0bd
00000160: c5a5 74bc 688c a13c 0b0e 21be 8681 5d3d
00000170: aeee c93d fd12 963d 555a 74bd 6158 0fbd
00000180: afe1 ccbd 6e9d 45bc f452 a23d 2a42 3dbe
00000190: f72e 26be 3ca3 c83d 310a 45be 2847 c3bb
000001a0: 1cdc 3b3e 221c 06be 780b 0dbe f145 31be
000001b0: 8467 f1bd d089 9dbd 111b 913b 32a7 3c3e
000001c0: 1552 20be 7e9c 363e 1abb 933c fc4d 75bd
000001d0: c2d1 33bd b23c 383e 4f2b b6bd d7ec 173e
000001e0: 5d91 3fbe 21c5 363e a81c 42be a9bb c4bd
000001f0: b33d 0a3d c9d8 8fbd bd1c e33c 1bfb c2bd
00000200: b630 403e 75c6 15be 3df6 4b3d a5db 15be
00000210: 25ed c43d 539a 9bbd 749d d8bd a788 36be
00000220: 7d97 973c c3cb 263e 6797 d4bd 7ebd ee3c
00000230: 45d5 35bd 9b16 2bbe 1308 03bb 3cab 6dbc
00000240: 24b5 bdbd f9bb c5bd 7528 41be f604 f03d
00000250: 82a2 8f3d ff3c d43c 8a7f c73d b425 21bd
00000260: b114 053e 742b 1b3e 6bfb 20be 000b 16be
00000270: 8823 903c c2fc 21be 04f1 5b3d 304e 00be
00000280: 4129 0fbe cd5c 0bbd 6b1e 01be 3490 323e
00000290: 4976 e4bd 6765 41be 0e5d b2bd 578b 84bd
000002a0: a4f5 d6bc 3bb5 733c d459 edbd 22eb 753d
000002b0: 6371 19be 468c 3bbe 542d 1bbe 9565 3cbd
000002c0: 70b9 5abd 1b0a ecbd d2fe 353e 72ec 3e3d
000002d0: d86f 9c3a 2800 b63d 9cc6 903d eb08 eb3d
000002e0: 5c01 f1bb 2783 84bb bd42 f5bd 9cad 8abd
000002f0: 327d e03c 35fa 123e 8df8 3abe 2d42 d5bd
00000300: db5a a9bd e07a 22bd 2dd7 863d a4bd 0dbe
00000310: 4127 d93d 707b 9c3d 6213 b13d 4071 b4bd
00000320: 51b3 103e cbbc 96bc 25a6 24bc 2740 483a
00000330: 651a a33d 3032 6d3d 6a75 e13d 8f24 23be
00000340: fca6 a1bd 8a41 43be 0920 1abe 77eb 2d3c
00000350: 5348 c3bb aecf 36be 6270 ad3d ecdc 93bd
00000360: f9c6 3c3d c722 313d 3394 023d 6c89 5f3d
00000370: ef97 3f3e 28ae 14be 9303 19bd 597f 853b
00000380: 34ea b93c ff0f 4dbc 9dda 15be ff2b 413e
00000390: fee8 1ebe 213f b6ba f791 3e3e eed8 e13d
000003a0: 3c6e f0bd 91cb 2d3e a76e ccbd ffa2 20bd
000003b0: 8ee6 bebd a6ad 333e 2614 d73c b295 b03d
000003c0: b1b6 8a3c 195c 49bd a7ce ba3d 4f88 0e3e
000003d0: 126f e5bd 869b 45be aee7 b4bc 527e 0e3d
000003e0: 1fb8 54bd 7d06 d9bd c08f de3b 06a7 1a3e
000003f0: df62 12be fcd8 07bd 8096 7bbd 0fe8 72bd
-0.07479301 -0.18314596 -0.052213125 -0.09337995 0.069342 0.13672575 -0.104027435 -0.026072385
0.10096101 -0.08021109 -0.018671926 -0.024058644 0.05719598 0.1337849 -0.09472876 -0.18026537
0.12999338 0.14970022 0.14639248 -0.012919011 0.04087259 -0.00044878217 -0.0434777 -0.099980466
0.13451259 -0.013965198 0.12737761 0.03491906 0.16165368 -0.06429812 0.05550406 0.006688111
-0.07057599 0.17340043 0.11833288 0.110682964 -0.064646944 0.095229916 -0.038858972 0.04726629
-0.033011973 -0.18172777 -0.12174152 0.030417716 -0.083556235 -0.05590585 -0.13976972 -0.0793999
0.11119351 0.11979581 0.15702319 0.1358958 0.07555708 0.0097655915 -0.18640423 0.103755176
0.030210642 -0.15002662 0.081462994 -0.04467172 0.047928393 0.074562624 -0.18498047 0.053872813
0.116899386 0.18503097 0.002267014 -0.05380363 0.0016884472 0.049924012 0.06468675 0.05246458
-0.0052170805 -0.06317994 -0.07263802 0.057184618 0.03563365 -0.08398799 0.15812296 0.1424713
0.10203756 -0.04472843 -0.071547456 0.02037899 -0.18485121 0.081431404 0.1189513 -0.11736014
-0.014932101 0.019720271 -0.15728013 0.0540786 0.09859978 0.073278405 -0.05965646 -0.034996394
-0.10003983 -0.01206146 0.07925978 -0.18482271 -0.16228853 0.097967595 -0.19242169 -0.00595941
0.18345684 -0.1309667 -0.13773906 -0.17311837 -0.11787322 -0.07692301 0.0044282754 0.18423155
-0.15656312 0.17833135 0.018033553 -0.059888825 -0.043901213 0.17991903 -0.08894979 0.14836441
-0.18707795 0.17848636 -0.18956244 -0.09606106 0.033750247 -0.0702377 0.027723664 -0.09520551
0.18768582 -0.14626487 0.049795378 -0.14634569 0.09615544 -0.075977944 -0.10576907 -0.17825566
0.018504852 0.16288666 -0.1038044 0.029143091 -0.044392843 -0.16707842 -0.0019993826 -0.0145061575
-0.092630655 -0.096549936 -0.1886309 0.11719696 0.07013418 0.025907991 0.09741123 -0.039342597
0.12996174 0.15153295 -0.15720908 -0.14652634 0.017595068 -0.15819076 0.053696647 -0.12529826
-0.13980581 -0.03402405 -0.1260926 0.17437822 -0.111553736 -0.18886338 -0.08709155 -0.064718895
-0.026240177 0.014874752 -0.11589399 0.060038693 -0.1498466 -0.18315229 -0.1515401 -0.045995314
-0.053399503 -0.11525365 0.17772987 0.04661221 0.0011935188 0.088867486 0.07069132 0.1147631
-0.0073548984 -0.004043955 -0.1197562 -0.067713946 0.027403448 0.14353259 -0.18258877 -0.10413013
-0.082692824 -0.039667964 0.0658401 -0.13841873 0.1060319 0.07640731 0.08646275 -0.08810663
0.14130904 -0.01840057 -0.010049378 0.0007638954 0.07964019 0.05790919 0.11008723 -0.15931915
-0.07893178 -0.1906797 -0.15051283 0.010615221 -0.0059595495 -0.17852661 0.08468701 -0.07219872
0.046088193 0.043246057 0.031879615 0.054574415 0.18710302 -0.1451956 -0.037356924 0.004074019
0.022694685 -0.012516021 -0.14634176 0.1886444 -0.15518567 -0.0013904312 0.18610369 0.11027704
-0.117397755 0.16972186 -0.09982043 -0.039217945 -0.093213186 0.1754671 0.026254725 0.08622302
0.016932817 -0.049160097 0.09121447 0.13919185 -0.112028256 -0.19297609 -0.02208313 0.034788437
-0.051933404 -0.10596941 0.0067920387 0.15102777 -0.14295529 -0.033165917 -0.061422825 -0.05930334

bias f4 [50]
00000000: 898c 19bd a965 473c ade0 f93b fcb2 36bd
00000010: b3e8 fe3c d5b7 e3bc be00 b1bc f07a 973b
00000020: bdb2 c73c 0f5c d03c 680b f3bc ee5f 9d3c
00000030: f3a8 393d 7bd6 833d 606b 593d 54ce 2d3d
00000040: a8c7 013c c95d 24bc 3f18 013d 7ced a3bc
00000050: ce63 803c af5e 34bc 7b49 ccbc d845 40bd
00000060: 2698 733b 6f93 89bd 7748 ebbb 0fdc 4b3c
00000070: c68e ef3c 2c95 9c3c 61a3 b03d 6b0f 56bd
00000080: fa6b 393d f8d3 9b3c 9790 323d 4dd3 193d
00000090: c730 213d 6205 7fbb 33d9 053b d5bb 0ebd
000000a0: 12dc e6bc f6f5 2abd 1ec8 893c 473b e53d
000000b0: ae42 84bc e8f3 4cbd 392b c9bc 06b8 2fbd
000000c0: 2f00 5f3d 639b 0a3c
-0.03748754 0.012170234 0.0076256604 -0.044604287 0.031116819 -0.027797619 -0.0216068 0.0046228096
0.024377221 0.025434522 -0.029668525 0.019210782 0.04532714 0.06437393 0.053080916 0.042433098
0.007921137 -0.010032126 0.031517264 -0.020010702 0.01567259 -0.011008902 -0.024937382 -0.04694161
0.0037169545 -0.06717574 -0.0071802693 0.012442603 0.029242884 0.0191141 0.08624912 -0.052260797
0.04526899 0.019021973 0.043594923 0.037555028 0.03935316 -0.003891312 0.002042365 -0.0348471
-0.02818111 -0.041738473 0.016819056 0.11192947 -0.016145077 -0.050037295 -0.024556743 -0.042900108
0.054443534 0.008459899

weight f4 [2, 50, 1, 1, 1]
00000000: d1d6 c63e eca6 263f 44b7 40bf e3e9 20bf
00000010: 13ce f33e 4d93 283f b475 52bf a498 d13e
00000020: 2b60 703f c05c 613f 35f5 123f e16b 1c3f
00000030: fa38 68be d759 03bc 8ebf 743f aa4c a53d
00000040: c706 2d3f 6779 983e 5238 c5be 5f52 153f
00000050: f13f 583f f6d4 f73d 8efa c8be e2d1 43bf
00000060: 9509 8d3d d556 273f ea2d 063f c04b 1d3e
00000070: e51e 11bf 8118 3cbe 9885 513f c6fc 75bf
00000080: 7c5a 263f 887b ddbe 1286 b03e fc19 00bf
00000090: fdb0 223f ecb3 953c 7beb 6f3f 3634 7ebf
000000a0: b60a 0ebf 7296 3fbf 5788 49bf b032 653f
000000b0: cc83 4d3e 59cf 77bf 9a2d dbbe 8c0a f83d
000000c0: bb20 5f3f 7c19 27bf bf1f 513e 8f2f b63e
000000d0: f0a4 9b3e b0e0 03bf 4ec5 4ebf b2fc 213f
000000e0: ecfa 1f3f 6fcc 1cbf 94b9 4f3e ef2f 25bf
000000f0: 12e9 4d3f ecd0 9c3c 2758 05bf 7902 37bf
00000100: 0ee4 12bf e6c4 2dbf e6ac 973e 9ec9 dd3e
00000110: 3c2d e6be 8133 e33e a773 2b3f 007b cb3d
00000120: 8bd4 ccbe ca67 403f 400b 1dbf 34f1 283f
00000130: 92f8 c1be 48a9 053f 3fcd 0c3e 0751 04be
00000140: 36a4 8cbf 8e3a 813d 088d dcbe a1a1 21bf
00000150: 0dc4 59be 84af 3ebf b7b2 b1be 018c 163f
00000160: d95a 9c3c c347 523f 4d3c 01bd e93f 2f3f
00000170: 4b99 373f c77e 62bf 41a7 363f 2ce2 023c
00000180: bf25 203f 29e8 4e3f 28a8 37bf 069b 5ebf
0.38835767 0.6509845 -0.7527964 -0.6285688 0.4761816 0.65849763 -0.8221085 0.40936768
0.9389674 0.8803215 0.57405406 0.6110211 -0.22677985 -0.008017025 0.9560479 0.08071263
0.67588466 0.29780123 -0.3851953 0.58328813 0.84472567 0.12101166 -0.39253658 -0.7649213
0.06886593 0.6536687 0.5241381 0.15360928 -0.56687766 -0.18368722 0.8184447 -0.96088827
0.6498182 -0.4325831 0.34477288 -0.5003965 0.6355131 0.01827427 0.9371869 -0.9929842
-0.55485094 -0.74838936 -0.78723663 0.8953047 0.20069808 -0.9680076 -0.4280823 0.12111387
0.8715932 -0.6527326 0.20422266 0.3558316 0.30399275 -0.5151472 -0.80769813 0.6327621
0.6249225 -0.6124944 0.20285636 -0.64526266 0.8043376 0.01914259 -0.52087635 -0.7148815
-0.57379234 -0.6787857 0.296241 0.43317884 -0.44956386 0.44375232 0.66973346 0.0993557
-0.40005907 0.7515837 -0.6134529 0.65993047 -0.37884957 0.5221143 0.1375017 -0.12921534
-1.0987613 0.063099965 -0.43076348 -0.6313725 -0.21266194 -0.74486566 -0.3470666 0.5880738
0.019086288 0.8214075 -0.031551648 0.68456894 0.7171828 -0.88474697 0.7134896 0.007988494
0.62557596 0.80823 -0.7174096 -0.86955297

bias f4 [2]
00000000: 8ea2 0a3d 2dcb 653d
0.03384643 0.056101967

weight f4 [5]
00000000: 22b9 7e3f 55da 483f 1a9e 7e3f 3377 8c3f
00000010: c435 883f
0.9950124 0.7845815 0.99459994 1.0973877 1.0641408

bias f4 [5]
00000000: 5c79 8e3d 4be7 86be 0005 d83c c166 6b3e
00000010: 4055 873b
0.06956741 -0.26348338 0.026369572 0.22988416 0.0041300356

running_mean f4 [5]
00000000: 2fe5 b83f d2da 0a44 c22b e8bf 45bf 9ec2
00000010: 6853 c2c1
1.4444941 555.41907 -1.8138354 -79.37357 -24.290726

running_var f4 [5]
00000000: f691 ac43 5553 8046 eba7 0843 0ed4 aa43
00000010: afcd 7d43
345.14032 16425.666 136.65593 341.65668 253.80345

weight f4 [10]
00000000: 572d 6f3f 2d3e 843f 4905 683f 1e3e 823f
00000010: 83d5 853f 0169 783f 85ac 843f 398a 803f
00000020: 3c61 813f 61ef 803f
0.9342856 1.0331475 0.90633065 1.0175207 1.0455784 0.97035223 1.0365149 1.0042182
1.0107799 1.0073053

bias f4 [10]
00000000: a48c 52bd 89e1 db3c 713c 42be 52cb 27bd
00000010: 50d1 a23d 3b1e ebbd be22 e23c 9d20 1dbb
00000020: e0ac 01be a836 86bc
-0.051403657 0.026840942 -0.18968369 -0.040965386 0.079500794 -0.114803754 0.027604457 -0.0023975738
-0.12663603 -0.016383484

running_mean f4 [10]
00000000: 2dc0 97bd be08 9ebf 1269 debf 182b dcbd
00000010: 0e62 b03e 9de4 b23f 7470 be3e 4a96 b9bf
00000020: eb20 123d 3780 0b3f
-0.074097015 -1.2346418 -1.7375815 -0.10750407 0.3444981 1.3976017 0.3719517 -1.449899
0.035675924 0.54492515

running_var f4 [10]
00000000: eca3 683f 81cb a43f a574 e23f 4334 0e3f
00000010: 530e 593f 5ce3 a03f 86a4 4d3f 37a7 4240
00000020: 6cee 6a3f db29 f23e
0.90875125 1.2874604 1.7691847 0.55548495 0.8478748 1.2569385 0.8032917 3.041456
0.9177005 0.47297558

weight f4 [20]
00000000: 7e58 8c3f 97a9 6e3f 2b8c 843f cf76 5c3f
00000010: 024b 823f 4888 8a3f 4c16 8f3f ef26 7b3f
00000020: da60 803f c22d 823f 8675 813f 53c8 773f
00000030: 2c75 863f 6c15 763f a98a 6f3f 18c2 643f
00000040: 7f91 843f c662 7f3f b64f 853f f090 833f
1.0964506 0.93227524 1.0355276 0.8611879 1.017914 1.082284 1.117868 0.9810628
1.0029557 1.0170214 1.011399 0.96790045 1.0504508 0.9612644 0.93570954 0.89358664
1.0356902 0.9976009 1.0414951 1.0278606

bias f4 [20]
00000000: 1c0d 253e 097d 3abd b269 b93d 0ea6 e6bd
00000010: b3de 893d 861d 003e daeb 843e 1ca5 c03b
00000020: 4f6d 113d bdb7 7f3d 4c39 223d 66f0 51bc
00000030: e71e d73d 94f7 67be bf43 43bd 85b3 cbbd
00000040: ffbf a43d 806c 79be c152 b13d 0b62 a33d
0.16118282 -0.0455294 0.09053363 -0.11262141 0.0673193 0.12511262 0.2596119 0.0058790576
0.035504635 0.062431086 0.039605424 -0.012813663 0.10503941 -0.22653037 -0.04767203 -0.0994635
0.08044433 -0.24357796 0.08658362 0.079776846

running_mean f4 [20]
00000000: 2e8c 54bf c31d a4bd 4b72 b1bf 52a4 2440
00000010: cd5f 8ebf a356 233f c502 c4bf a8fb d8bf
00000020: 126b 8dbf 0fbf b9bf d5df 5cbf 5baa babf
00000030: 20df 3dbd dd06 4440 2804 00bf ea2f 3c3f
00000040: 71d3 3fbf 36af 0540 9c00 f4bf dc42 81be
-0.830264 -0.08013489 -1.3863004 2.5725293 -1.1122986 0.6380407 -1.5313345 -1.6951799
-1.10483 -1.4511431 -0.8627904 -1.4583238 -0.046355367 3.062919 -0.5000634 0.7351061
-0.7493201 2.088819 -1.9062686 -0.25246322

running_var f4 [20]
00000000: b9a8 7c40 2cc6 1440 b7a4 e53f e044 cd40
00000010: 5b3c 8840 5352 f13f c5f9 a540 c5f8 8840
00000020: 83fe 3640 4758 5240 8939 9d40 abd1 1440
00000030: aed6 2440 5c40 d240 66aa c33f c8b6 9e40
00000040: 8893 3840 01a0 d640 0f10 5640 b8b1 3740
3.947798 2.3245955 1.7940892 6.4146576 4.2573676 1.8853248 5.1867394 4.2803674
2.8592842 3.286638 4.9132733 2.325297 2.575603 6.5703564 1.5286376 4.959812
2.8840046 6.7070317 3.3447301 2.870222

weight f4 [50]
00000000: 0000 803f 0000 803f 0000 803f 0000 803f
00000010: 0000 803f 0000 803f 0000 803f 0000 803f
00000020: 0000 803f 0000 803f 0000 803f 0000 803f
00000030: 0000 803f 0000 803f 0000 803f 0000 803f
00000040: 0000 803f 0000 803f 0000 803f 0000 803f
00000050: 0000 803f 0000 803f 0000 803f 0000 803f
00000060: 0000 803f 0000 803f 0000 803f 0000 803f
00000070: 0000 803f 0000 803f 0000 803f 0000 803f
00000080: 0000 803f 0000 803f 0000 803f 0000 803f
00000090: 0000 803f 0000 803f 0000 803f 0000 803f
000000a0: 0000 803f 0000 803f 0000 803f 0000 803f
000000b0: 0000 803f 0000 803f 0000 803f 0000 803f
000000c0: 0000 803f 0000 803f
1.0 1.0 1.0 1.0 1.0 1.0 1.0 1.0
1.0 1.0 1.0 1.0 1.0 1.0 1.0 1.0
1.0 1.0 1.0 1.0 1.0 1.0 1.0 1.0
1.0 1.0 1.0 1.0 1.0 1.0 1.0 1.0
1.0 1.0 1.0 1.0 1.0 1.0 1.0 1.0
1.0 1.0 1.0 1.0 1.0 1.0 1.0 1.0
1.0 1.0

bias f4 [50]
00000000: 0000 0000 0000 0000 0000 0000 0000 0000
00000010: 0000 0000 0000 0000 0000 0000 0000 0000
00000020: 0000 0000 0000 0000 0000 0000 0000 0000
00000030: 0000 0000 0000 0000 0000 0000 0000 0000
00000040: 0000 0000 0000 0000 0000 0000 0000 0000
00000050: 0000 0000 0000 0000 0000 0000 0000 0000
00000060: 0000 0000 0000 0000 0000 0000 0000 0000
00000070: 0000 0000 0000 0000 0000 0000 0000 0000
00000080: 0000 0000 0000 0000 0000 0000 0000 0000
00000090: 0000 0000 0000 0000 0000 0000 0000 0000
000000a0: 0000 0000 0000 0000 0000 0000 0000 0000
000000b0: 0000 0000 0000 0000 0000 0000 0000 0000
000000c0: 0000 0000 0000 0000
0.0 0.0 0.0 0.0 0.0 0.0 0.0 0.0
0.0 0.0 0.0 0.0 0.0 0.0 0.0 0.0
0.0 0.0 0.0 0.0 0.0 0.0 0.0 0.0
0.0 0.0 0.0 0.0 0.0 0.0 0.0 0.0
0.0 0.0 0.0 0.0 0.0 0.0 0.0 0.0
0.0 0.0 0.0 0.0 0.0 0.0 0.0 0.0
0.0 0.0

running_mean f4 [50]
00000000: 0000 0000 0000 0000 0000 0000 0000 0000
00000010: 0000 0000 0000 0000 0000 0000 0000 0000
00000020: 0000 0000 0000 0000 0000 0000 0000 0000
00000030: 0000 0000 0000 0000 0000 0000 0000 0000
00000040: 0000 0000 0000 0000 0000 0000 0000 0000
00000050: 0000 0000 0000 0000 0000 0000 0000 0000
00000060: 0000 0000 0000 0000 0000 0000 0000 0000
00000070: 0000 0000 0000 0000 0000 0000 0000 0000
00000080: 0000 0000 0000 0000 0000 0000 0000 0000
00000090: 0000 0000 0000 0000 0000 0000 0000 0000
000000a0: 0000 0000 0000 0000 0000 0000 0000 0000
000000b0: 0000 0000 0000 0000 0000 0000 0000 0000
000000c0: 0000 0000 0000 0000
0.0 0.0 0.0 0.0 0.0 0.0 0.0 0.0
0.0 0.0 0.0 0.0 0.0 0.0 0.0 0.0
0.0 0.0 0.0 0.0 0.0 0.0 0.0 0.0
0.0 0.0 0.0 0.0 0.0 0.0 0.0 0.0
0.0 0.0 0.0 0.0 0.0 0.0 0.0 0.0
0.0 0.0 0.0 0.0 0.0 0.0 0.0 0.0
0.0 0.0

running_var f4 [50]
00000000: 0000 803f 0000 803f 0000 803f 0000 803f
00000010: 0000 803f 0000 803f 0000 803f 0000 803f
00000020: 0000 803f 0000 803f 0000 803f 0000 803f
00000030: 0000 803f 0000 803f 0000 803f 0000 803f
00000040: 0000 803f 0000 803f 0000 803f 0000 803f
00000050: 0000 803f 0000 803f 0000 803f 0000 803f
00000060: 0000 803f 0000 803f 0000 803f 0000 803f
00000070: 0000 803f 0000 803f 0000 803f 0000 803f
00000080: 0000 803f 0000 803f 0000 803f 0000 803f
00000090: 0000 803f 0000 803f 0000 803f 0000 803f
000000a0: 0000 803f 0000 803f 0000 803f 0000 803f
000000b0: 0000 803f 0000 803f 0000 803f 0000 803f
000000c0: 0000 803f 0000 803f
1.0 1.0 1.0 1.0 1.0 1.0 1.0 1.0
1.0 1.0 1.0 1.0 1.0 1.0 1.0 1.0
1.0 1.0 1.0 1.0 1.0 1.0 1.0 1.0
1.0 1.0 1.0 1.0 1.0 1.0 1.0 1.0
1.0 1.0 1.0 1.0 1.0 1.0 1.0 1.0
1.0 1.0 1.0 1.0 1.0 1.0 1.0 1.0
1.0 1.0
