models/deepvesselnet_mra_final.model (torch_old, 243978 bytes, 26 tensors)

weight f4 [5, 1, 3, 3, 3]
-0.01777436 -0.018979851 0.12384269 -0.13961504 0.10350481 0.2526357 -0.09041108 0.0135132
0.05217746 0.040687904 0.07398451 0.123838834 -0.19491173 0.15326193 0.1378604 -0.21097413
-0.014284698 0.06895619 -0.26534972 -0.12038456 -0.064787574 -0.2046616 -0.13594379 0.06809236
-0.07253405 -0.034122217 0.085090525 0.009945183 0.1209371 -0.1471415 0.23111652 0.344253
0.097441 0.086185515 0.22968948 -0.012274531 -0.048670884 0.13990812 -0.11878634 0.1691628
0.21891984 -0.0459094 0.03666407 0.19300997 -0.09052953 -0.1316323 -0.07775148 -0.109662175
0.098729834 0.037239056 -0.13158354 -0.043714702 -0.09246697 -0.0028945997 -0.07761269 0.024930274
-0.051402237 -0.13951807 0.09213829 -0.069718495 -0.13738084 0.035038892 -0.117234595 -0.1520677
0.10680933 -0.28077954 -0.13557617 -0.0051658456 0.0010915478 -0.1779029 -0.16100226 -0.2818312
-0.070667244 0.06273815 -0.13541274 -0.08324854 0.05549885 -0.04791595 -0.01742766 -0.0109854555
-0.32496622 -0.0007052301 -0.2227984 -0.11259327 0.028792445 -0.19348037 -0.18359025 -0.064095356
-0.15166415 -0.16516593 -0.1862938 -0.1230815 -0.1968835 0.08284565 -0.026310148 0.01593459
-0.12973414 0.010311465 0.07736371 -0.013394609 -0.13369478 -0.12081824 -0.17888564 0.059688833
-0.03592508 0.011316019 -0.108783565 -0.12290112 -0.12217738 -0.15379226 -0.11981226 -0.122222826
-0.107927755 0.17859627 -0.033039562 0.06778891 0.10971624 -0.062082674 -0.1261603 -0.11016037
0.14038165 0.17828844 0.1570782 0.07800688 0.19535604 0.13316905 -0.0941938 0.070165165
-0.09734786 -0.006018083 0.06565842 -0.010377854 -0.048670016 0.0392642 0.18834382
00000000: 899b 91bc a27b 9bbc 3ca1 fd3d 3ff7 0ebe
00000010: 54fa d33d 7759 813e 7229 b9bd 7866 5d3c
00000020: 08b8 553d 5ca8 263d 3185 973d 379f fd3d
00000030: f196 47be b2f0 1c3e 472b 0d3e 9a09 58be
00000040: 5e0a 6abc e738 8d3d ebdb 87be 2e8c f6bd
00000050: 59af 84bd cf92 51be d934 0bbe 0274 8b3d
00000060: bb8c 94bd bdc3 0bbd f143 ae3d 1ff1 223c
00000070: dfad f73d 43ac 16be cfa9 6c3e ee41 b03e
00000080: 268f c73d 0882 b03d b833 6b3e 1d1b 49bc
00000090: 1f5b 47bd 1344 0f3e 4146 f3bd 0339 2d3e
000000a0: 862c 603e 7f0b 3cbd 102d 163d 68a4 453e
000000b0: 8c67 b9bd 9eca 06be 2b3c 9fbd 9096 e0bd
000000c0: de32 ca3d fb87 183d d6bd 06be 300e 33bd
000000d0: 535f bdbd 53b3 3dbb 67f3 9ebd 933a cc3c
000000e0: 278b 52bd d3dd 0ebe 00b3 bc3d 92c8 8ebd
000000f0: 90ad 0cbe f184 0f3d b118 f0bd a3b7 1bbe
00000100: dabe da3d 56c2 8fbe 7bd4 0abe 4146 a9bb
00000110: 4412 8f3a 2e2c 36be c7dd 24be 2e4c 90be
00000120: fdb9 90bd dc7c 803d a3a9 0abe 367e aabd
00000130: c352 633d 8443 44bd 74c4 8ebc 57fc 33bc
00000140: f961 a6be 31df 38ba 4425 64be 4d97 e6bd
00000150: 22de eb3c b81f 46be 15ff 3bbe 6d44 83bd
00000160: d94d 1bbe 4221 29be cdc3 3ebe 2712 fcbd
00000170: d49b 49be fbaa a93d 6188 d7bc 4289 823c
00000180: 07d9 04be 6bf1 283c dd70 9e3d 1075 5bbc
00000190: 49e7 08be 8e6f f7bd cc2d 37be 477c 743d
000001a0: 2d26 13bd d366 393c ebc9 debd 95b3 fbbd
000001b0: 2238 fabd b87b 1dbe 2160 f5bd f64f fabd
000001c0: 3a09 ddbd f1e1 363e 7e54 07bd e9d4 8a3d
000001d0: e8b2 e03d 674a 7ebd 2a30 01be c39b e1bd
000001e0: 35c0 0f3e 3f91 363e 1cd9 203e 12c2 9f3d
000001f0: 6a0b 483e 785d 083e aee8 c0bd c1b2 8f3d
00000200: 515e c7bd 5733 c5bb ec77 863d e007 2abc
00000210: 365a 47bd 7fd3 203d 34dd 403e

bias f4 [5]
-0.14237922 0.083294936 -0.14255808 -0.14445135 -0.12877564
00000000: dccb 11be 8996 aa3d bffa 11be 0eeb 13be
00000010: c3dd 03be

weight f4 [10, 5, 5, 5, 5]
-0.013348254 0.057961255 -0.054586384 -0.051387083 0.01576814 -0.01787372 0.04567254 0.019430272
0.061543148 0.026538474 0.030600922 0.04172093 0.013463137 0.037763465 0.053295165 -0.010245857
0.0231117 -0.022584861 0.033207294 -0.021191902 0.052806713 -0.036768105 -0.026604373 0.061701026
-0.05784187 -0.019570762 -0.0118793715 -0.057867795 0.048172824 0.049354482 0.02932932 -0.046832077
-0.027873073 -0.048406452 -0.049102478 0.038061414 -0.03921407 0.038475707 -0.05738772 -0.0613383
0.004354134 -0.021788914 0.008560314 0.0040885922 0.045885935 -0.03508023 -0.045423187 -0.057047587
-0.020997277 0.017723553 0.023476785 -0.06534638 0.06215248 0.029056612 -0.04627547 -0.0169887
-0.045252446 -0.05298588 -0.03425759 -0.00012245384 -0.040293135 0.020396538 -0.008314658 -0.0051502152
0.07477033 0.012905717 0.057848234 -0.0044958894 0.031621553 -0.010183847 -0.028795054 -0.02091001
0.048099376 -0.07243072 0.0319779 -0.025978627 -0.02583032 0.02648732 -0.050653737 0.042899664
-0.0035735776 -0.047103778 -0.006630109 -0.039267454 -0.021684103 0.012662849 0.028753586 0.011877181
-0.017234024 0.027336987 0.008409903 -0.035082307 0.051281612 -0.026852814 -0.01604564 0.061498597
0.048228256 0.039464112 -0.005020968 0.03395018 0.073496744 0.040689442 -0.049431007 0.035667375
-0.0034503937 0.035891604 -0.013188345 -0.050819803 0.051764753 0.04360391 0.0026377174 0.012548488
0.029590115 -0.06705478 -0.025957314 0.0036085977 0.034380324 -0.003546047 0.057693396 -0.036419977
-0.023800846 -0.071002245 0.04650766 0.032941867 0.037954453 0.027978947 0.06876549 0.029456126
0.016653365 0.040522598 -0.042287193 0.060707204 -0.0011215636 -0.052917488 0.07468388 0.0133325495
0.013560124 -0.013451145 -0.059313282 -0.0062725036 -0.060255542 0.007718117 0.06821162 -0.010962828
-0.02520174 0.018832097 -0.035700824 -0.0057543563 0.006097689 0.010865446 0.03736067 -0.018378463
-0.014338918 0.036690123 -0.013348692 -0.025483882 0.06977015 0.047050107 0.055879604 -0.048290607
-0.036451407 0.058448426 -0.05247057 0.0063384837 -0.05250524 -0.016783558 0.022391127 0.06339937
0.027635563 0.070227295 0.059353687 0.015125044 0.044314686 0.061304785 0.07966238 -0.02752743
-0.015660644 0.058967073 0.031513132 0.046316262 0.072569765 0.0154666705 0.04183514 -0.01218263
-0.025155865 0.046276048 0.042056587 -0.02271461 -0.043095715 -0.04607691 0.020943975 0.049720384
0.014660343 0.056009002 -0.004515967 0.07238155 -0.008771066 0.04091194 -0.042489093 0.043148726
-0.03509035 -0.0014902223 -0.029317763 -0.013162551 -0.0519594 -0.028011683 -0.005699537 0.028131027
-0.0497195 -0.0005870553 0.038152415 -0.07327899 -0.029670006 -0.013037446 -0.01889462 -0.026601166
-0.069107436 0.00035137802 -0.022513103 0.0072919657 0.03548094 0.009681561 -0.041116573 -0.024138438
-0.030954102 0.049553692 -0.03697723 0.041791517 0.015369394 -0.034889434 -0.043215718 -0.061644133
-0.025986712 -0.04303445 0.040791288 -0.056217797 0.01474447 -0.034217503 -0.050430223 -0.01713215
0.0020333205 -0.08067677 0.040366895 -0.07099153 0.07056017 0.013303858 0.03497144 -0.06170262
0.06388593 0.03289154 -0.030334251 0.027344486 0.031719595 -0.031653743 0.039754186 0.037392154
00000000: a3b2 5abc c868 6d3d f995 5fbd 437b 52bd
00000010: 302c 813c e86b 92bc 2113 3b3d 3c2c 9f3c
00000020: ab14 7c3d 3767 d93c c9ae fa3c 91e3 2a3d
00000030: 7d94 5c3c ddad 1a3d 084c 5a3d 3dde 27bc
00000040: bf54 bd3c e303 b9bc 5f04 083d a49a adbc
00000050: da4b 583d 279a 16bd 6af1 d9bc 37ba 7c3d
00000060: 99eb 6cbd dd52 a0bc b2a1 42bc c806 6dbd
00000070: de50 453d ed27 4a3d 0b44 f03c fed2 3fbd
00000080: 1256 e4bc d845 46bd ae1f 49bd 49e6 1b3d
00000090: ef9e 20bd b498 1d3d 630f 6bbd df3d 7bbd
000000a0: 20ad 8e3b aa7e b2bc 8f40 0c3c 99f9 853b
000000b0: e4f2 3b3d 4ab0 0fbd aa0d 3abd bbaa 69bd
000000c0: 7b02 acbc fc30 913c 6352 c03c 53d4 85bd
000000d0: 9993 7e3d 2208 ee3c 598b 3dbd e32b 8bbc
000000e0: a15a 39bd b907 59bd b051 0cbd f466 00b9
000000f0: 6a0a 25bd a416 a73c 343a 08bc 23c3 a8bb
00000100: 3021 993d 8072 533c 45f2 6c3d 4152 93bb
00000110: 9a85 013d 26da 26bc 9be3 ebbc 784b abbc
00000120: da03 453d 8f56 94bd 42fb 023d 21d1 d4bc
00000130: 1b9a d3bc f0fb d83c 4b7a 4fbd 8fb7 2f3d
00000140: af32 6abb e4ef 40bd 6341 d9bb e9d6 20bd
00000150: dca2 b1bc d777 4f3c a48c eb3c 8298 423c
00000160: 5e2e 8dbc d1f1 df3c b1c9 093c 77b2 0fbd
00000170: ab0c 523d 6ffa dbbc 2572 83bc f4e5 7b3d
00000180: fe8a 453d 1fa5 213d ef86 a4bb 580f 0b3d
00000190: 7685 963d f9a9 263d 2b78 4abd f417 123d
000001a0: 0020 62bb 1303 133d ee13 58bc 6d28 50bd
000001b0: 4707 543d 039a 323d 8edd 2c3b 2c98 4d3c
000001c0: f866 f23c 0454 89bd 6fa4 d4bc 397e 6c3b
000001d0: 62d2 0c3d cc64 68bb e94f 6c3d 1d2d 15bd
000001e0: fef9 c2bc a069 91bd d17e 3e3d 0dee 063d
000001f0: 2176 1b3d 1b34 e53c ecd4 8c3d f94d f13c
00000200: a36c 883c 06fb 253d 5635 2dbd 1ea8 783d
00000210: 6e01 93ba 02c0 58bd ddf3 983d c470 5a3c
00000220: 482b 5e3c 3162 5cbc 7cf2 72bd 9389 cdbb
00000230: 84ce 76bd 42e8 fc3b 89b2 8b3d 6f9d 33bc
00000240: e173 cebc c545 9a3c 073b 12bd 0a8f bcbb
00000250: 1fcf c73b fc04 323c 8007 193d 6e8e 96bc
00000260: c8ed 6abc 6248 163d 79b4 5abc 93c3 d0bc
00000270: a7e3 8e3d 9db7 403d 03e2 643d 5fcc 45bd
00000280: 124e 15bd 9e67 6f3d 61eb 56bd 0eb3 cf3b
00000290: bc0f 57bd ac7d 89bc 996d b73c 87d7 813d
000002a0: fa63 e23c 54d3 8f3d da1c 733d 08cf 773c
000002b0: 5183 353d ba1a 7b3d 0826 a33d 3481 e1bc
000002c0: c04a 80bc 7587 713d ea13 013d 1fb6 3d3d
000002d0: 759f 943d eb67 7d3c 535b 2b3d a799 47bc
000002e0: ac13 cebc f48b 3d3d 8743 2c3d fd13 babc
000002f0: 2285 30bd 24bb 3cbd b392 ab3c 9aa7 4b3d
00000300: ef31 703c b269 653d adfa 93bb c73c 943d
00000310: 84b4 0fbc 4793 273d 0b09 2ebd b8bc 303d
00000320: e6ba 0fbd 9053 c3ba ce2b f0bc bea7 57bc
00000330: 61d3 54bd c278 e5bc 2fc3 babb 0a73 e63c
00000340: ada6 4bbd 9de4 19ba b545 1c3d 4c13 96bd
00000350: 830e f3bc 039b 55bc e4c8 9abc b0ea d9bc
00000360: 3388 8dbd 2939 b839 666d b8bc 71f1 ee3b
00000370: 7654 113d 699f 1e3c da69 28bd f9bd c5bc
00000380: 7593 fdbc d0f8 4a3d 7075 17bd 952d 2b3d
00000390: e9cf 7b3c 39e8 0ebd f702 31bd 8f7e 7cbd
000003a0: 16e2 d4bc e444 30bd c414 273d a244 66bd
000003b0: ca92 713c a727 0cbd ec8f 4ebd b958 8cbc
000003c0: 7541 053b dd39 a5bd c257 253d 0264 91bd
000003d0: da81 903d 6df8 593c 363e 0f3d e3bb 7cbd
000003e0: a0d6 823d 48b9 063d 897f f8bc 8b01 e03c
000003f0: 68ec 013d 5ba7 01bd 49d5 223d 8428 193d

bias f4 [10]
-0.027660087 0.012443263 -0.00019813686 0.029157637 -0.00305217 -0.025613265 0.015689684 -0.011353846
0.0051717926 -0.010546825
00000000: 6897 e2bc d4de 4b3c f5c2 4fb9 ffdb ee3c
00000010: ea06 48bb e9d2 d1bc a787 803c 7b05 3abc
00000020: 2478 a93b 97cc 2cbc

weight f4 [20, 10, 5, 5, 5]
-0.050284836 0.060692206 -0.060317695 -0.05939991 0.050077617 -0.054573487 0.024942726 0.047061004
-0.011935667 0.022631548 -0.015550031 0.05767818 0.021362556 0.052459616 0.006030133 0.056796107
0.017621811 -0.06543154 -0.030722605 -0.060169093 0.058543295 0.0075394195 0.0363923 -0.026554603
0.013366308 -0.008121043 0.06869832 -0.042315915 -0.02182147 0.008560569 0.015125848 0.042498995
0.025467983 0.0536293 -0.055252172 -0.04418942 -0.056555778 0.016912272 -0.0066956193 -0.022948392
0.06212761 -0.048036754 0.0014399121 0.016219674 -0.007348243 0.033041716 0.068913765 -0.012179153
-0.020518083 0.025082327 0.032748666 -0.02177289 0.054824837 0.006196752 -0.019247912 -0.05780855
0.058016274 -0.025493933 -0.05705995 -0.043602273 -0.06123027 0.052843925 -0.012995582 0.00046047632
-0.022778554 0.02145448 -0.042299945 -0.03332266 -0.012618376 -0.048547044 -0.011841371 0.0022238719
0.02012752 0.05519964 0.050291874 0.05212681 -0.023758052 -0.04099103 0.041525498 0.043639448
0.02539684 0.0419225 -0.020645183 0.064402 -0.05488443 0.018728003 0.057468392 0.06486898
-0.016823623 -0.06468592 0.008546272 0.06881434 -0.037530765 -0.051543668 -0.029200042 0.07480613
-0.059526954 -0.04733617 -0.032113183 0.022923432 0.002995532 0.03530216 0.057912365 -0.04771428
-0.034034755 -0.051641244 -0.027414642 -0.04147824 -0.042335834 -0.024930451 0.025962187 0.033860415
-0.016462203 -0.05702604 -0.04816744 -0.06568852 -0.059012868 -0.026626712 0.036107007 -0.061833065
0.020820957 0.027292317 0.0131146945 -0.03391445 0.01694198 -0.05245982 -0.023372801 0.03207597
-0.004357896 -0.01624958 0.029620985 -0.03820632 0.010366865 0.0464407 -0.03568294 0.021278413
0.054464325 0.00635885 -0.06446632 0.058608573 -0.0013009813 -0.03027825 -0.016413327 -0.019109974
-0.016609913 -0.0218824 -0.023646789 0.042501565 -0.05556366 -0.04072961 -0.031807028 0.042598717
-0.04029631 0.06723016 -0.028565776 -0.054044727 0.048134044 -0.061907347 -0.013197685 -0.049799982
0.053280924 -0.013080026 0.0066173803 0.04610769 -0.04807048 8.7818255e-05 -0.020541895 0.025102373
-0.030532137 0.054770634 0.057675064 0.048076395 0.055968057 0.037515644 -0.008980215 -0.030086558
-0.018300189 -0.062345818 0.05854027 0.024336258 -0.022833683 0.05882544 -0.05210306 -0.03416689
-0.052607317 -0.008212872 -0.028967803 0.04707274 -0.04269794 0.03790476 0.007687737 0.04976416
0.038577538 0.06503184 0.0012872006 -0.066545166 0.001291855 -0.05287662 0.04289056 -0.014008531
0.062179625 0.021534413 -0.047659367 -0.023546863 0.019119695 0.042292494 0.03775234 -0.034626458
0.06158708 -0.0041541695 0.036384903 0.05496307 -0.022523034 -0.000554506 0.029076861 -0.015650459
-0.037352297 0.043187357 0.047479082 -0.035899498 -0.05115443 0.020886445 0.06399623 0.017495692
-0.04670294 -0.015059149 -0.06349937 0.05490316 -0.021098075 -0.033023946 -0.013828424 -0.06365027
-0.021407394 -0.05158531 -0.006401147 -0.050937552 -0.04616471 0.036698017 -0.05463893 -0.049174376
-0.06682127 -0.037039425 0.06488189 -0.0026511243 -0.04169541 0.03131283 -0.00027708526 -0.0464607
-0.026597584 0.016310668 0.00015594231 0.033299346 0.014272179 -0.06498696 -0.017854026 -0.0562792
00000000: 79f7 4dbd 6498 783d b00f 77bd 524d 73bd
00000010: 301e 4d3d 7388 5fbd b054 cc3c 0ac3 403d
00000020: d18d 43bc cc65 b93c 8fc5 7ebc f53f 6c3d
00000030: 8700 af3c e5df 563d 6c98 c53b 09a3 683d
00000040: 9e5b 903c f900 86bd f9ad fbbc de73 76bd
00000050: 18cb 6f3d 3c0d f73b 1810 153d 0a89 d9bc
00000060: 5cfe 5a3c 200e 05bc b4b1 8c3d 7453 2dbd
00000070: f1c2 b2bc a141 0c3c 68d2 773c 6d13 2e3d
00000080: 3ba2 d03c 66aa 5b3d 1a50 62bd f7ff 34bd
00000090: 08a7 67bd 9b8b 8a3c ed66 dbbb 44fe bbbc
000000a0: 8579 7e3d 30c2 44bd 6fbb bc3a 1fdf 843c
000000b0: 88c9 f0bb c056 073d a922 8d3d 128b 47bc
000000c0: 8a15 a8bc 7479 cd3c 7723 063d 0f5d b2bc
000000d0: 0290 603d 200e cb3b ccad 9dbc a8c8 6cbd
000000e0: 79a2 6d3d a7d8 d0bc b2b7 69bd 4c98 32bd
000000f0: 97cc 7abd df72 583d 6ceb 54bc 166c f139
00000100: 179a babc 4ec1 af3c b542 2dbd 577d 08bd
00000110: 4ebd 4ebc 44d9 46bd 4f02 42bc 61be 113b
00000120: 78e2 a43c 0519 623d dafe 4d3d ec82 553d
00000130: 3fa0 c2bc 36e6 27bd a416 2a3d 47bf 323d
00000140: 090d d03c edb6 2b3d 1620 a9bc 32e5 833d
00000150: 7fce 60bd 786b 993c fa63 6b3d 07da 843d
00000160: b2d1 89bc 0d7a 84bd aa05 0c3c 88ee 8c3d
00000170: dcb9 19bd 741f 53bd ed34 efbc f533 993d
00000180: 89d2 73bd 92e3 41bd 1d89 03bd ecc9 bb3c
00000190: b050 443b ff98 103d 8435 6d3d 0d70 43bd
000001a0: 0768 0bbd c585 53bd ac94 e0bc 16e5 29bd
000001b0: 5768 2dbd f23a ccbc a7ae d43c 38b1 0a3d
000001c0: bedb 86bc 2394 69bd 394b 45bd b487 86bd
000001d0: 7ab7 71bd 4320 dabc f1e4 133d ab44 7dbd
000001e0: b690 aa3c 2394 df3c 04df 563c e1e9 0abd
000001f0: e8c9 8a3c 1ce0 56bd 5178 bfbc 1862 033d
00000200: aecc 8ebb d71d 85bc b5a7 f23c 3b7e 1cbd
00000210: c9d9 293c 9a38 3e3d 4628 12bd 1150 ae3c
00000220: fc15 5f3d e65d d03b eb06 84bd 8b0f 703d
00000230: b085 aaba 180a f8bc 3e75 86bc 858c 9cbc
00000240: 8311 88bc b842 b3bc e9b6 c1bc 1f16 2e3d
00000250: b896 63bd 17d4 26bd 1648 02bd fe7b 2e3d
00000260: be0d 25bd f7af 893d c602 eabc 015e 5dbd
00000270: 3428 453d 8f92 7dbd 1a3b 58bc 11fb 4bbd
00000280: 193d 5a3d 9b4d 56bc 9cd6 d83b 6bdb 3c3d
00000290: 8de5 44bd 112b b838 7a47 a8bc 7ea3 cd3c
000002a0: 881e fabc 2c57 603d b03c 6c3d c1eb 443d
000002b0: c33e 653d 01aa 193d c021 13bc 1678 f6bc
000002c0: 47ea 95bc 545e 7fbd ecc7 6f3d d55c c73c
000002d0: b40d bbbc f2f2 703d 056a 55bd 95f2 0bbd
000002e0: c57a 57bd 488f 06bc e34d edbc 58cf 403d
000002f0: 09e4 2ebd 0642 1b3d 69e9 fb3b 81d5 4b3d
00000300: 7b03 1e3d 6a2f 853d 49b7 a83a d548 88bd
00000310: 7653 a93a 2895 58bd 03ae 2f3d 0a84 65bc
00000320: 10b0 7e3d f068 b03c 7836 43bd 5ae5 c0bc
00000330: e8a0 9c3c e53a 2d3d 33a2 1a3d 79d4 0dbd
00000340: bc42 7c3d b31f 88bb 5608 153d f520 613d
00000350: 3a82 b8bc 455c 11ba 9932 ee3c 6435 80bc
00000360: b9fe 18bd 3ae5 303d 6d79 423d 5a0b 13bd
00000370: 4f87 51bd 0d1a ab3c 7510 833d 2053 8f3c
00000380: 954b 3fbd a6ba 76bc f50b 82bd 23e2 603d
00000390: dfd5 acbc 1e44 07bd 9d90 62bc 135b 82bd
000003a0: 8f5e afbc 1e4b 53bd b7c0 d1bb e5a3 50bd
000003b0: 3517 3dbd a950 163d 12cd 5fbd 126b 49bd
000003c0: 97d9 88bd a7b6 17bd cce0 843d 7cbe 2dbb
000003d0: cec8 2abd e241 003d c145 91b9 934d 3ebd
000003e0: 2de3 d9bc f39d 853c 7284 2339 e564 083d
000003f0: dcd5 693c e217 85bd 9b42 92bc 0585 66bd

bias f4 [20]
0.015906142 -0.0049144733 -0.010495419 0.0056934846 0.021106916 0.016514486 0.01570583 0.009693191
-0.008525407 -0.0087871235 0.007916606 -0.0061340667 0.012521025 0.004968113 0.007414386 -0.021398773
0.0031490594 0.015715336 0.011546269 -0.014369289
00000000: 994d 823c 9709 a1bb faf4 2bbc 6990 ba3b
00000010: 69e8 ac3c 6349 873c 83a9 803c 31d0 1e3c
00000020: 26ae 0bbc def7 0fbc a7b4 013c 4800 c9bb
00000030: fc24 4d3c 8dcb a23b 61f4 f23b 7b4c afbc
00000040: 7360 4e3b 73bd 803c 902c 3d3c 2b6d 6bbc

weight f4 [50, 20, 3, 3, 3]
-0.06104539 -0.019049909 0.11101231 -0.10744477 0.10958654 0.08774727 0.08668742 0.09351981
-0.033160806 -0.108526394 -0.058843452 0.06103671 0.1364026 -0.05589899 0.09824392 -0.11208893
-0.002880242 0.07859823 -0.039425813 0.01954791 -0.06747571 0.14359333 0.13176154 0.06863527
0.055229306 0.07132826 0.06969039 0.0020173627 0.08381454 0.0635172 -0.0031808305 -0.054305512
0.05728197 0.020947585 0.031742204 -0.07246438 -0.08619054 -0.087860644 -0.034028057 -0.052668728
-0.0009489434 -0.14917846 -0.049114425 -0.030594978 -0.16533007 -0.11345752 0.04597058 -0.07941165
-0.017945977 0.11346142 0.02462927 0.011359142 0.057731166 0.03244132 -0.059420995 -0.11524138
-0.09919149 0.12120727 0.08723692 0.032056294 -0.07408903 0.0046909447 -0.15195516 -0.019220844
0.06801663 -0.054409176 0.11288795 -0.03895173 -0.12955397 0.101129316 -0.027991936 0.05420858
-0.085555136 0.085195765 -0.10444945 -0.044937506 -0.041286632 -0.058613665 0.07316256 0.006653758
-0.1364288 -0.102932066 0.08863311 0.1228384 -0.10764196 0.02357272 -0.07264731 -0.045641735
-0.03153493 -0.098071896 -0.08812507 -0.03309382 0.037171427 -0.09140082 0.039418977 -0.0050994377
-0.13698947 -0.06450725 0.03489777 -0.087772325 -0.03940073 -0.09038373 0.058023058 0.081332065
-0.014197452 -0.06550169 -0.1238847 -0.070231244 0.0067380844 0.037732523 -0.12886018 0.040273625
0.04469414 -0.14006792 -0.0013391523 0.03961573 0.07774061 -0.12417181 0.06826335 -0.13003795
0.12763508 -0.08905963 0.058878236 0.11526417 0.12897561 0.024524847 0.0136728985 0.120026045
0.11517702 -0.022789223 0.15094149 0.069595434 -0.04794688 -0.08683186 0.13704655 -0.052848887
0.07835093 0.14083377 0.027113957 -0.028952809 0.12715247 0.13726982 -0.038854767 0.05397047
0.071479075 0.06569512 -0.07068326 0.0957654 -0.10200728 -0.035185512 0.008544744 0.13769595
-0.09033395 0.12510191 -0.010934976 -0.13068089 0.047238123 0.029006036 -0.1083098 -0.13228503
0.14255 0.05155977 0.117398046 -0.118038 0.036581658 -0.061069336 -0.00817129 -0.05140756
0.04506452 0.060530335 -0.11415578 0.10711589 0.09356807 0.09908632 0.08149938 0.029438293
-0.13128704 0.10878183 -0.09520503 -0.12859716 0.03608888 0.06668602 -0.13495012 -0.087935194
-0.10437803 0.005785026 -0.022398798 0.048674256 0.11713485 -0.08392724 0.10325911 -0.034907527
0.14390321 -0.09171533 0.14427404 -0.03610337 -0.0068522464 -0.029022729 -0.05799756 -0.009726709
0.008606275 0.08286757 0.075000376 -0.05778446 -0.07962208 0.082595766 0.08122544 0.056830704
-0.023375982 -0.056793638 0.08607972 0.06496454 -0.0016697634 -0.102903545 -0.022010975 0.014812303
-0.024382344 -0.017135117 -0.0043590255 0.054223243 0.11143746 -0.007142327 -0.002346594 0.062684566
-0.098779775 0.06663381 -0.009980506 0.14667201 0.014139922 0.12714235 0.028581118 -0.05697589
0.0091400845 -0.11770334 -0.05409664 0.021521427 -0.08730375 0.09263853 0.06978177 0.078287415
-0.080721445 -0.13998926 -0.023125976 -0.04072758 -0.037355553 0.06747135 0.088744104 -0.10478808
0.014014685 0.09715414 0.05310121 0.08803484 -0.13616784 -0.09497939 -0.10519788 -0.14192487
00000000: bb0a 7abd 8e0e 9cbc 6c5a e33d 010c dcbd
00000010: e86e e03d d7b4 b33d 2d89 b13d 5087 bf3d
00000020: a0d3 07bd 1643 debd d505 71bd a101 7a3d
00000030: 20ad 0b3e 57f6 64bd 1c34 c93d e28e e5bd
00000040: 71c2 3cbb 1cf8 a03d f67c 21bd f022 a03c
00000050: b430 8abd 210a 133e 7fec 063e a690 8c3d
00000060: 2038 623d 8d14 923d d6b9 8e3d bb35 043b
00000070: f5a6 ab3d 4e15 823d 7b75 50bb 756f 5ebd
00000080: 80a0 6a3d 459a ab3c 1d04 023d 3468 94bd
00000090: aa84 b0bd 48f0 b3bd 0161 0bbd 2abb 57bd
000000a0: 83c2 78ba 3dc2 18be 352c 49bd 52a2 fabc
000000b0: 494c 29be 6b5c e8bd a64b 3c3d 93a2 a2bd
000000c0: 7103 93bc 765e e83d 53c3 c93c b21b 3a3c
000000d0: 8477 6c3d 31e1 043d 6e63 73bd ac03 ecbd
000000e0: e824 cbbd 843b f83d 45a9 b23d 764d 033d
000000f0: fdbb 97bd 7fb6 993b 229a 1bbe 0875 9dbc
00000100: 4e4c 8b3d 28dc 5ebd cc31 e73d d98b 1fbd
00000110: cca9 04be e31c cf3d 584f e5bc d109 5e3d
00000120: 8837 afbd 1e7b ae3d 98e9 d5bd 6410 38bd
00000130: 2c1c 29bd e214 70bd 41d6 953d c507 da3b
00000140: feb3 0bbe 0cce d2bd 4785 b53d b392 fb3d
00000150: 6373 dcbd 941b c13c 1dc8 94bd d4f2 3abd
00000160: c52a 01bd ebd9 c8bd eb7a b4bd 638d 07bd
00000170: 1141 183d 5a30 bbbd cb75 213d 2f19 a7bb
00000180: f846 0cbe 611c 84bd f7f0 0e3d fac1 b3bd
00000190: a962 21bd 1b1b b9bd 96a9 6d3d 6d91 a63d
000001a0: 6e9c 68bc c025 86bd 43b7 fdbd 66d5 8fbd
000001b0: 26cb dc3b 6b8d 1a3d ecf3 03be f5f5 243d
000001c0: 3411 373d f76d 0fbe 7f86 afba 1b44 223d
000001d0: 7836 9f3d ca4d febd a8cd 8b3d ab28 05be
000001e0: c5b2 023e e564 b6bd 4e2a 713d 9f0f ec3d
000001f0: 2f12 043e 55e8 c83c 4b04 603c 37d0 f53d
00000200: eee1 eb3d 77b0 babc 6890 1a3e 0d88 8e3d
00000210: f363 44bd e7d4 b1bd ee55 0c3e 1378 58bd
00000220: 7476 a03d ba36 103e 171e de3c 712e edbc
00000230: 4234 023e 7690 0c3e 2d26 1fbd 2410 5d3d
00000240: 9f63 923d 2a8b 863d 63c2 90bd a620 c43d
00000250: 31e9 d0bd af1e 10bd 41ff 0b3c 2b00 0d3e
00000260: 0201 b9bd b71a 003e 9d28 33bc 36d1 05be
00000270: c37c 413d 119e ed3c 87d1 ddbd ba75 07be
00000280: a1f8 113e 5630 533d 636e f03d e8bd f1bd
00000290: a6d6 153d d723 7abd e0e0 05bc bc90 52bd
000002a0: 9395 383d a8ee 773d 81ca e9bd 935f db3d
000002b0: 9ea0 bf3d c5ed ca3d 26e9 a63d 9328 f13c
000002c0: 1c70 06be 02c9 de3d dbfa c2bd f9ae 03be
000002d0: efd1 133d ae92 883d 5d30 0abe 5e17 b4bd
000002e0: 26c4 d5bd 5190 bd3b af7d b7bc a85e 473d
000002f0: 65e4 ef3d 0be2 abbd 8379 d33d 32fb 0ebd
00000300: 5d5b 133e 3fd5 bbbd 93bc 133e 21e1 13bd
00000310: cf88 e0bb 13c1 edbc d98e 6dbd c65c 1fbc
00000320: 5501 0d3c 79b6 a93d cc99 993d 66af 6cbd
00000330: e710 a3bd f827 a93d 8659 a63d 50c7 683d
00000340: fd7e bfbc 72a0 68bd 904a b03d 210c 853d
00000350: f6db daba 18bf d2bd 5c50 b4bc 4daf 723c
00000360: 7bbd c7bc f25e 8cbc 28d6 8ebb 3119 5e3d
00000370: 5339 e43d 2e0a eabb 50c9 19bb c460 803d
00000380: 0d4d cabd 4f77 883d 4785 23bc 3031 163e
00000390: 22ab 673c 9b31 023e f322 ea3c 8d5f 69bd
000003a0: 4bc0 153c 730e f1bd 7094 5dbd b44d b03c
000003b0: 4fcc b2bd 45b9 bd3d bfe9 8e3d 2755 a03d
000003c0: 4951 a5bd 5859 0fbe b072 bdbc f7d1 26bd
000003d0: 2302 19bd 6b2e 8a3d 78bf b53d 229b d6bd
000003e0: d99d 653c c0f8 c63d a880 593d 9c4b b43d
000003f0: 956f 0bbe 8e84 c2bd fc71 d7bd c154 11be

bias f4 [50]
0.02862504 -0.04470917 -0.040566955 -0.021697918 -0.045385394 -0.020801093 -0.028128821 0.046486184
-0.005239485 0.122976236 -0.01975576 0.029266533 -0.0070473044 -0.0065618926 0.047364194 0.031733613
0.06613038 0.017637707 -0.0045659123 -0.008487663 0.08440359 0.06588704 0.035003252 -0.045342404
0.016074104 -0.009918132 -0.036818646 -0.03508197 0.08470808 0.019694924 -0.034244668 0.0277195
-0.037674025 0.010777779 -0.016228367 0.018888436 0.007855066 0.0022158585 0.04685073 0.026375376
-0.027379766 0.02309408 0.011786549 0.04999933 0.008847504 0.034444053 0.028340885 0.048114665
-0.031014979 -0.058846727
00000000: 0f7f ea3c f620 37bd 8929 26bd d5bf b1bc
00000010: 09e6 39bd 0e67 aabc 6a6e e6bc 4c68 3e3d
00000020: fcaf abbb f7da fb3d d5d6 a1bc 5ec0 ef3c
00000030: 13ed e6bb 2505 d7bb f500 423d 1bfb 013d
00000040: 5d6f 873d f47c 903c a69d 95bb d70f 0bbc
00000050: cadb ac3d c9ef 863d 925f 0f3d f5b8 39bd
00000060: d7ad 833c a97f 22bc 26cf 16bd 1db2 0fbd
00000070: 6e7b ad3d 4057 a13c 2344 0cbd 0114 e33c
00000080: 1450 1abd 4895 303c 5af1 84bc ecbb 9a3c
00000090: 89b2 003c f037 113b 8de6 3f3d 2c11 d83c
000000a0: 884b e0bc cc2f bd3c 5f1c 413c 19cc 4c3d
000000b0: 1ff5 103c 3515 0d3d 252b e83c e213 453d
000000c0: 2013 febc 4409 71bd

weight f4 [2, 50, 1, 1, 1]
0.20134872 -0.44576365 -0.5064239 -0.31121904 -0.26405382 -0.13609253 -0.6930445 0.5765353
0.2700603 0.5019289 0.24243926 0.28748673 -0.007974307 0.14164898 0.550119 0.20334812
0.41985238 0.08148252 0.5073856 -0.7733176 0.5224579 0.39894032 0.24173748 0.00052090245
0.37979856 -0.4365067 -0.00069292 -0.08739676 0.7222154 -0.23159361 -0.13186464 0.64335495
0.013084589 0.3154885 -0.64430887 0.73320055 0.5986183 -0.26106864 0.36390242 0.2424865
-0.6999157 -0.013768588 0.40753326 0.5999431 0.6877262 0.24616247 0.25248235 0.26059255
0.62098634 -0.50743127 -0.33646005 0.4763381 0.5487189 0.063429795 0.23858978 0.21308945
-0.51379645 -0.12713644 0.1098429 -0.66725814 0.30929178 -0.7584986 -0.17557025 0.53809786
-0.5744041 -0.018066417 -0.6242483 -0.605232 0.15671405 0.33716303 -0.5619031 -0.28181538
-0.20296082 0.63531524 -0.42594132 0.5037422 0.63694733 0.711604 -0.6010925 -0.042576816
-0.018680805 0.16135325 0.0460733 -0.654797 -0.7269308 -0.20448975 0.6246462 -0.063871115
-0.0012307839 -0.41136146 -0.42448208 -0.0038123012 -0.109837346 -0.47097468 0.39448947 -0.4813188
0.13645191 -0.26632544 0.473705 -0.10407999
00000000: 5c2e 4e3e 223b e4be ffa4 01bf 1a58 9fbe
00000010: 1032 87be d75b 0bbe 5d6b 31bf d197 133f
00000020: 5845 8a3e 6a7e 003f ff41 783e 7631 933e
00000030: aba6 02bc 6e0c 113e 99d4 0c3f 7d3a 503e
00000040: e4f6 d63e 4fe0 a63d 06e4 013f 24f8 45bf
00000050: cdbf 053f e841 cc3e 088a 773e 2c8d 083a
00000060: f574 c23e ce7d dfbe 13a5 35ba 13fd b2bd
00000070: 1ce3 383f e026 6dbe 8607 07be e9b2 243f
00000080: be60 563c b587 a13e 6df1 24bf 08b3 3b3f
00000090: 0d3f 193f caaa 85be 6b51 ba3e 624e 783e
000000a0: ad2d 33bf a595 61bc 33a8 d03e df95 193f
000000b0: d30e 303f 0412 7c3e 5e45 813e 636c 853e
000000c0: f6f8 1e3f 04e7 01bf 7e44 acbe 96e2 f33e
000000d0: d878 0c3f 7be7 813d e150 743e 1f34 5a3e
000000e0: 2a88 03bf 0e30 02be 50f5 e03d 6ed1 2abf
000000f0: 7e5b 9e3e f72c 42bf b0c8 33be c8c0 093f
00000100: 260c 13bf 0600 94bc bdce 1fbf 7cf0 1abf
00000110: a679 203e a2a0 ac3e e2d8 0fbf 1b4a 90be
00000120: f6d4 4fbe 05a4 223f fb14 dabe 40f5 003f
00000130: fb0e 233f ae2b 363f 33e1 19bf 0765 2ebd
00000140: 7d08 99bc c939 253e 5bb7 3c3d c7a0 27bf
00000150: 2318 3abf c365 51be d0e8 1f3f dcce 82bd
00000160: 4152 a1ba f89d d2be b755 d9be cdd7 79bb
00000170: 67f2 e0bd 9823 f1be 86fa c93e 6b6f f6be
00000180: 0dba 0b3e cf5b 88be 7689 f23e e427 d5bd

bias f4 [2]
0.0059198556 -0.14498842
00000000: 59fb c13b d877 14be

weight f4 [5]
0.74997985 0.71112275 0.8121866 0.7642861 0.7667916
00000000: aefe 3f3f 240c 363f 76eb 4f3f 41a8 433f
00000010: 744c 443f

bias f4 [5]
0.014534355 -0.13519219 -0.24966535 -0.27247137 -0.06914099
00000000: 8121 6e3c d26f 0abe 46a8 7fbe 5e81 8bbe
00000010: cb99 8dbd

running_mean f4 [5]
-94.97854 160.6307 -348.06262 -366.82175 55.491314
00000000: 03f5 bdc2 76a1 2043 0408 aec3 2f69 b7c3
00000010: 1bf7 5d42

running_var f4 [5]
1003.72076 1142.1265 3744.8945 3875.7866 527.4624
00000000: 21ee 7a44 0cc4 8e44 500e 6a45 963c 7245
00000010: 98dd 0344

weight f4 [10]
0.7757271 0.7721115 0.81442636 0.6655921 0.6827094 0.5709972 0.78598124 0.7830826
0.8055557 0.82130605
00000000: 0d96 463f 19a9 453f 3f7e 503f 3e64 2a3f
00000010: 0bc6 2e3f df2c 123f 1136 493f 1a78 483f
00000020: e638 4e3f 1d41 523f

bias f4 [10]
-0.021387678 0.06850088 0.05710038 -0.4291002 -0.23173314 -0.28535873 0.0068050013 0.08169553
0.020877868 -0.015648294
00000000: 3635 afbc 304a 8c3d 17e2 693d 05b3 dbbe
00000010: 744b 6dbe 8a1a 92be 7dfc de3b fc4f a73d
00000020: 1008 ab3c da30 80bc

running_mean f4 [10]
0.33926108 -0.6929753 -0.36861935 0.8181323 -0.07644827 -0.6287462 -0.1448199 -0.5928699
-0.69939643 0.22172904
00000000: a1b3 ad3e d466 31bf adbb bcbe 1e71 513f
00000010: e990 9cbd 83f5 20bf ab4b 14be 52c6 17bf
00000020: a50b 33bf f00c 633e

running_var f4 [10]
0.8525184 1.2520221 0.82675767 4.348956 1.9395163 1.1223308 0.53497875 0.8941118
1.6817964 0.8621362
00000000: a53e 5a3f 4342 a03f 64a6 533f a62a 8b40
00000010: 1242 f83f 89a8 8f3f 5ef4 083f 83e4 643f
00000020: 1b45 d73f f5b4 5c3f

weight f4 [20]
0.79119027 0.8727258 0.7216631 0.77956975 0.7944369 0.78923285 0.7446734 0.76251614
0.76589537 0.83496886 0.7303458 0.7229675 0.80227697 0.7540783 0.6198449 0.8392753
0.73100424 0.75849366 0.8212118 0.8011075
00000000: 728b 4a3f f56a 5f3f eabe 383f e291 473f
00000010: 3760 4b3f 2a0b 4a3f eaa2 3e3f 4234 433f
00000020: b811 443f 85c0 553f f1f7 3a3f 6614 393f
00000030: 0662 4d3f 470b 413f 28ae 1e3f bfda 563f
00000040: 1823 3b3f a42c 423f f03a 523f 6215 4d3f

bias f4 [20]
0.1306879 -0.27240485 -0.18549389 0.017810272 0.09179779 0.048822764 0.036948 0.03242278
0.015626892 0.049344186 -0.24631582 -0.018155593 0.20496044 0.07379932 -0.09491045 0.14841121
-0.18986498 0.03908511 0.19309069 0.087950945
00000000: 0dd3 053e a678 8bbe 1cf2 3dbe d9e6 913c
00000010: 7b00 bc3d 61fa 473d c956 173d c0cd 043d
00000020: f803 803c 211d 4a3d 373a 7cbe 0abb 94bc
00000030: 26e1 513e 1924 973d 6960 c2bd 1cf9 173e
00000040: f76b 42be b517 203d 91b9 453e a01f b43d

running_mean f4 [20]
-0.44678837 0.7337333 0.8787787 0.64367074 0.17809913 -0.18097985 0.07234399 -0.49416518
0.42340344 -3.1069088 0.75897145 0.2779669 -0.95420384 0.21662562 0.44873735 0.8360291
0.6697454 0.5740004 -0.6526137 0.75774467
00000000: 72c1 e4be f2d5 3b3f a4f7 603f 9bc7 243f
00000010: 9e5f 363e c852 39be 1629 943d 3803 fdbe
00000020: 56c8 d83e 98d7 46c0 f44b 423f ad51 8e3e
00000030: b446 74bf 1bd3 5d3e e7c0 e53e 0106 563f
00000040: 6f74 2b3f b1f1 123f b111 27bf 8efb 413f

running_var f4 [20]
4.3914866 4.7855916 5.1084843 1.8546894 1.0606134 0.9588855 0.8826631 0.6397803
3.1438718 3.289479 5.5464854 0.5888578 4.3774743 1.3235141 1.65215 2.2282758
4.2259817 5.3354316 2.398555 1.1101205
00000000: 0f87 8c40 9123 9940 b478 a340 7666 ed3f
00000010: 2ec2 873f 8579 753f 35f6 613f a4c8 233f
00000020: 3235 4940 d386 5240 cf7c b140 63bf 163f
00000030: 4514 8c40 e968 a93f a779 d33f 129c 0e40
00000040: 3e3b 8740 dbbb aa40 ed81 1940 6e18 8e3f

weight f4 [50]
1.0 1.0 1.0 1.0 1.0 1.0 1.0 1.0
1.0 1.0 1.0 1.0 1.0 1.0 1.0 1.0
1.0 1.0 1.0 1.0 1.0 1.0 1.0 1.0
1.0 1.0 1.0 1.0 1.0 1.0 1.0 1.0
1.0 1.0 1.0 1.0 1.0 1.0 1.0 1.0
1.0 1.0 1.0 1.0 1.0 1.0 1.0 1.0
1.0 1.0
00000000: 0000 803f 0000 803f 0000 803f 0000 803f
00000010: 0000 803f 0000 803f 0000 803f 0000 803f
00000020: 0000 803f 0000 803f 0000 803f 0000 803f
00000030: 0000 803f 0000 803f 0000 803f 0000 803f
00000040: 0000 803f 0000 803f 0000 803f 0000 803f
00000050: 0000 803f 0000 803f 0000 803f 0000 803f
00000060: 0000 803f 0000 803f 0000 803f 0000 803f
00000070: 0000 803f 0000 803f 0000 803f 0000 803f
00000080: 0000 803f 0000 803f 0000 803f 0000 803f
00000090: 0000 803f 0000 803f 0000 803f 0000 803f
000000a0: 0000 803f 0000 803f 0000 803f 0000 803f
000000b0: 0000 803f 0000 803f 0000 803f 0000 803f
000000c0: 0000 803f 0000 803f

bias f4 [50]
0.0 0.0 0.0 0.0 0.0 0.0 0.0 0.0
0.0 0.0 0.0 0.0 0.0 0.0 0.0 0.0
0.0 0.0 0.0 0.0 0.0 0.0 0.0 0.0
0.0 0.0 0.0 0.0 0.0 0.0 0.0 0.0
0.0 0.0 0.0 0.0 0.0 0.0 0.0 0.0
0.0 0.0 0.0 0.0 0.0 0.0 0.0 0.0
0.0 0.0
00000000: 0000 0000 0000 0000 0000 0000 0000 0000
00000010: 0000 0000 0000 0000 0000 0000 0000 0000
00000020: 0000 0000 0000 0000 0000 0000 0000 0000
00000030: 0000 0000 0000 0000 0000 0000 0000 0000
00000040: 0000 0000 0000 0000 0000 0000 0000 0000
00000050: 0000 0000 0000 0000 0000 0000 0000 0000
00000060: 0000 0000 0000 0000 0000 0000 0000 0000
00000070: 0000 0000 0000 0000 0000 0000 0000 0000
00000080: 0000 0000 0000 0000 0000 0000 0000 0000
00000090: 0000 0000 0000 0000 0000 0000 0000 0000
000000a0: 0000 0000 0000 0000 0000 0000 0000 0000
000000b0: 0000 0000 0000 0000 0000 0000 0000 0000
000000c0: 0000 0000 0000 0000

running_mean f4 [50]
0.0 0.0 0.0 0.0 0.0 0.0 0.0 0.0
0.0 0.0 0.0 0.0 0.0 0.0 0.0 0.0
0.0 0.0 0.0 0.0 0.0 0.0 0.0 0.0
0.0 0.0 0.0 0.0 0.0 0.0 0.0 0.0
0.0 0.0 0.0 0.0 0.0 0.0 0.0 0.0
0.0 0.0 0.0 0.0 0.0 0.0 0.0 0.0
0.0 0.0
00000000: 0000 0000 0000 0000 0000 0000 0000 0000
00000010: 0000 0000 0000 0000 0000 0000 0000 0000
00000020: 0000 0000 0000 0000 0000 0000 0000 0000
00000030: 0000 0000 0000 0000 0000 0000 0000 0000
00000040: 0000 0000 0000 0000 0000 0000 0000 0000
00000050: 0000 0000 0000 0000 0000 0000 0000 0000
00000060: 0000 0000 0000 0000 0000 0000 0000 0000
00000070: 0000 0000 0000 0000 0000 0000 0000 0000
00000080: 0000 0000 0000 0000 0000 0000 0000 0000
00000090: 0000 0000 0000 0000 0000 0000 0000 0000
000000a0: 0000 0000 0000 0000 0000 0000 0000 0000
000000b0: 0000 0000 0000 0000 0000 0000 0000 0000
000000c0: 0000 0000 0000 0000

running_var f4 [50]
1.0 1.0 1.0 1.0 1.0 1.0 1.0 1.0
1.0 1.0 1.0 1.0 1.0 1.0 1.0 1.0
1.0 1.0 1.0 1.0 1.0 1.0 1.0 1.0
1.0 1.0 1.0 1.0 1.0 1.0 1.0 1.0
1.0 1.0 1.0 1.0 1.0 1.0 1.0 1.0
1.0 1.0 1.0 1.0 1.0 1.0 1.0 1.0
1.0 1.0
00000000: 0000 803f 0000 803f 0000 803f 0000 803f
00000010: 0000 803f 0000 803f 0000 803f 0000 803f
00000020: 0000 803f 0000 803f 0000 803f 0000 803f
00000030: 0000 803f 0000 803f 0000 803f 0000 803f
00000040: 0000 803f 0000 803f 0000 803f 0000 803f
00000050: 0000 803f 0000 803f 0000 803f 0000 803f
00000060: 0000 803f 0000 803f 0000 803f 0000 803f
00000070: 0000 803f 0000 803f 0000 803f 0000 803f
00000080: 0000 803f 0000 803f 0000 803f 0000 803f
00000090: 0000 803f 0000 803f 0000 803f 0000 803f
000000a0: 0000 803f 0000 803f 0000 803f 0000 803f
000000b0: 0000 803f 0000 803f 0000 803f 0000 803f
000000c0: 0000 803f 0000 803f
