models/deepvesselnet_mra_final_pretrain.model (torch_old, 243978 bytes, 26 tensors)

weight f4 [5, 1, 3, 3, 3]
000000 e8 2d 2b 3d c3 76 10 bd fd 0d 33 3d a8 ad 8f bd
       0.041791826 -0.03526951 0.043714512 -0.07015544
000010 d5 66 bc 3d 8a fa 35 3e 1c c1 05 bd 1d e7 91 bb
       0.09199301 0.17771354 -0.032654867 -0.0044525997
000020 1b ea ac bc 6b d8 1f 3e cb d6 e7 3d 45 1f d3 3d
       -0.021107724 0.156099 0.113202654 0.103086986
000030 14 b0 85 bd 81 74 4e 3e 81 19 03 3e ba 68 ac bd
       -0.06527725 0.2016163 0.12802698 -0.084184125
000040 10 90 18 3d f2 90 89 3d d8 27 e4 bd 0d 38 1c bd
       0.037246764 0.06717099 -0.11140412 -0.03813939
000050 dc dc 0b bd 5d 16 10 bd f8 2b 12 bd e2 7b ec 3d
       -0.034146175 -0.035177577 -0.035686463 0.11547066
000060 b8 62 cc 3d c3 03 9a 3d ff 2b 18 3e 08 5a 9b bb
       0.099797666 0.07520249 0.14860533 -0.004740957
000070 8c 06 ca 3d 60 8c 8b bd a3 3d 21 3e 2e 7e 83 3e
       0.0986453 -0.06813884 0.15746169 0.25682205
000080 84 4e dc 3d 21 5d 59 3c af 09 0c 3e d6 12 2f bc
       0.10757163 0.013266833 0.13675569 -0.010685643
000090 5d 98 a7 bc 7c 83 23 3e d7 5b ae 3a 5d 9b 0a 3e
       -0.020458395 0.15968126 0.0013302517 0.13535829
0000a0 47 b7 30 3e 73 5e c5 3b 1b 89 0f bb f7 39 09 3e
       0.17257415 0.006023222 -0.002190179 0.13401018
0000b0 57 d0 58 bd 41 83 e1 bc bc 91 9a 3c 2d 8d a5 3d
       -0.052933063 -0.027528407 0.01886832 0.08083568
0000c0 9e b0 0e 3e 46 0d 87 3d 31 67 f3 bb 57 ba 4f bc
       0.13934562 0.065943286 -0.007428073 -0.012678704
0000d0 5f 45 a2 bd 4d 70 ce 3d ae eb 27 3d 36 a8 00 3e
       -0.07923388 0.100800134 0.040996246 0.12564167
0000e0 4b ea 96 3d 66 82 81 bd 83 51 1c 3e bb e6 a8 3c
       0.073689066 -0.063237 0.15265469 0.020617833
0000f0 6a 09 46 bd e5 71 e0 3d 75 40 5f bc 3a 82 81 bc
       -0.04834882 0.10959224 -0.013626208 -0.015809167
000100 5a 33 6a 3e f1 50 00 be f0 d9 23 bd b8 9a a3 3d
       0.22871152 -0.12530877 -0.040002763 0.07988495
000110 14 7d ee 3d 44 88 95 bd be a4 89 bd a5 31 22 be
       0.116449505 -0.07301381 -0.06720875 -0.1583925
000120 29 d9 6a 3d 79 8e 35 3e 63 f7 25 3b 42 d1 1f 3c
       0.057336006 0.1773013 0.0025324456 0.009754481
000130 ab 7a 0a 3e fc 21 58 3d 64 ce aa 3d ed 64 98 3d
       0.13523357 0.052766785 0.08340147 0.07441125
000140 05 c3 60 be 8e d4 9c 3c a7 73 fc bd 34 d7 8c bd
       -0.21949394 0.019144323 -0.123267464 -0.06876984
000150 ed 78 a4 3c ce 8c f8 bd 99 10 27 be fa 82 aa bc
       0.020077193 -0.12136231 -0.16314925 -0.020814408
000160 68 40 07 bd 97 10 c9 bd 88 93 7b be 61 10 bc bd
       -0.033020407 -0.098176174 -0.24567997 -0.091828115
000170 ee 4e 51 be dc b7 17 bc de a0 d1 bc 9f 82 c8 bc
       -0.20440266 -0.009260144 -0.025589403 -0.024476347
000180 36 bc 2e be 2a 9a 54 3d 56 2b 97 3d a3 a4 41 bd
       -0.17063984 0.051904835 0.073813125 -0.04727615
000190 22 aa 82 bd 7e 3f aa bd 46 87 6f be 6e b3 cb 3d
       -0.063801065 -0.083128914 -0.23391446 0.09946333
0001a0 2b ea f8 bc 98 a9 32 3b 21 20 de bc f1 8b ac bd
       -0.030385097 0.002726173 -0.02711493 -0.08425129
0001b0 d3 d7 35 be fa cb 32 be 67 dd 38 be da 78 2c be
       -0.17758112 -0.17460623 -0.18053208 -0.16842976
0001c0 cd 3f 0a be 53 e5 bd 3d ab db 29 3b 18 9e e5 3d
       -0.135009 0.09272256 0.0025918286 0.112117946
0001d0 fc 18 b7 3d 9c 5f 68 be da 83 7d be 57 72 85 be
       0.08940312 -0.22692722 -0.24757329 -0.26063797
0001e0 71 2d b9 bc 9a 75 3b 3d 83 25 82 bc c5 0a 42 b7
       -0.022604676 0.04576645 -0.015887028 -1.1565809e-05
0001f0 72 44 0d 3e 45 47 d2 3c bc a2 2a be 70 91 51 3d
       0.13795641 0.02566875 -0.1666364 0.05116409
000200 11 e2 07 be 2a 0b 8e bd 5f d1 43 3d a0 43 69 bd
       -0.13269831 -0.06935723 0.047807094 -0.056949258
000210 6e b8 d5 bc 88 3c c7 3d fd c9 50 3e
       -0.02608892 0.09728342 0.20389552

bias f4 [5]
000000 eb 9f 0f be cd 0b a8 3d ec cd 0f be dc b6 11 be
       -0.14025848 0.08205376 -0.14043397 -0.14229912
000010 d1 e6 01 be
       -0.12685706

weight f4 [10, 5, 5, 5, 5]
000000 a5 33 4d bc 05 11 5c 3d 9e ff 78 bd ac 18 66 bd
       -0.01252452 0.05372717 -0.06079065 -0.056175873
000010 24 30 1c 3c 10 c0 97 bc 7f ea 23 3d 14 b8 31 3c
       0.009532962 -0.0185242 0.040018555 0.01084711
000020 82 72 60 3d 7f 0e aa 3c 94 c1 1e 3d 78 ac 3c 3d
       0.054796703 0.020758865 0.03875883 0.046062917
000030 c6 98 79 3c e5 bd 2d 3d dd 57 70 3d 79 0e 05 3a
       0.015234178 0.042417426 0.058677543 0.0005075704
000040 81 2e fb 3c 21 24 88 bc 21 26 31 3d 61 19 0c bc
       0.030661823 -0.01661879 0.043249253 -0.008550973
000050 12 56 78 3d ba 41 f4 bc ad 98 af bc 00 85 91 3d
       0.060628958 -0.029816497 -0.021435106 0.07105446
000060 dd 54 35 bd 3e 01 a2 bc 63 89 80 bc 80 5c 82 bd
       -0.044270385 -0.019775983 -0.015690511 -0.06365299
000070 ae da 32 3d a5 75 3a 3d 7c 4c d5 3c 84 65 57 bd
       0.04366558 0.04552235 0.026037447 -0.052587047
000080 5d c0 15 bd ef 6f 56 bd 82 e4 54 bd 8d dd 38 3d
       -0.036560405 -0.052352842 -0.051975735 0.045133162
000090 07 b3 0e bd 95 54 22 3d 18 e4 4e bd 58 14 57 bd
       -0.034838703 0.039631445 -0.050510496 -0.052509636
0000a0 2f 7b 7c 3c c6 ad 53 bc fe 2c 80 3c cd d2 86 3c
       0.015410229 -0.012919849 0.015646454 0.01645794
0000b0 0d e8 75 3d 11 cb c6 bc c1 58 13 bd 6a fd 46 bd
       0.060035754 -0.024266751 -0.035973314 -0.04858152
0000c0 da 62 ea bb 63 c9 0c 3d 0a ff 9c 3c 24 1e 92 bd
       -0.0071528973 0.034371745 0.01916458 -0.07134655
0000d0 a4 21 56 3d 36 64 c7 3c 46 d1 42 bd 19 0e c7 bc
       0.052278176 0.024339776 -0.04756286 -0.024298714
0000e0 92 94 62 bd ea 05 84 bd 94 5d 27 bd 26 fc 74 bb
       -0.05531747 -0.064464405 -0.040860727 -0.0037381737
0000f0 8c 48 1a bd 8b 80 9f 3c 67 ef 28 bc eb 73 d3 ba
       -0.037666842 0.019470474 -0.010310984 -0.0016132569
000100 85 b8 a3 3d 64 10 a6 3c 34 fe 7d 3d 27 24 22 b9
       0.07994179 0.020271488 0.062010005 -0.00015462992
000110 07 a8 2a 3d df b2 51 3b cf 44 a5 bc 98 57 68 bc
       0.04166415 0.0031997485 -0.020174412 -0.01418104
000120 47 79 5b 3d 8e 12 6f bd 4d 6f 45 3d 34 dc 0c bd
       0.053582456 -0.058367305 0.048201848 -0.03438969
000130 42 ea 16 bd c4 6c 60 3c ca da 68 bd e6 a5 1d 3d
       -0.0368445 0.013697807 -0.05684928 0.03848829
000140 2d b7 84 bc 35 08 7c bd 6c 31 b7 bc e6 54 45 bd
       -0.016200626 -0.061531264 -0.022362433 -0.04817667
000150 95 45 dc bc 5d 41 14 3c 9e 57 ba 3c b1 fe b4 3b
       -0.026888648 0.009048787 0.022746857 0.0055235256
000160 01 fb 8a bc fc e7 fb 3c 46 46 31 3c ba 1f 0b bd
       -0.016965391 0.030750267 0.010819977 -0.033965804
000170 c0 c9 50 3d 07 c0 a0 bc af 20 a9 bb 45 ff 86 3d
       0.050973654 -0.019622816 -0.005161367 0.065916575
000180 10 73 53 3d 8b 45 31 3d f5 02 d7 3b 07 76 48 3d
       0.051623404 0.043279212 0.006561632 0.048940685
000190 a4 ae 94 3d f8 e7 1b 3d 79 45 51 bd c4 6a 1b 3d
       0.072598726 0.03806302 -0.051091645 0.037943617
0001a0 e6 26 22 3b ec 8c 00 3d cf 2a 99 bc d4 36 63 bd
       0.0024742424 0.031384394 -0.01869717 -0.05547221
0001b0 c8 33 53 3d 7f 69 42 3d 9a 1b e2 3b bd 44 74 3c
       0.051563054 0.04746389 0.006900263 0.014908967
0001c0 2c e2 01 3d a4 b7 69 bd 6a 7a 55 bc 4a 49 63 3c
       0.031709835 -0.0570599 -0.013029674 0.013872454
0001d0 1f 00 2e 3d 9f f8 a6 3b cf 59 94 3d 37 09 94 bc
       0.042480584 0.005095556 0.07243692 -0.0180708
0001e0 b7 b3 22 bc 5f bd 69 bd 38 6b 71 3d 94 c5 57 3d
       -0.009930543 -0.057065364 0.058940142 0.05267866
0001f0 51 9f 77 3d d8 72 a5 3c c7 cd 79 3d b5 67 b1 3c
       0.06045467 0.020196363 0.06098726 0.021655897
000200 82 4d 1a 3c be 51 c8 3c df e7 51 bd f1 6c 4f 3d
       0.009417893 0.02445304 -0.05124652 0.050641004
000210 81 7f 36 bc 06 36 7e bd b9 ac 5a 3d 63 86 14 3c
       -0.011138798 -0.06206324 0.053387377 0.009065243
000220 12 59 26 3c f5 8c 8e bc f8 60 80 bd e4 23 b3 bc
       0.010153072 -0.017401198 -0.06268495 -0.0218677
000230 78 85 7d bd b0 8e ca 3b 27 04 86 3d 04 e0 54 bc
       -0.061894864 0.0061815605 0.06543761 -0.012992863
000240 47 a7 21 bd 7c d1 64 3c 20 50 1b bd 47 b0 12 bc
       -0.03946617 0.013965961 -0.03791821 -0.008953161
000250 e6 7c 19 3b 60 0e c7 bb b7 60 e4 3c 06 fb d6 bc
       0.0023420393 -0.0060747117 0.027878148 -0.026242744
000260 b8 4c bc bc 03 38 e7 3c d3 22 e5 bc 67 ce 19 bd
       -0.022985801 0.02822495 -0.027970707 -0.037550356
000270 88 94 67 3d 16 8b 08 3d 14 f7 2d 3d 76 62 8b bd
       0.056538135 0.033335768 0.04247196 -0.06805889
000280 b3 14 2b bd df b3 54 3d 82 ac 6d bd 43 77 9f b8
       -0.041767787 0.05192935 -0.058025844 -7.603925e-05
000290 db 33 8b bd 2f f4 a6 bc 84 28 9c 3c 99 10 72 3d
       -0.06797 -0.020380108 0.019062288 0.05909786
0002a0 7b 47 c0 3c 32 9e 5b 3d ed 22 59 3d cd f8 32 3c
       0.023471585 0.053617664 0.053011823 0.010923577
0002b0 92 c2 1e 3d 19 ce 61 3d 3a 19 76 3d ab 00 1e bd
       0.038759775 0.05512819 0.06008265 -0.038574856
0002c0 85 c7 da bc 56 22 3b 3d aa 03 a4 3c fa 9d e1 3c
       -0.026706466 0.045687042 0.020021278 0.02754115
0002d0 0a fa 5e 3d f6 0c e3 ba 23 8f be 3c 6a a7 ee bc
       0.054437675 -0.0017322588 0.023261612 -0.029132564
0002e0 7b b9 4a bd 4f ca 10 3d 6d 97 fe 3c 42 6b 0a bd
       -0.049493294 0.035349187 0.031078065 -0.033793695
0002f0 1c c6 5b bd 09 70 87 bd e9 1c 5d 3c f1 2c 2c 3d
       -0.05365573 -0.06613166 0.013495662 0.042035047
000300 53 9f c2 3b 03 31 3c 3d 96 96 cd bc 1b d5 7f 3d
       0.005939403 0.04594518 -0.025096219 0.062459093
000310 e4 69 89 bc c0 91 f8 3c 83 c1 56 bd 70 a6 9b 3c
       -0.016774125 0.030342937 -0.05243064 0.019000262
000320 52 67 38 bd 29 08 44 bc 02 bc 22 bd dc 8d b0 bc
       -0.04502041 -0.011964836 -0.03973008 -0.021552019
000330 f2 af 88 bd a1 75 33 bd 97 81 b6 bc 1b fc 28 3c
       -0.06674184 -0.04381335 -0.02227859 0.010314013
000340 37 3f 84 bd 12 0e c3 bc d9 ae e6 3c 84 35 a8 bd
       -0.0645737 -0.02381042 0.028159546 -0.08213332
000350 89 0b 25 bd e6 10 be bc 02 c1 1e bd 26 05 02 bd
       -0.040294204 -0.023201417 -0.038758285 -0.03174319
000360 4c 82 97 bd cf 2f e5 bb 25 6b f5 bc 9b ab 46 bc
       -0.07397899 -0.0069942246 -0.029958317 -0.012125875
000370 f7 42 ed 3c 9f a1 6d 3b 6c a6 44 bd 94 25 04 bd
       0.028962595 0.0036259664 -0.048010275 -0.0322624
000380 bf 75 52 bd 54 f1 49 3d 56 83 12 bd 01 4c 2a 3d
       -0.051381823 0.049302414 -0.035769783 0.04157639
000390 ba b4 8e 3c 53 c5 23 bd d7 57 43 bd 4b 4f 87 bd
       0.017420162 -0.039983105 -0.047691192 -0.06606921
0003a0 a7 6c 01 bd 41 bb 3f bd fe 02 d9 3c 27 6a 5c bd
       -0.03159776 -0.04680944 0.026490685 -0.053812172
0003b0 20 d1 74 3c 6c 1e 0e bd 7c 17 4e bd 40 de e6 bc
       0.014942437 -0.03469698 -0.050315365 -0.028182149
0003c0 ec f0 e4 3b c1 68 9a bd 48 29 29 3d 75 10 8e bd
       0.006986728 -0.075395115 0.041299134 -0.06936733
0003d0 4c 43 6a 3d 85 83 96 3c 2a 6f 1e 3d ca e1 6f bd
       0.057193086 0.01837326 0.038680233 -0.05856494
0003e0 fa 0e 82 3d ce 42 9e 3c f5 cb 1f bd cc aa 58 3c
       0.06350513 0.019318964 -0.039012868 0.013224315
0003f0 47 38 7d 3c 83 ce 47 bd 68 40 bf 3b 70 f9 11 3d
       0.015455312 -0.04878093 0.0058365352 0.035638273

bias f4 [10]
000000 23 37 df bc 10 d5 48 3c 89 31 4c b9 2c 4f eb 3c
       -0.02724797 0.012257829 -0.0001947341 0.028724276
000010 cc 15 45 bb a4 b4 ce bc 4b 3b 7d 3c e7 3d 37 bc
       -0.0030072806 -0.02523262 0.015456031 -0.011184192
000020 d4 f1 a6 3b 70 3b 2a bc
       0.005094746 -0.010390148

weight f4 [20, 10, 5, 5, 5]
000000 64 99 64 bd 07 75 58 3d bc 80 85 bd 58 db 81 bd
       -0.055810347 0.05284598 -0.06518695 -0.063406646
000010 98 3c 31 3d 69 65 6d bd a7 9f a2 3c 3e d7 2e 3d
       0.043270677 -0.05795804 0.019851519 0.04268574
000020 37 e6 6e bc 30 e9 93 3c 22 45 c0 bc a2 98 43 3d
       -0.014581255 0.018055528 -0.023470465 0.047752984
000030 ca a2 5c 3c 73 c2 36 3d 52 4c 23 bb 74 c1 2d 3d
       0.013466546 0.044619035 -0.0024917317 0.04242082
000040 75 45 71 3b da f8 9c bd 21 f5 2a bd c8 55 93 bd
       0.0036815081 -0.07664652 -0.04173768 -0.07194096
000050 81 58 5b 3d ef 7d 3c 3b 7d c9 04 3d 81 6d ed bc
       0.0535512 0.0028761586 0.032418717 -0.02898288
000060 e8 3e 13 3c 9c 0a 6a bc 82 6a 79 3d 47 4b 40 bd
       0.008987166 -0.014284756 0.06089259 -0.04694679
000070 33 90 d4 bc f1 86 2c 3b a5 e3 34 3c 32 31 19 3d
       -0.025947666 0.0026325549 0.011040603 0.037400432
000080 20 b3 b2 3c fa e1 4d 3d e7 3e 70 bd 42 fc 50 bd
       0.02181393 0.050264336 -0.05865374 -0.05102182
000090 1f e2 82 bd 07 61 1e 3c e5 81 58 bc 61 98 fa bc
       -0.063907854 0.009666688 -0.013214563 -0.030590238
0000a0 84 df 47 3d ed 5a 75 bd c6 23 1e bc 8c bf b1 3b
       0.048797145 -0.059901167 -0.009652084 0.0054244455
0000b0 3b 9f 9d bc cf 82 f1 3c ed 07 84 3d 4e dd 6a bc
       -0.019240966 0.02948132 0.06446824 -0.01433499
0000c0 9b 95 b6 bc 0c 43 af 3c 9d 6b c3 3c 21 bd f6 bc
       -0.022288134 0.021394275 0.023855025 -0.03011948
0000d0 49 86 3f 3d a4 a6 b5 b9 4f f8 da bc bd 11 81 bd
       0.046758924 -0.00034647167 -0.02672973 -0.063022114
0000e0 93 a1 4f 3d 58 47 f8 bc 47 0b 7a bd 38 33 4a bd
       0.0506912 -0.030307457 -0.06104591 -0.049365252
0000f0 83 5e 8e bd 62 ba 2b 3d 1d 66 b0 bc e4 54 fe bb
       -0.069516204 0.041925795 -0.021533066 -0.0077615846
000100 1f 02 05 bd 0a d5 df 3b 9a d8 64 bd 39 f5 3b bd
       -0.032472726 0.006830816 -0.05587063 -0.04588816
000110 83 6b cd bc 80 69 7c bd 21 f7 87 bc d5 fd 57 bb
       -0.02507568 -0.06162405 -0.016597332 -0.0032957692
000120 80 b3 7b 3c 7e 16 4f 3d 57 7f 35 3d 9f dc 2f 3d
       0.01536262 0.05055856 0.044310894 0.04293501
000130 9f 95 03 bd 2a d6 42 bd 1b 36 0d 3d ea 68 10 3d
       -0.03212511 -0.047567524 0.034475427 0.035256304
000140 b6 ac 9a 3c ac ad 0d 3d 7a 68 d3 bc 48 d6 6f 3d
       0.018881183 0.034589455 -0.025806654 0.058553964
000150 2e 27 76 bd b6 92 10 3c 16 15 3e 3d 9b 93 60 3d
       -0.06009596 0.008824041 0.046406828 0.054828268
000160 62 6a cf bc 7b 79 96 bd c2 6b c4 bb 22 b5 58 3d
       -0.025319282 -0.07347389 -0.005994291 0.052907117
000170 8b 05 4f bd 3f 61 82 bd 3d 36 30 bd e1 47 8b 3d
       -0.050542396 -0.063662045 -0.043020476 0.06800819
000180 33 6c 84 bd fa a3 53 bd 70 20 14 bd 94 42 8b 3c
       -0.0646595 -0.051670052 -0.036163747 0.01699952
000190 71 3a b6 bb 72 2a d4 3c e5 cd 4b 3d d3 78 5a bd
       -0.005561166 0.025899146 0.049756903 -0.053337883
0001a0 0b 4c 27 bd ca 11 6a bd 73 ca 0a bd fb 99 3e bd
       -0.040844005 -0.05714587 -0.033884477 -0.046533566
0001b0 3f 65 3f bd db d1 fa bc ab 7e 82 3c 70 d4 bb 3c
       -0.046727415 -0.030617645 0.01592954 0.022928447
0001c0 40 95 cf bc d0 64 84 bd 40 7f 6a bd 09 a1 a2 bd
       -0.025339723 -0.06464541 -0.05725026 -0.07940871
0001d0 be b7 95 bd 3f 32 23 bd e5 37 b7 3c 42 87 99 bd
       -0.07310437 -0.03984284 0.02236552 -0.074965015
0001e0 c7 ee 6d 3c 0f bb a7 3c 91 8a fa 3b 12 f6 1b bd
       0.014522261 0.020474939 0.007645913 -0.038076468
0001f0 17 c7 31 3c c6 be 62 bd 76 d7 da bc 02 f7 e5 3c
       0.010850689 -0.055357717 -0.026714068 0.028071884
000200 66 17 05 bc 69 c0 a5 bc 7e 3d c2 3c 8b 44 33 bd
       -0.008123254 -0.02023335 0.023710962 -0.04376654
000210 d9 5d 7f 3b a8 eb 1f 3d 6c 15 2d bd 4d 4e 8b 3c
       0.003896585 0.0390431 -0.042256758 0.01700511
000220 29 b5 49 3d 25 0c 76 3a a3 a3 8e bd 31 e4 52 3d
       0.049245033 0.0009385965 -0.06964805 0.05148715
000230 54 91 02 bc 8b 6f 17 bd 7d 23 c8 bc d4 c2 e1 bc
       -0.007969219 -0.03697161 -0.024430985 -0.027558722
000240 e6 0d d0 bc aa 0e fa bc 6f f0 05 bd b6 af fd 3c
       -0.025397252 -0.03052457 -0.0327 0.030967575
000250 d0 34 87 bd 3c e2 54 bd af 6b 03 bd 7b 57 29 3d
       -0.0660187 -0.051973566 -0.032085117 0.041343194
000260 a2 3c 27 bd 5f a3 84 3d e2 41 fc bc a4 7c 66 bd
       -0.04082931 0.06476473 -0.030793134 -0.05627121
000270 1e d6 35 3d 47 89 85 bd 41 c1 8e bc e7 0c 5d bd
       0.04439365 -0.06520324 -0.017426135 -0.053967383
000280 e2 9d 51 3d 68 95 71 bc c0 dd 5b 3b 96 2c 2b 3d
       0.05117596 -0.014745094 0.0033548921 0.041790567
000290 e8 d9 52 bd 22 66 80 bb 76 fb ca bc 0d c7 9b 3c
       -0.051477343 -0.003918425 -0.024778109 0.019015813
0002a0 b1 21 15 bd 9c c2 43 3d 92 b4 4e 3d 5b 69 26 3d
       -0.036409084 0.047793016 0.050465174 0.04062782
0002b0 a0 b2 3e 3d 4a 72 e7 3c c6 e7 92 bc ab 7e 02 bd
       0.04655707 0.02825274 -0.017932784 -0.03185908
0002c0 e3 94 a8 bc ae 7a 84 bd d3 c0 5d 3d b6 e7 9f 3c
       -0.020578807 -0.06468712 0.05413897 0.019519668
0002d0 d3 6f de bc 3b 84 5a 3d 73 3f 6a bd 67 73 24 bd
       -0.027152931 0.05334876 -0.057189416 -0.04014912
0002e0 92 01 70 bd 5a 7b 39 bc 89 2c 05 bd b2 40 29 3d
       -0.058595248 -0.011320913 -0.032513175 0.041321464
0002f0 c0 e2 42 bd a2 60 03 3d 52 fa 03 3b ef cd 2f 3d
       -0.047579527 0.032074578 0.0020138216 0.042921003
000300 4a cc f8 3c ae 1c 65 3d 45 0c e9 bb f9 59 98 bd
       0.03037085 0.055935554 -0.0071120583 -0.07439036
000310 19 2e fe bb c7 88 7f bd c5 89 00 3d 5d ff c9 bc
       -0.00775696 -0.0623863 0.031381387 -0.0246579
000320 20 3c 72 3d d7 95 98 3c c2 4c 4e bd ba f8 e2 bc
       0.05913937 0.018626137 -0.05036617 -0.027706493
000330 e5 97 66 3c 66 96 17 3d 91 28 04 3d 76 25 23 bd
       0.0140743 0.037008666 0.03226525 -0.039830647
000340 15 08 5f 3d 4a 85 2d bc 8c 41 06 3d 08 4f 4f 3d
       0.054451067 -0.010590861 0.032777354 0.05061248
000350 e5 58 dd bc 61 4e c3 bb 54 56 c4 3c 21 80 ae bc
       -0.027019927 -0.005960271 0.023966946 -0.021301331
000360 3f c4 33 bd 48 39 0e 3d 45 de 1e 3d 81 a4 30 bd
       -0.043888327 0.034722596 0.03878619 -0.043125633
000370 ea 78 73 bd 7e e8 36 3c a5 73 56 3d 58 7b ce 3b
       -0.059441485 0.011163829 0.05235638 0.006301325
000380 f7 bb 69 bd ec 6e 8b bc 89 5e 86 bd b5 db 4f 3d
       -0.057064023 -0.017020665 -0.06561 0.05074664
000390 42 01 ce bc 58 6c 17 bd 40 b7 93 bc 97 df 89 bd
       -0.025147084 -0.03696856 -0.018031716 -0.067320995
0003a0 49 4a d6 bc 79 1b 68 bd 97 fc 43 bc 91 93 5a bd
       -0.026158469 -0.056666825 -0.011962078 -0.053363387
0003b0 76 dd 46 bd f5 22 05 3d 9b 93 6d bd 76 13 58 bd
       -0.048551045 0.03250404 -0.058002096 -0.052752934
0003c0 77 b9 92 bd 2c 9f 2f bd 06 8e 6a 3d dd be 21 bc
       -0.07164281 -0.042876408 0.05726435 -0.0098721655
0003d0 38 87 45 bd f1 14 b7 3c 1d cb 17 bc 2d 38 65 bd
       -0.048224658 0.022348853 -0.009264735 -0.055961777
0003e0 67 cb 15 bd 78 eb c1 3b 53 f8 a9 bb 01 d4 d9 3c
       -0.036570933 0.0059179626 -0.0051870733 0.02659035
0003f0 8d 5c 30 3c 1c b5 8f bd 5d 19 c7 bc 53 de 79 bd
       0.010764253 -0.07016966 -0.024304086 -0.06100304

bias f4 [20]
000000 c3 5b 80 3c 79 a8 9e bb cb 64 29 bc 8d c5 b7 3b
       0.015668755 -0.004841861 -0.010338972 0.0056082667
000010 c7 50 aa 3c 18 43 85 3c ab 7d 7d 3c a4 72 1c 3c
       0.02079047 0.016267344 0.015471856 0.009548817
000020 b0 99 09 bc 64 e1 0d bc ff 87 ff 3b 0d 01 c6 bb
       -0.008398458 -0.008659694 0.0077981944 -0.0060426057
000030 1e 09 4a 3c c4 5c a0 3b d4 56 ef 3b 5b b3 ac bc
       0.012331275 0.004893871 0.007304052 -0.021081617
000040 97 53 4b 3b d8 9f 7d 3c 2f 52 3a 3c db ec 67 bc
       0.0031025165 0.015480004 0.011372133 -0.014155592

weight f4 [50, 20, 3, 3, 3]
000000 d0 1d 74 bd 28 cf 93 bc 53 d0 e0 3d c4 09 d9 bd
       -0.059598744 -0.018043116 0.10977235 -0.10597566
000010 9a bd dc 3d 6a 62 b0 3d 2c 67 af 3d db 88 bc 3d
       0.10778351 0.08612521 0.085646 0.092057906
000020 7a 26 07 bd e3 4a da bd cc ea 6b bd b5 d2 77 3d
       -0.03299568 -0.10658815 -0.057596967 0.06050368
000030 c9 9e 09 3e 0e 2f 63 bd e1 a0 c5 3d eb 6b e1 bd
       0.13439478 -0.055464797 0.09649826 -0.11006912
000040 5d 22 3a bb 5a 69 9e 3d 00 77 1d bd ad 49 a0 3c
       -0.002840183 0.07734938 -0.038443565 0.019566381
000050 e2 e2 86 bd 8e ed 10 3e 78 c5 04 3e ae 61 8a 3d
       -0.06586243 0.1415312 0.12965953 0.06756912
000060 41 db 60 3d 15 96 90 3d d5 3f 8d 3d 39 80 89 3a
       0.054896597 0.07059876 0.068969406 0.0010490484
000070 b2 bc a7 3d d3 a2 7c 3d 5f a5 2e bb 41 9d 59 bd
       0.08190288 0.06167872 -0.0026648862 -0.053128485
000080 6f 10 67 3d ad dc b6 3c 6c 24 05 3d 49 5c 90 bd
       0.056412157 0.022322023 0.032505438 -0.07048852
000090 c4 be b3 bd 99 e1 b5 bd c4 60 13 bd c2 cb 58 bd
       -0.0877662 -0.0888092 -0.035980955 -0.052928694
0000a0 87 80 03 bb c5 3a 17 be 09 e2 41 bd 3d 95 ef bc
       -0.0020065622 -0.14768513 -0.047334705 -0.029245967
0000b0 35 c4 25 be 9f 50 ee bd c4 cb 2a 3d b4 70 a5 bd
       -0.16188128 -0.11636471 0.041698232 -0.08078137
0000c0 a7 59 a5 bc 12 92 e1 3d 22 3d c2 3c 84 6d 3c 3c
       -0.020184351 0.11014189 0.023710791 0.01150072
0000d0 04 d8 6b 3d d7 1d 09 3d 71 99 72 bd ef 9e e9 bd
       0.057579055 0.033475723 -0.059228364 -0.11407267
0000e0 88 cf c9 bd 74 83 f5 3d a1 00 b1 3d fa e9 02 3d
       -0.098540366 0.11987963 0.08642698 0.03196142
0000f0 c9 41 93 bd 7d 55 b3 3b 54 49 18 be 38 63 ab bc
       -0.07190282 0.0054728375 -0.14871722 -0.020921335
000100 ee 2b 85 3d d9 b6 61 bd d0 83 e3 3d d7 b7 1d bd
       0.065025195 -0.055106018 0.111091256 -0.0385054
000110 e4 c3 02 be 97 f2 cd 3d 0e 0d de bc 51 8e 5e 3d
       -0.12770039 0.10056036 -0.027105834 0.054334942
000120 f6 50 b3 bd 29 c5 a5 3d 3e c7 d6 bd 03 07 3b bd
       -0.087556764 0.08094246 -0.10487221 -0.045660984
000130 06 9d 28 bd f1 e7 6d bd d4 ee 94 3d 75 2d f5 3b
       -0.041165374 -0.058082525 0.07272115 0.0074822255
000140 ff bf 08 be 20 80 cf bd 54 75 b2 3d 8a 88 f7 3d
       -0.1335449 -0.1013186 0.08713785 0.1208659
000150 1b fd d8 bd ef 82 bc 3c 4d c7 92 bd 0b f7 36 bd
       -0.10595151 0.023011653 -0.0716692 -0.044669192
000160 2b 26 fe bc 54 72 c5 bd c3 45 b1 bd 34 e1 05 bd
       -0.03102406 -0.09640947 -0.08655884 -0.032685474
000170 5b 92 15 3d 7b d0 b7 bd 04 83 1e 3d 82 d0 a9 bb
       0.03651653 -0.08975311 0.038699165 -0.005182327
000180 69 84 09 be f0 9c 81 bd 6f 9f 0e 3d fc 86 b0 bd
       -0.13429417 -0.063287616 0.034820016 -0.08619496
000190 eb ff 1e bd 55 55 b6 bd 20 f3 6a 3d 88 f1 a3 3d
       -0.03881828 -0.089029945 0.05736077 0.08005053
0001a0 fe fb 64 bc 23 98 82 bd 3e 11 f9 bd 7d bc 8c bd
       -0.013976095 -0.06376674 -0.12161492 -0.06871889
0001b0 0b 40 15 3c fa 75 23 3d 86 06 00 be 5b 4d 2f 3d
       0.009109507 0.039907433 -0.12502488 0.04279838
0001c0 40 a4 3b 3d 0b 0b 0a be 69 2b 76 3a ce 88 20 3d
       0.045810938 -0.13480775 0.0009390624 0.039192967
0001d0 7a 8b 9b 3d e6 a5 f1 bd 9b e2 8a 3d ad 2e 01 be
       0.075949624 -0.11799221 0.06781503 -0.12615462
0001e0 5c 78 04 3e bb 84 ae bd 8a ce 6c 3d 38 c2 f2 3d
       0.12936538 -0.0852141 0.05781416 0.118534505
0001f0 9f 67 04 3e ff 0a dd 3c 55 c6 8f 3c 13 32 f7 3d
       0.12930153 0.026982782 0.017550627 0.12070098
000200 be 6e ec 3d e6 95 96 bc 1b ef 1b 3e 17 ae 8f 3d
       0.1154456 -0.018382024 0.1522793 0.07015627
000210 f3 9e 2a bd 80 82 a6 bd a0 15 0a 3e 7b cf 55 bd
       -0.041655492 -0.0813036 0.13484812 -0.052199822
000220 de 27 9d 3d 9a 6a 0d 3e f9 42 d7 3c 44 3b f2 bc
       0.0767362 0.13810197 0.026277052 -0.029569276
000230 ff 05 fe 3d 3e cd 0a 3e 2f 47 1f bd ba a1 55 3d
       0.124034874 0.13554856 -0.038886245 0.052156188
000240 da 10 91 3d 86 a4 84 3d 63 56 8f bd 6e 21 c1 3d
       0.07083292 0.06476693 -0.06998899 0.09430204
000250 59 d9 cf bd 71 cc 12 bd 7d d5 11 3c 4d 6a 0a 3e
       -0.10148878 -0.0358395 0.008900997 0.13517113
000260 99 e6 b8 bd f8 eb fd 3d 48 76 2f bc 48 d8 03 be
       -0.09028358 0.12398523 -0.010709353 -0.12875473
000270 98 c2 3e 3d 88 dc e1 3c 98 6d dd bd 60 10 05 be
       0.046572298 0.027570978 -0.10811919 -0.12994528
000280 c1 5d 0f 3e e6 f2 4a 3d 2c cb ee 3d 60 c1 eb bd
       0.14000608 0.049548052 0.11659846 -0.11511493
000290 e5 c0 15 3d da 35 71 bd e2 04 dc bb ee 1b 4d bd
       0.03656091 -0.058889247 -0.0067144493 -0.050075464
0002a0 18 6f 3b 3d a4 08 78 3d 54 9d e5 bd 3c 8c d9 3d
       0.045760244 0.060555115 -0.112116486 0.10622451
0002b0 ed 3e be 3d 3f ee c7 3d ac da a6 3d 85 6b f5 3c
       0.09289346 0.09762239 0.08147177 0.029958496
0002c0 be 0f 04 be da 29 de 3d 03 23 be bd 53 5f 01 be
       -0.1289663 0.10847826 -0.09284022 -0.1263402
0002d0 bd 58 13 3d bd 43 87 3d 26 4b 08 be 3d d0 af bd
       0.0359733 0.06604717 -0.13309917 -0.0858464
0002e0 09 3e d1 bd 4d c1 be 3b f5 c4 ab bc 54 fb 47 3d
       -0.102169104 0.005821383 -0.02096794 0.04882367
0002f0 8f 0f ed 3d 08 95 a8 bd 16 36 d1 3d c6 a8 0b bd
       0.11575233 -0.082315505 0.10215394 -0.0340965
000300 dd 82 11 3e 5d 90 b8 bd 12 c2 11 3e 09 4e 12 bd
       0.14210077 -0.0901191 0.14234188 -0.03571895
000310 85 65 e9 bb 86 51 ed bc a2 65 66 bd 77 20 0f bc
       -0.007122698 -0.028969537 -0.05624927 -0.008735768
000320 7d a3 16 3c 18 25 a9 3d 3b 1a 99 3d ff 0e 66 bd
       0.009194252 0.08259028 0.07475706 -0.056166645
000330 8b ea 9f bd 68 ed a6 3d f3 9c a3 3d 3a a7 6b 3d
       -0.078084074 0.081507504 0.0798892 0.057532527
000340 86 ad b1 bc 02 f6 5f bd 6d 24 b1 3d ad 42 86 3d
       -0.021689188 -0.05467797 0.08649526 0.06555686
000350 ce 46 9d b9 d9 50 cd bd ba 5e aa bc 02 ee 77 3c
       -0.00029998127 -0.10025186 -0.020797122 0.015132429
000360 45 e0 c2 bc 1a 8a 88 bc 9f 42 97 bb 88 1b 5b 3d
       -0.02378858 -0.016667414 -0.004616096 0.053493053
000370 03 d5 e0 3d 38 6e f4 bb f4 49 e2 ba 00 08 80 3d
       0.10978129 -0.007459428 -0.0017264471 0.06251526
000380 83 ad c6 bd 39 dc 86 3d b8 9c 1c bc de c1 13 3e
       -0.097010635 0.06584973 -0.009558849 0.14429423
000390 d8 fa 67 3c 3d 83 00 3e 22 12 e5 3c 79 b3 62 bd
       0.014158927 0.12550063 0.027962748 -0.05534694
0003a0 35 db 23 3c c1 4e ec bd 47 53 58 bd 5f 52 b1 3c
       0.0100009935 -0.115384586 -0.052813794 0.021645723
0003b0 87 fa af bd b7 27 bc 3d d9 e2 8d 3d 67 fc 9d 3d
       -0.08592706 0.091872625 0.069280334 0.077141576
0003c0 1a 69 a0 bd e9 05 0c be 1e cd b2 bc 19 83 16 bd
       -0.078325465 -0.1367413 -0.021826323 -0.03674612
0003d0 80 24 08 bd 05 63 8e 3d 4e f3 b7 3d fb 85 cc bd
       -0.033237934 0.0695248 0.089819536 -0.09986492
0003e0 07 bd 88 3c 44 f6 c7 3d 96 4f 5e 3d f7 39 b6 3d
       0.016691698 0.09763768 0.054275118 0.08897775
0003f0 b9 b2 04 be 1f 60 b5 bd 57 ee ca bd 1c 58 0b be
       -0.12958802 -0.08856224 -0.09908741 -0.1360783

bias f4 [50]
000000 8d 04 31 3d 68 4b 80 bd 64 3b 51 bd 0a be de bc
       0.04321723 -0.062643826 -0.05108203 -0.027190227
000010 c4 92 2f bd 8f 6f ff bc 67 24 ec bc ee 7f 7b 3d
       -0.042864576 -0.031181125 -0.028825952 0.0614013
000020 03 c8 b5 bb 1e b8 1a 3e 93 e5 aa bc 3e 79 56 3d
       -0.005547525 0.15109298 -0.020861423 0.05236172
000030 42 51 a1 bb 76 8f 6a bc 9b 7e 80 3d b4 34 04 3d
       -0.0049230168 -0.01431643 0.06274148 0.032276824
000040 cc 8e b4 3d 7e 84 ff 3c 98 54 4f bb 67 d6 f4 bc
       0.08816299 0.031191107 -0.0031636115 -0.029887391
000050 49 8b d7 3d bc f7 9d 3d 22 bc 18 3d 00 54 68 bd
       0.105246134 0.07713267 0.037288792 -0.056720734
000060 2a f0 fd 3c 7a f4 a6 bc d9 c9 4a bd fa ab 04 bd
       0.030998308 -0.020380247 -0.049508903 -0.032390572
000070 57 53 e9 3d e0 cf 77 3c 7e 28 0b bd d1 7b 0c 3d
       0.11392849 0.015125245 -0.033974163 0.034297768
000080 3f 16 19 bd e8 ab 09 3c 4c 7f 6c bc db 22 03 3d
       -0.03737473 0.008402802 -0.014434647 0.032015663
000090 bf a2 f2 3b ba 86 35 3a fe de 61 3d 88 7e 0d 3d
       0.0074046548 0.0006924678 0.055144303 0.034544498
0000a0 4c a7 df bc 0d 35 ba 3c 7c 23 bd 3c f8 25 7b 3d
       -0.027301453 0.022730375 0.02308821 0.061315507
0000b0 35 78 2f 3c 1d da 1a 3d 15 c0 e1 3c 6f 0a 75 3d
       0.010709812 0.037805665 0.027557412 0.059824403
0000c0 0c aa fd bc 3d 53 70 bd
       -0.030964874 -0.058673132

weight f4 [2, 50, 1, 1, 1]
000000 a3 00 4f 3e 08 ab e6 be 6c 54 00 bf 84 7d 98 be
       0.20215087 -0.4505236 -0.5012882 -0.2978326
000010 92 98 87 be f8 e8 0c be 94 0c 2e bf e0 29 13 3f
       -0.2648359 -0.13760746 -0.6798794 0.5748577
000020 80 c6 87 3e 90 24 03 3f 8f 87 70 3e 86 8e 97 3e
       0.2651863 0.51227665 0.23489211 0.29600924
000030 dc f3 8d bc 4d 30 07 3e a2 be 0a 3f dd 97 50 3e
       -0.017328195 0.13202019 0.5419713 0.20370431
000040 45 56 d5 3e d3 f2 a7 3d 96 ef 01 3f d1 e8 45 bf
       0.4166738 0.08200612 0.50756204 -0.77308375
000050 13 82 04 3f a2 b6 cb 3e f5 3f 70 3e 24 0e 32 bc
       0.5176098 0.39787775 0.23461898 -0.010867629
000060 3b b8 c1 3e 3a f9 d6 be 0d b8 c5 3a 68 9b b5 bd
       0.3783587 -0.4198702 0.0015084759 -0.08867532
000070 ec 56 38 3f 88 ba 64 be a9 0a 05 be ea fc 22 3f
       0.7200763 -0.22336781 -0.12992348 0.63667166
000080 76 10 56 3c ce e9 9d 3e 37 07 22 bf d9 85 38 3f
       0.013065448 0.3084244 -0.6329226 0.72079235
000090 4d c8 16 3f f2 f3 81 be 46 0b b9 3e 93 dc 71 3e
       0.58899385 -0.25381428 0.36141413 0.23619299
0000a0 88 ee 30 bf 2f 70 1e bc 02 b3 d0 3e 39 d8 18 3f
       -0.6911397 -0.009670301 0.40761572 0.5970493
0000b0 d3 ae 2d 3f 91 25 78 3e 52 9b 77 3e 6d f9 85 3e
       0.67844886 0.2423308 0.24180344 0.2616686
0000c0 a7 b1 1c 3f 2f ad 00 bf ea 9e ac be fc f3 ec 3e
       0.61208576 -0.5026426 -0.33714992 0.46279895
0000d0 3c 86 0a 3f ef c2 4f 3d 08 94 75 3e c2 9f 55 3e
       0.54111075 0.050723013 0.2398225 0.20861724
0000e0 af 07 03 bf 9a ab 0c be 95 d9 df 3d 36 54 2e bf
       -0.511836 -0.13737336 0.10930172 -0.68097246
0000f0 71 47 9d 3e b7 9f 42 bf a9 3b 29 be 8b fb 07 3f
       0.30718568 -0.76024956 -0.16526665 0.531182
000100 67 f9 11 bf 9a fd a6 bc 37 a6 1f bf 0f 44 19 bf
       -0.5702118 -0.020384599 -0.62363 -0.59869474
000110 e1 c2 16 3e d4 16 ab 3e b6 82 0f bf dc 27 91 be
       0.14722778 0.33415854 -0.56058824 -0.28350723
000120 86 ee 4a be cc 2c 20 3f 05 cd d9 be d8 55 f5 3e
       -0.19817552 0.62568355 -0.4253923 0.47917056
000130 b0 f4 1e 3f c5 17 34 3f e8 15 1b bf fb 47 4e bd
       0.62092113 0.7034877 -0.605803 -0.050361615
000140 60 53 95 bc dd 58 1c 3e 1e 9d 33 3d d5 ba 24 bf
       -0.018228233 0.15268274 0.04385101 -0.64347583
000150 9f 3d 38 bf 92 c7 4e be f9 b6 1d 3f fb 13 89 bd
       -0.71969026 -0.20193318 0.6160732 -0.06693264
000160 a6 82 34 bc 46 c4 cf be 41 52 d6 be e8 cd 32 bc
       -0.011017477 -0.40579432 -0.4185963 -0.01091335
000170 66 5d ee bd f1 66 f0 be bd f9 c4 3e 6f 5f f3 be
       -0.11638908 -0.46953538 0.38471785 -0.47533748
000180 86 3a 10 3e 2b 9d 8c be b3 7d ed 3e c4 01 d2 bd
       0.14084825 -0.2746366 0.46384963 -0.10254243

bias f4 [2]
000000 68 16 ed 3c c9 9f 2d be
       0.028941348 -0.16955484

weight f4 [5]
000000 ca f0 44 3f 65 a3 2f 3f a6 43 39 3f 41 15 43 3f
       0.76929915 0.68608695 0.7236885 0.76204306
000010 9c ec 54 3f
       0.8317354

bias f4 [5]
000000 15 aa 04 3d 39 1e 70 bd 52 a0 d8 b9 df 61 a4 bd
       0.032388765 -0.058622573 -0.00041318178 -0.0802648
000010 fc 40 10 bd
       -0.035218224

running_mean f4 [5]
000000 fc 63 36 43 4f da 84 43 1a 9b fe 42 e6 a7 95 c3
       182.39056 265.70554 127.30293 -299.3117
000010 78 4a 4b c3
       -203.2909

running_var f4 [5]
000000 ee 44 4e 44 33 a5 be 44 07 cf 02 44 b7 bf 0a 45
       825.077 1525.1625 523.2348 2219.9822
000010 06 92 e1 44
       1804.5632

weight f4 [10]
000000 a1 b8 51 3f ca 7a 4b 3f 86 48 4e 3f 85 f1 e3 3e
       0.81922346 0.79484236 0.8057941 0.44520202
000010 20 67 1c 3f 02 98 40 3f 9c d7 5d 3f 47 0d 47 3f
       0.61094856 0.75231946 0.8665712 0.77754635
000020 af 91 28 3f db da 37 3f
       0.65847296 0.7181832

bias f4 [10]
000000 79 7b a7 3d 7f ec 31 3d ca f5 89 3d ab 13 b4 be
       0.081778474 0.04343843 0.06736334 -0.35171255
000010 34 d9 8b be 3e 6c 8c be 04 dc 98 3e fa bc 83 3c
       -0.2731415 -0.27426332 0.2985536 0.016081322
000020 55 91 4a 3d 98 e6 e3 3c
       0.049455006 0.027819917

running_mean f4 [10]
000000 b7 98 56 bf 9e 7e 14 bf 7b 85 fa be d8 ee 37 40
       -0.83826774 -0.580057 -0.48929963 2.8739529
000010 78 d1 59 3e 55 26 10 be ba 31 f2 bf b2 ab 1c 3e
       0.21271312 -0.14077123 -1.8921425 0.15299872
000020 b9 56 d7 3e de 35 93 bf
       0.42058352 -1.1500814

running_var f4 [10]
000000 f8 24 b6 3f fc 3d 0e 3f cf b2 b8 3e 17 a6 af 40
       1.4230032 0.5556333 0.3607392 5.4890246
000010 59 85 8a 40 67 09 2b 41 08 a3 c3 40 ba d7 88 40
       4.328778 10.6897955 6.1136513 4.276334
000020 d9 62 84 41 b3 55 d6 3f
       16.548265 1.6744903

weight f4 [20]
000000 c4 bf 45 3f c5 3e 4a 3f 06 77 31 3f 9f 4f 47 3f
       0.77245736 0.7900203 0.6932224 0.7785587
000010 d1 69 3a 3f f8 8a 44 3f 29 13 3e 3f 62 f1 41 3f
       0.72817713 0.7677455 0.74247986 0.75758946
000020 50 70 42 3f 4e 6d 4c 3f 71 32 2c 3f 22 8c 36 3f
       0.75952625 0.79854286 0.6726447 0.71307576
000030 e2 c4 4d 3f 2a 74 4a 3f ba 8b 1f 3f 3f 83 54 3f
       0.80378544 0.790835 0.6232258 0.83012766
000040 bd 0a 32 3f 02 00 42 3f c7 f7 4d 3f 33 fb 35 3f
       0.69547635 0.7578126 0.80456203 0.71086425

bias f4 [20]
000000 ef 37 37 3e e3 c2 e1 be 78 3f 86 be 19 8c 52 3d
       0.1789243 -0.44094 -0.26220298 0.05140314
000010 07 7c 47 3e 87 f3 97 3d 9f 3b 65 3d a3 85 4d 3d
       0.19480906 0.07419496 0.055965062 0.050176274
000020 f4 46 ff 3c 4d f1 00 3e f8 fa a8 be 02 ba 09 bc
       0.031161763 0.12592049 -0.33003974 -0.008406164
000030 f3 0b 82 3e 73 6e 12 3e d8 66 87 bd d0 c6 23 3e
       0.25399742 0.14299946 -0.06611413 0.1599381
000040 f9 2e 88 be 35 01 96 3d 45 88 67 3e 1f 6c 32 3e
       -0.26598337 0.07324449 0.22610576 0.17424057

running_mean f4 [20]
000000 2f 52 45 c0 c7 b3 24 40 10 d4 00 40 e1 0f a3 bf
       -3.083141 2.5734727 2.0129433 -1.2739221
000010 1e 0c 15 bf 3e 9a ec bf a3 76 7f bf 0f 0f c5 bf
       -0.58221614 -1.8484571 -0.997904 -1.539522
000020 ad 3e 22 bf 40 45 52 c0 90 39 07 40 40 24 cc be
       -0.63376886 -3.2854767 2.1128883 -0.39871407
000030 9f 13 9a c0 2b 3d 1a bf 75 e9 72 3f b1 73 d5 bf
       -4.814895 -0.60249585 0.9488748 -1.6675931
000040 40 f3 2d 40 5a 82 57 c0 0f ae 06 c0 cd 23 6d bf
       2.7179718 -3.367331 -2.1043737 -0.9263275

running_var f4 [20]
000000 26 11 5a 41 cc eb 87 40 bc 56 75 40 fe da a1 40
       13.629187 4.247534 3.8334188 5.0579824
000010 23 47 58 41 f2 90 0d 40 6c e6 f1 3f 34 32 a8 40
       13.517367 2.2119718 1.8898444 5.2561283
000020 cb 58 17 41 2d 11 0b 42 61 7b 8c 40 f6 14 af 3f
       9.459178 34.766773 4.390061 1.3678272
000030 8b 9c 2f 42 ec 15 04 40 e2 9c 2b 3f 00 52 51 41
       43.902874 2.063838 0.6703626 13.08252
000040 ca f8 3b 40 1a c3 25 42 41 f5 ac 40 51 04 ce 3f
       2.9370599 41.44053 5.404938 1.6095067

weight f4 [50]
000000 00 00 80 3f 00 00 80 3f 00 00 80 3f 00 00 80 3f
       1.0 1.0 1.0 1.0
000010 00 00 80 3f 00 00 80 3f 00 00 80 3f 00 00 80 3f
       1.0 1.0 1.0 1.0
000020 00 00 80 3f 00 00 80 3f 00 00 80 3f 00 00 80 3f
       1.0 1.0 1.0 1.0
000030 00 00 80 3f 00 00 80 3f 00 00 80 3f 00 00 80 3f
       1.0 1.0 1.0 1.0
000040 00 00 80 3f 00 00 80 3f 00 00 80 3f 00 00 80 3f
       1.0 1.0 1.0 1.0
000050 00 00 80 3f 00 00 80 3f 00 00 80 3f 00 00 80 3f
       1.0 1.0 1.0 1.0
000060 00 00 80 3f 00 00 80 3f 00 00 80 3f 00 00 80 3f
       1.0 1.0 1.0 1.0
000070 00 00 80 3f 00 00 80 3f 00 00 80 3f 00 00 80 3f
       1.0 1.0 1.0 1.0
000080 00 00 80 3f 00 00 80 3f 00 00 80 3f 00 00 80 3f
       1.0 1.0 1.0 1.0
000090 00 00 80 3f 00 00 80 3f 00 00 80 3f 00 00 80 3f
       1.0 1.0 1.0 1.0
0000a0 00 00 80 3f 00 00 80 3f 00 00 80 3f 00 00 80 3f
       1.0 1.0 1.0 1.0
0000b0 00 00 80 3f 00 00 80 3f 00 00 80 3f 00 00 80 3f
       1.0 1.0 1.0 1.0
0000c0 00 00 80 3f 00 00 80 3f
       1.0 1.0

bias f4 [50]
000000 00 00 00 00 00 00 00 00 00 00 00 00 00 00 00 00
       0.0 0.0 0.0 0.0
000010 00 00 00 00 00 00 00 00 00 00 00 00 00 00 00 00
       0.0 0.0 0.0 0.0
000020 00 00 00 00 00 00 00 00 00 00 00 00 00 00 00 00
       0.0 0.0 0.0 0.0
000030 00 00 00 00 00 00 00 00 00 00 00 00 00 00 00 00
       0.0 0.0 0.0 0.0
000040 00 00 00 00 00 00 00 00 00 00 00 00 00 00 00 00
       0.0 0.0 0.0 0.0
000050 00 00 00 00 00 00 00 00 00 00 00 00 00 00 00 00
       0.0 0.0 0.0 0.0
000060 00 00 00 00 00 00 00 00 00 00 00 00 00 00 00 00
       0.0 0.0 0.0 0.0
000070 00 00 00 00 00 00 00 00 00 00 00 00 00 00 00 00
       0.0 0.0 0.0 0.0
000080 00 00 00 00 00 00 00 00 00 00 00 00 00 00 00 00
       0.0 0.0 0.0 0.0
000090 00 00 00 00 00 00 00 00 00 00 00 00 00 00 00 00
       0.0 0.0 0.0 0.0
0000a0 00 00 00 00 00 00 00 00 00 00 00 00 00 00 00 00
       0.0 0.0 0.0 0.0
0000b0 00 00 00 00 00 00 00 00 00 00 00 00 00 00 00 00
       0.0 0.0 0.0 0.0
0000c0 00 00 00 00 00 00 00 00
       0.0 0.0

running_mean f4 [50]
000000 00 00 00 00 00 00 00 00 00 00 00 00 00 00 00 00
       0.0 0.0 0.0 0.0
000010 00 00 00 00 00 00 00 00 00 00 00 00 00 00 00 00
       0.0 0.0 0.0 0.0
000020 00 00 00 00 00 00 00 00 00 00 00 00 00 00 00 00
       0.0 0.0 0.0 0.0
000030 00 00 00 00 00 00 00 00 00 00 00 00 00 00 00 00
       0.0 0.0 0.0 0.0
000040 00 00 00 00 00 00 00 00 00 00 00 00 00 00 00 00
       0.0 0.0 0.0 0.0
000050 00 00 00 00 00 00 00 00 00 00 00 00 00 00 00 00
       0.0 0.0 0.0 0.0
000060 00 00 00 00 00 00 00 00 00 00 00 00 00 00 00 00
       0.0 0.0 0.0 0.0
000070 00 00 00 00 00 00 00 00 00 00 00 00 00 00 00 00
       0.0 0.0 0.0 0.0
000080 00 00 00 00 00 00 00 00 00 00 00 00 00 00 00 00
       0.0 0.0 0.0 0.0
000090 00 00 00 00 00 00 00 00 00 00 00 00 00 00 00 00
       0.0 0.0 0.0 0.0
0000a0 00 00 00 00 00 00 00 00 00 00 00 00 00 00 00 00
       0.0 0.0 0.0 0.0
0000b0 00 00 00 00 00 00 00 00 00 00 00 00 00 00 00 00
       0.0 0.0 0.0 0.0
0000c0 00 00 00 00 00 00 00 00
       0.0 0.0

running_var f4 [50]
000000 00 00 80 3f 00 00 80 3f 00 00 80 3f 00 00 80 3f
       1.0 1.0 1.0 1.0
000010 00 00 80 3f 00 00 80 3f 00 00 80 3f 00 00 80 3f
       1.0 1.0 1.0 1.0
000020 00 00 80 3f 00 00 80 3f 00 00 80 3f 00 00 80 3f
       1.0 1.0 1.0 1.0
000030 00 00 80 3f 00 00 80 3f 00 00 80 3f 00 00 80 3f
       1.0 1.0 1.0 1.0
000040 00 00 80 3f 00 00 80 3f 00 00 80 3f 00 00 80 3f
       1.0 1.0 1.0 1.0
000050 00 00 80 3f 00 00 80 3f 00 00 80 3f 00 00 80 3f
       1.0 1.0 1.0 1.0
000060 00 00 80 3f 00 00 80 3f 00 00 80 3f 00 00 80 3f
       1.0 1.0 1.0 1.0
000070 00 00 80 3f 00 00 80 3f 00 00 80 3f 00 00 80 3f
       1.0 1.0 1.0 1.0
000080 00 00 80 3f 00 00 80 3f 00 00 80 3f 00 00 80 3f
       1.0 1.0 1.0 1.0
000090 00 00 80 3f 00 00 80 3f 00 00 80 3f 00 00 80 3f
       1.0 1.0 1.0 1.0
0000a0 00 00 80 3f 00 00 80 3f 00 00 80 3f 00 00 80 3f
       1.0 1.0 1.0 1.0
0000b0 00 00 80 3f 00 00 80 3f 00 00 80 3f 00 00 80 3f
       1.0 1.0 1.0 1.0
0000c0 00 00 80 3f 00 00 80 3f
       1.0 1.0
