models/deepvesselnet_mra1.model (torch_old, 243978 bytes, 26 tensors)

weight f4 [5, 1, 3, 3, 3]
0	0xbe4657fb	-0.193695
1	0xbe29d138	-0.16583717
2	0x3c7ad0ee	0.015308602
3	0xbd350309	-0.044192348
4	0xbe532dfd	-0.20623012
5	0xbd61f009	-0.055160556
6	0xbd51e79e	-0.051246278
7	0xbd950e64	-0.072781354
8	0xbe12f372	-0.1435068
9	0xbd28276d	-0.041053224
10	0xbcb80b91	-0.022466453
11	0x3dfc08ab	0.12306341
12	0xbe493d67	-0.1965233
13	0xbe59026e	-0.21192333
14	0x3d346a90	0.04404694
15	0xbe13022e	-0.143563
16	0x3d0b926c	0.034075186
17	0x3d295f4f	0.04135066
18	0x3e7700b6	0.24121365
19	0xbd019cce	-0.03164368
20	0x3d0f1950	0.03493625
21	0x3b2fe8f5	0.0026841734
22	0x3dc387fd	0.09547422
23	0x3d2faf3e	0.042891733
24	0x3e238441	0.1596842
25	0xbdd38ddd	-0.10329793
26	0x3d857e1f	0.06518196
27	0xbe23b00d	-0.15985127
28	0xbdbb2bbd	-0.09139202
29	0xbcb53bbd	-0.022123212
30	0x3d957d95	0.072993435
31	0x3e31ac66	0.17350921
32	0x3d1de311	0.038546626
33	0xbe2f154e	-0.17097971
34	0x3dee910f	0.116487615
35	0xbe2bb5d4	-0.1676858
36	0xbe1b4385	-0.15162475
37	0x3cd62ae6	0.026143502
38	0x3e43e1e5	0.1912914
39	0x3e8721b9	0.26392916
40	0x3e87ab78	0.26498008
41	0x3dd63042	0.10458423
42	0xbcf392c7	-0.029733075
43	0x3d505db4	0.050870612
44	0x3e36872e	0.17825004
45	0xbd92bf45	-0.07165388
46	0x3d5f58b0	0.05452794
47	0xbdfcf810	-0.12352002
48	0xbade4a25	-0.0016959353
49	0x3e293c01	0.16526796
50	0xbdc3cc58	-0.0956046
51	0xbd67eea2	-0.056624062
52	0x3de95718	0.11393565
53	0xbdbd82e4	-0.09253481
54	0x3b71a42a	0.003687153
55	0x3c838a89	0.01605727
56	0xbdaf9495	-0.08573262
57	0x3dc8b3b8	0.09799904
58	0xbe1ff615	-0.15621217
59	0xbe01cfe8	-0.12676966
60	0xbda15cc0	-0.07879019
61	0x3e2b8ece	0.16753694
62	0xbd9b5ff0	-0.07586658
63	0xbe477258	-0.19477212
64	0xbd99bb1b	-0.07506391
65	0x3b2cf3cd	0.0026390434
66	0xbe19215f	-0.14954136
67	0xbe39cbac	-0.18144101
68	0xbb3b47c2	-0.0028576707
69	0x3d1cdf5b	0.038298946
70	0xbe472b5a	-0.19450131
71	0x3c8a86ed	0.01691004
72	0xbba3b620	-0.004996076
73	0x3c09ca73	0.008410084
74	0x3cfd085b	0.030887773
75	0xbc9d1f89	-0.019180076
76	0xbdf468f0	-0.11934078
77	0xbdc339e0	-0.09532523
78	0x3c8fe72c	0.017566286
79	0x3debd002	0.11514284
80	0x3d4ab7e0	0.049491763
81	0x3e5fa7a5	0.21841295
82	0x3e419a84	0.189066
83	0x3e95698b	0.29182085
84	0xbc55bb97	-0.013045213
85	0xbd9a4c89	-0.07534129
86	0x3d37af0e	0.04484468
87	0x3da0e810	0.078567624
88	0x3e1a3b14	0.15061599
89	0x3dec92d6	0.11551444
90	0xbcf27497	-0.02959661
91	0xbd85d5a8	-0.06534892
92	0xbe011efd	-0.12609477
93	0xbe089dbc	-0.13341421
94	0xbe601a4a	-0.21885028
95	0xbe16a7f1	-0.14712502
96	0xbdbe6a4a	-0.09297617
97	0x3c5ea3c2	0.013588848
98	0xbe0ab772	-0.13546541
99	0x3dbc7a2c	0.0920299
100	0xbcfac1d3	-0.03061
101	0xbd061a5d	-0.032739986
102	0xbded59ee	-0.11589418
103	0xbe370a6b	-0.17875068
104	0xbdedaa09	-0.11604697
105	0x3dcfecb7	0.10152572
106	0xbe52d817	-0.20590244
107	0x3d9fae84	0.07796958
108	0x3d8da32c	0.06915888
109	0xbbcd300c	-0.006261831
110	0x3d745844	0.05965449
111	0x3e8042b0	0.2505088
112	0xbdb15e9c	-0.086606234
113	0xbdb46dd0	-0.088100076
114	0x3ebeb4e1	0.37247375
115	0x3e16ee92	0.14739445
116	0xbd701d7b	-0.058621865
117	0xbb80c500	-0.003929734
118	0xbde9d43c	-0.114174336
119	0x3c8781d5	0.0165414
120	0x3d17eedb	0.037093025
121	0xbccf953c	-0.025339715
122	0xbe29d71e	-0.16585967
123	0x3e9f533a	0.31118184
124	0x3ddc7068	0.10763627
125	0xbd82b12e	-0.063814506
126	0xbdf4e4cb	-0.11957701
127	0xbd6d9e5f	-0.058012363
128	0xbd768916	-0.06018933
129	0x3dc49a0f	0.09599697
130	0xbe1575f5	-0.14595778
131	0xbd9c7bd9	-0.076408096
132	0x3e83fb22	0.25777537
133	0xbce86e44	-0.028372891
134	0x3d256819	0.04038248

bias f4 [5]
0	0xbd22cb89	-0.039744888
1	0x3d50390f	0.050835665
2	0xbd91c3d9	-0.07117433
3	0xbe04d250	-0.12970853
4	0x3d8903c9	0.06690175

weight f4 [10, 5, 5, 5, 5]
0	0x3d0adf77	0.03390452
1	0xbbecbb9d	-0.0072245137
2	0x3d86e3d2	0.06586422
3	0xbd122c03	-0.035686504
4	0xbb0a7666	-0.00211277
5	0xbc8e1101	-0.017342092
6	0x3cbf72bb	0.023370137
7	0xbd2a9f68	-0.041655928
8	0xbd8a3918	-0.06749171
9	0x3da2f557	0.07956951
10	0x3c90d7fe	0.017681118
11	0xbb86d05d	-0.0041141943
12	0xbd9b3fbf	-0.07580518
13	0x3d0ca284	0.034334674
14	0x3cc396c1	0.023875596
15	0x3d6c8749	0.057746205
16	0xbd7a5fbb	-0.061126452
17	0x3d931c97	0.071831875
18	0x3b987dba	0.0046536596
19	0x3d95628f	0.07294189
20	0x3c58db56	0.0132358875
21	0x3d7152da	0.058916904
22	0x3d84f721	0.064924486
23	0x3d85856c	0.06519589
24	0x3d27d096	0.040970407
25	0x3c394974	0.0113090165
26	0xbd86797b	-0.06566139
27	0xbd3b9a6a	-0.045801558
28	0x3d692547	0.056920316
29	0x3d8438ad	0.064561225
30	0x3d845884	0.064621955
31	0xbaa5709c	-0.0012622061
32	0x3d0441b7	0.032289233
33	0x3d566fcc	0.05235271
34	0x3d15cfc8	0.03657511
35	0xbd853d7f	-0.0650587
36	0xbdae6f22	-0.08517291
37	0x3ca225cb	0.019793412
38	0x3d04512f	0.032303985
39	0x3d9d65e1	0.076854475
40	0xbcb05542	-0.02152503
41	0x3c18be7b	0.009322758
42	0xbc9e0a56	-0.019292038
43	0xbcafb261	-0.021447362
44	0xbc7c5812	-0.015401857
45	0xbcfcf2a5	-0.03087742
46	0xbd421703	-0.047385227
47	0x3cdfc636	0.027316194
48	0x3dc521a4	0.09625557
49	0x3d94f18b	0.07272633
50	0x3d48d158	0.04902777
51	0xbbb91e30	-0.0056493506
52	0x3dbb7e8e	0.09154998
53	0x3dd804db	0.10547801
54	0x3d487dc6	0.048948072
55	0x3b9c9c57	0.0047793793
56	0x3d54a402	0.051914223
57	0xbd00bbc3	-0.031429064
58	0x3ce568c0	0.02800405
59	0x3d8c55af	0.0685228
60	0x3d634310	0.055483878
61	0xbd87948c	-0.0662013
62	0xbd7d4b2d	-0.06183927
63	0x3db7af8e	0.08969031
64	0x3d8ec0e4	0.06970385
65	0x3d580b17	0.05274495
66	0x3c0119cf	0.007879688
67	0x3b866a90	0.0041020587
68	0x3d69d18b	0.0570846
69	0x3dd9abaf	0.10628449
70	0x3dc1bdc2	0.094600216
71	0xbc6286bc	-0.0138260685
72	0x3de34d34	0.1109871
73	0x3dacec58	0.084435165
74	0x3e1ac256	0.15113196
75	0xbd7ab104	-0.06120397
76	0xbb9d20c5	-0.004795166
77	0x3d95ef04	0.07320979
78	0x3d43481b	0.047676187
79	0x3dd5eae6	0.10445194
80	0x3d90219a	0.07037659
81	0xbc9bd1f5	-0.019021014
82	0xbd8c5fbb	-0.06854197
83	0x3d847fbc	0.06469676
84	0x3d7b879f	0.061408635
85	0x3d818691	0.06324495
86	0x3d617322	0.05504144
87	0x3c32b112	0.010906475
88	0xbcab1e0e	-0.020888355
89	0x3ca5c705	0.020236501
90	0x3d829123	0.06375339
91	0x3d8accb4	0.06777325
92	0x3cdb3b34	0.026761629
93	0x3c201def	0.009772762
94	0x3d1f70a5	0.038925786
95	0xbb43723e	-0.0029822732
96	0xbd72c0e3	-0.059265982
97	0xbc575de3	-0.013144943
98	0x3dbf6a89	0.09346492
99	0x3d5a7a76	0.053339444
100	0xbbe6e9ed	-0.007046929
101	0x3d5ccfb9	0.053909037
102	0x3d2a0ca0	0.041515946
103	0x3d7ef7cf	0.062248047
104	0x3d40b96f	0.047051843
105	0x3d70f99a	0.05883179
106	0x3c2d60cc	0.01058216
107	0x3cf70684	0.030154474
108	0xbd4180f4	-0.04724212
109	0x3cad1a30	0.021130651
110	0x3caab9da	0.020840574
111	0x3d4e8a47	0.05042484
112	0xbc96abb3	-0.01839242
113	0x3d55d765	0.05220737
114	0x3d1aa6a9	0.037756596
115	0xbd1c45a7	-0.038152363
116	0xbd50851a	-0.050908186
117	0x3ce9b0df	0.028526722
118	0xbd556183	-0.052094948
119	0xbad6182f	-0.0016334112
120	0xbca58fc1	-0.020210149
121	0xbbbda6af	-0.0057876925
122	0x3cb5b377	0.022180302
123	0x3dade17e	0.08490275
124	0x3d10c36b	0.035342615
125	0xbd793970	-0.060845792
126	0xbddee202	-0.10882951
127	0xbc852678	-0.016253695
128	0x3c3bee23	0.01147035
129	0xbd0228dd	-0.03177725
130	0x3ade3e96	0.0016955908
131	0xbd84690d	-0.06465349
132	0xbd530037	-0.051513877
133	0x3c238889	0.009981283
134	0xbdd07538	-0.10178608
135	0xbd6707d8	-0.056403965
136	0xbd3518f3	-0.044213247
137	0x3cc54dba	0.024084914
138	0xbdb1e4e2	-0.08686234
139	0xbdcfdac6	-0.101491496
140	0x3c5e678e	0.013574494
141	0xbd0d5e64	-0.034513846
142	0xbd426897	-0.047463026
143	0xbd8eb339	-0.06967778
144	0xbdf641f3	-0.120242976
145	0xba84fee0	-0.001014676
146	0xbcd591c4	-0.026070483
147	0xbdb8fef4	-0.090330034
148	0xbce58ca2	-0.02802116
149	0xbdf393d5	-0.11893431
150	0xbda5bef5	-0.08093063
151	0xbc963186	-0.018334161
152	0x3d2cd92a	0.04219929
153	0xbd9f7cb7	-0.07787459
154	0x3ca8cba6	0.02060492
155	0xbce99a09	-0.028515832
156	0x3dae51bb	0.085116826
157	0x3d44df0e	0.048064284
158	0x3daff4e6	0.085916325
159	0xbc29e25a	-0.010368908
160	0x3d1ad941	0.037804846
161	0x3deb976e	0.11503492
162	0x3d9ba465	0.07599715
163	0xbcc69cdf	-0.024244724
164	0x3bad487a	0.005288181
165	0x3d9918b3	0.07475414
166	0x3a94d5fa	0.0011355274
167	0xbc0a8784	-0.008455161
168	0xbd56e99c	-0.05246888
169	0xbd5c00c5	-0.05371167
170	0xbc934288	-0.01797606
171	0xbd7fe8d0	-0.062477887
172	0xbca2d9f4	-0.019879319
173	0xbc869795	-0.016429702
174	0xbd05844a	-0.032596864
175	0x3c5aa757	0.013345561
176	0x3d5fe02f	0.054657158
177	0x3b9d5439	0.0048013
178	0xbcdc0e62	-0.026862327
179	0x3d32c465	0.043644328
180	0x3d0a8caa	0.033825554
181	0x3c6624b6	0.0140468385
182	0x3ddd2789	0.10798556
183	0x3dc6247e	0.09674929
184	0x3ca0bf5f	0.019622503
185	0x3d9362e5	0.07196597
186	0x3debb80f	0.11509716
187	0x3d027a11	0.031854693
188	0x3c9fbb35	0.019498447
189	0x3c46d686	0.012136107
190	0xbc6f91ef	-0.014622196
191	0x3d77f67c	0.0605378
192	0x3c090e31	0.0083652
193	0x3d3196ef	0.043356832
194	0xbdc38d40	-0.09548426
195	0x3d7364b5	0.059422214
196	0x3cbf85d7	0.02337925
197	0xbccc3cdd	-0.024931366
198	0xbdbb80a1	-0.091553934
199	0xbd9724a8	-0.073800385
200	0xbda3bd48	-0.07995087
201	0x3c8c873c	0.017154329
202	0x3b2bf66d	0.002623941
203	0x3cc948b8	0.024570808
204	0xbc6cce29	-0.014453449
205	0xbd989f53	-0.07452264
206	0x3d7bfe75	0.061521966
207	0xbd0e70a3	-0.034775387
208	0xbd559983	-0.052148353
209	0xbcee3395	-0.02907733
210	0x3d95a02b	0.0730594
211	0x3d5fd661	0.054647807
212	0x3dba1a33	0.09087028
213	0x3ba08769	0.0048989546
214	0xbcd08994	-0.025456227
215	0xbc63ba58	-0.013899408
216	0xbd0671c3	-0.032823335
217	0x3d501b8b	0.050807517
218	0x3bd19005	0.0063953423
219	0x3d489e8f	0.04897934
220	0xbd9099cf	-0.07060587
221	0x3c47ebe6	0.012202239
222	0x3d22f18f	0.03978115
223	0x3c7b6363	0.01534352
224	0xbd3d00a4	-0.04614319
225	0xbded7717	-0.1159498
226	0xbd39f636	-0.04540082
227	0xbdc289f7	-0.09498971
228	0xbd428bea	-0.047496714
229	0xbd1badfb	-0.038007718
230	0xbdcab42b	-0.098976456
231	0xbd1f794f	-0.03893405
232	0xbd0286b2	-0.031866737
233	0x3d3a7319	0.045519922
234	0xbd0bc85c	-0.034126624
235	0xbd086943	-0.03330351
236	0xbd30b167	-0.043137934
237	0x3d81f51d	0.0634558
238	0xbd81723f	-0.06320619
239	0xbd94138c	-0.07230291
240	0xbd3af553	-0.045644116
241	0xbd6592b2	-0.056048103
242	0x3c7dc288	0.015488274
243	0xbc84dc7f	-0.016218422
244	0xbd47edac	-0.048810646
245	0x3d2f218e	0.04275661
246	0xbbb831f6	-0.00562119
247	0x3d2cace9	0.042157087
248	0xbd7b6210	-0.061372817
249	0x3d5cc154	0.05389531
250	0x3d829238	0.06375545
251	0x3d09f8d5	0.03368457
252	0x3d97a208	0.07403952
253	0xbd0af240	-0.033922434
254	0x3d392c7b	0.045208436
255	0xbbdf1c82	-0.0068088183

bias f4 [10]
0	0x3cc85798	0.02445583
1	0xbd0a5905	-0.033776302
2	0x3d07724d	0.03306799
3	0x3ce70252	0.028199349
4	0xbcaf4ca7	-0.021398855
5	0xbcd2d592	-0.025736604
6	0xbb4e0afe	-0.0031439657
7	0x3c51be5f	0.012801736
8	0xbcb41c4d	-0.021986151
9	0xbc11bed0	-0.008895591

weight f4 [20, 10, 5, 5, 5]
0	0xbd24e502	-0.04025746
1	0x3cac82d8	0.021058485
2	0x3d5fd789	0.05464891
3	0xbd3c6f4c	-0.04600458
4	0xbd78ad7c	-0.060712323
5	0x3d66167e	0.056173794
6	0x39ad910d	0.00033105203
7	0xbd144f30	-0.03620833
8	0x3a6e73fd	0.0009096263
9	0xbc4d65f5	-0.0125365155
10	0xbc2e6442	-0.0106440205
11	0x3b3cda3b	0.00288166
12	0x3d657fbb	0.056030016
13	0xbd235732	-0.039878078
14	0x3cd16f8a	0.025565881
15	0x3d2ea67c	0.04263924
16	0xbcff1aa6	-0.031140637
17	0x3d584c4b	0.052807134
18	0xbd5444ed	-0.051823545
19	0xbd8a2d2b	-0.06746896
20	0x3d2b659e	0.041844957
21	0x3c598465	0.013276194
22	0x3c516b3c	0.012781914
23	0x3d4faf8f	0.050704535
24	0x3d26b876	0.04070326
25	0xbd8859c9	-0.0665775
26	0x3d71099a	0.058847047
27	0xbc3c623d	-0.011498031
28	0x3cce17f0	0.025157899
29	0xbca3c66e	-0.01999208
30	0x3d649038	0.0558016
31	0xbcc93c96	-0.024565022
32	0x3d602937	0.054726806
33	0x3d8bfd82	0.06835462
34	0xbc9b7ad0	-0.01897946
35	0xbd6b4615	-0.057439882
36	0xbd98d0f4	-0.0746173
37	0xbd9d9c55	-0.076958336
38	0xbd976e1b	-0.07394048
39	0xbd5e4caa	-0.05427233
40	0x3c73e4f0	0.014886126
41	0xbd47a698	-0.04874286
42	0xbd3ccbd7	-0.046092834
43	0x3d2ee2f8	0.042696923
44	0xbdacade2	-0.08431603
45	0xbd64dfbf	-0.055877443
46	0xbced2581	-0.028948547
47	0x3d27623a	0.04086516
48	0x3d1c3f7c	0.03814648
49	0xbdaa6a76	-0.08321087
50	0xbd0760e0	-0.03305137
51	0xba370b41	-0.0006982573
52	0x3c78ffed	0.015197736
53	0x3d2b2246	0.041780733
54	0x3cf6aea6	0.030112576
55	0x3ca20131	0.019775959
56	0xbd058f0e	-0.03260713
57	0xbd664554	-0.05621846
58	0xbc256634	-0.010095168
59	0xbd3cbd4f	-0.046078976
60	0x3d037f8e	0.032104068
61	0xbce7bcad	-0.02828821
62	0x3d10ffc8	0.035400182
63	0x3cf75c7c	0.030195467
64	0xbcd4470d	-0.025912786
65	0xbb2d3f6d	-0.002643551
66	0xbc9857b2	-0.018596504
67	0xbda4c731	-0.08045805
68	0xbda4b50e	-0.08042346
69	0xbbe29f9e	-0.0069160005
70	0x3d1edffb	0.038787823
71	0x3cf074d2	0.02935258
72	0xbd8ec9c4	-0.069720775
73	0x3c042cd8	0.008067332
74	0x3c682204	0.014168266
75	0x3c6c910b	0.014438878
76	0x3cd578f8	0.026058659
77	0xbd29591d	-0.04134475
78	0xbd910f92	-0.07083048
79	0xbd0eca51	-0.034860913
80	0xbd91258e	-0.07087241
81	0xbcc2f00a	-0.0237961
82	0x3d4bc61a	0.04974947
83	0xbd8fb9b4	-0.07017842
84	0xbd3a3c6e	-0.045467786
85	0xbcc9168a	-0.02454688
86	0xbd5fdefe	-0.05465602
87	0xbdb7a740	-0.08967447
88	0x3d4e83c3	0.050418627
89	0xbdc10c36	-0.09426157
90	0xbd9b2a21	-0.07576395
91	0xbcf7e09e	-0.030258473
92	0x3d396602	0.045263298
93	0xbdb65968	-0.08903772
94	0xbc785d52	-0.015158968
95	0xbd4ee721	-0.05051339
96	0x3cea0020	0.028564513
97	0xbcdd22fd	-0.026994223
98	0xbd265f66	-0.040618323
99	0x3d2f9c6e	0.042873792
100	0x3dae2b2c	0.08504328
101	0xbd6473ca	-0.055774488
102	0xbc8b1f18	-0.0169826
103	0x3d5c68c5	0.053810854
104	0xbc1da859	-0.009622657
105	0xb9971916	-0.00028819655
106	0xbc237b8d	-0.009978187
107	0xbd522c45	-0.05131175
108	0x3ce4b90e	0.027920272
109	0xbd21f06c	-0.039535925
110	0x3be50b37	0.0069898623
111	0x3d23c486	0.03998234
112	0x3bd4fbbb	0.006499735
113	0xbce47fa4	-0.027892895
114	0xbd2e3b47	-0.042537
115	0xbd10e8ac	-0.035378143
116	0xbd21fc66	-0.039547347
117	0xbd7de43c	-0.06198524
118	0x3d2ae90f	0.04172617
119	0x3c4944ed	0.0122845
120	0x3d57e436	0.052707873
121	0x3cd25064	0.025673099
122	0x3cdf4974	0.027256705
123	0x3c6e3611	0.014539258
124	0xbd7799e3	-0.060449492
125	0x3da45459	0.080239005
126	0x3c86f160	0.016472518
127	0x3b4b3c5a	0.0031011314
128	0x3d6c0144	0.057618394
129	0xbd7bf725	-0.061514992
130	0xbd566de8	-0.05235091
131	0x3d80cfac	0.0628961
132	0xbd22bdbd	-0.03973173
133	0xbd5e91ff	-0.05433845
134	0x3c0ba752	0.008523779
135	0xbc94beec	-0.018157445
136	0xbd4aebc6	-0.049541257
137	0x3c6c2606	0.014413362
138	0x3d72c6e7	0.05927172
139	0xbca02f6a	-0.019553859
140	0x3d938120	0.07202363
141	0xbd4953d0	-0.049152195
142	0x3d28f0f1	0.041245405
143	0xbc1d95e1	-0.009618253
144	0x3dac77c0	0.08421278
145	0xbd321c3d	-0.04348396
146	0xbcf7dd95	-0.030257026
147	0x3cd2127c	0.02564358
148	0xbc4d7d1a	-0.012542034
149	0xbd2ef1c0	-0.04271102
150	0x3d19c217	0.037538614
151	0x3d415d85	0.047208328
152	0xbd2f79ce	-0.04284077
153	0xbc4a7215	-0.012356301
154	0xbc2a30db	-0.010387625
155	0xbc68a812	-0.014200227
156	0xbd8ce0fb	-0.06878849
157	0x3da9041c	0.08252737
158	0xb9305aa6	-0.00016818437
159	0xbcdd058b	-0.026980182
160	0xbd1e8e8c	-0.038710162
161	0x3d688202	0.05676461
162	0xbcd68fc0	-0.026191592
163	0xbd8c78bb	-0.06858965
164	0xbc0797cb	-0.008275936
165	0xbd25d841	-0.04048944
166	0x3d4164e7	0.04721537
167	0x3d79eefb	0.061018925
168	0x3c9c366c	0.01906892
169	0x3d8db1cc	0.06918678
170	0x3d94f050	0.072723985
171	0xbd81d481	-0.0633936
172	0xbaf993aa	-0.00190412
173	0xbd6b1fec	-0.05740349
174	0x3d1ef87f	0.038811203
175	0x3bd079d2	0.0063621784
176	0x3cef94c0	0.029245734
177	0xbc031a3f	-0.008001863
178	0x3d5a1d79	0.053250764
179	0x3bf18ff9	0.007371899
180	0x3d742292	0.05960328
181	0x3d95d693	0.073163174
182	0xbcc57e1f	-0.02410799
183	0xbc92c256	-0.017914932
184	0x3d09632a	0.033541836
185	0x3d8c75d9	0.06858415
186	0xbc83ffd7	-0.016113205
187	0xbcb6b3a7	-0.022302462
188	0xbd91760d	-0.071025945
189	0xbd449d4e	-0.04800158
190	0xbd30f961	-0.043206576
191	0xbd845cb0	-0.06462991
192	0xbc3355ba	-0.010945732
193	0x3d9ce937	0.0766167
194	0x3d5da1a9	0.05410925
195	0xbd0c0dd4	-0.034192875
196	0xbc852c20	-0.016256392
197	0xbd723111	-0.059128825
198	0xbd5d86f6	-0.054083787
199	0xbbbf0ffd	-0.0058307634
200	0xbd536c4c	-0.05161695
201	0x3cec3169	0.028832154
202	0xbc6e4ee7	-0.014545179
203	0xbbef850e	-0.0073095625
204	0xbb841ab4	-0.0040315036
205	0xbb8c750f	-0.0042864154
206	0xb9fe1529	-0.0004846242
207	0x3d661b0c	0.056178138
208	0x3dabe9c4	0.08394197
209	0x3cb4fbd0	0.02209273
210	0xbd3a3696	-0.045462213
211	0xbd51844f	-0.05115157
212	0xbd4728dd	-0.048622955
213	0xbd209fd3	-0.03921492
214	0xbcb27d64	-0.021788307
215	0x3aedc403	0.0018140081
216	0x3d931164	0.071810514
217	0x3ccd8f0e	0.025092628
218	0x3d1518f4	0.03640075
219	0x3dab0e5e	0.0835235
220	0x3d81ec96	0.06343953
221	0x3c1ebf73	0.0096892
222	0x3da7cd3c	0.08193442
223	0xbd7bd6a7	-0.061484005
224	0x3d817d8f	0.063227765
225	0x3ca759f9	0.020428644
226	0xbd73181f	-0.059349176
227	0x3d5235ab	0.051320713
228	0x3d86f118	0.06588954
229	0xbd6c3f5b	-0.057677608
230	0xbb87eae1	-0.004147873
231	0xbd52ba6f	-0.05144733
232	0x3d4fe33c	0.050753817
233	0x3d5ed835	0.05440541
234	0xbc548a57	-0.012972436
235	0x3b802f1f	0.0039118673
236	0xbd6f77e5	-0.05846395
237	0x3d82fcbf	0.06395864
238	0xbd326e0c	-0.04356198
239	0x3cc5039b	0.02404957
240	0x3c840152	0.01611391
241	0x3c49a7ec	0.012308102
242	0x3d84ff42	0.06493999
243	0xbd6cb2cd	-0.057787705
244	0x3d63ee66	0.055647276
245	0x3da6bc00	0.08141327
246	0xbd80b698	-0.06284827
247	0xbd4e5b22	-0.05037988
248	0x3d339323	0.043841492
249	0x3d249e4a	0.04019002
250	0x3d282ceb	0.041058462
251	0xbd85c31c	-0.06531355
252	0xbd425bcb	-0.04745082
253	0xbd86292b	-0.06550821
254	0xbc8b4f70	-0.017005652
255	0xbd280177	-0.041017022

bias f4 [20]
0	0x3c1e1a02	0.009649755
1	0x3b365795	0.00278232
2	0xbc8ec916	-0.01742987
3	0x3c921dc2	0.017836455
4	0xbb2896a7	-0.0025724561
5	0x3b075918	0.002065247
6	0x3c5689a5	0.01309434
7	0xbcb3e4f0	-0.021959752
8	0x3c94e6d0	0.018176466
9	0xbcbcb453	-0.023035204
10	0x3cba4cda	0.022741724
11	0x3ca956b6	0.02067123
12	0x3c0599e3	0.008154365
13	0xbc225c10	-0.009909645
14	0x3c24c4b9	0.010056668
15	0xbc50ce21	-0.012744457
16	0xbc679c8e	-0.014136447
17	0xbc77535f	-0.015095561
18	0x3bc83269	0.006109525
19	0x3c5362f1	0.012902007

weight f4 [50, 20, 3, 3, 3]
0	0x3d8a375c	0.0674884
1	0x3d859443	0.06522419
2	0xbe13fe70	-0.14452529
3	0xbe29362f	-0.16524576
4	0x3c8f13b9	0.01746546
5	0x3d4fe94d	0.050759602
6	0xbdd7e3db	-0.10541507
7	0xbd4058a3	-0.04695953
8	0xbd97c4fe	-0.0741062
9	0xbcae3c6b	-0.021269044
10	0xbcb2e2dd	-0.021836692
11	0xbd815c45	-0.06316427
12	0x3d4a4462	0.04938162
13	0xbd813b56	-0.063101456
14	0xbe290c95	-0.16508706
15	0xbc04dc73	-0.0081092
16	0xbddc3a0d	-0.1075326
17	0xbdea3e27	-0.11437636
18	0xbdda554e	-0.10660802
19	0x3e1a79b9	0.15085496
20	0x3d81282a	0.06306489
21	0xbe16b475	-0.14717276
22	0x3d025af4	0.03182502
23	0x3e25ea32	0.1620262
24	0x3dfb9ff4	0.12286368
25	0xbd29d758	-0.041465133
26	0xbd75876c	-0.0599436
27	0x3a0e32a8	0.00054244185
28	0xbd50c027	-0.0509645
29	0x3d8ac344	0.06775525
30	0xbdf4d2e9	-0.119542904
31	0x3ca68482	0.020326857
32	0xbdfb7662	-0.12278439
33	0x3d69c2d2	0.05707056
34	0x3dddcf7b	0.108305894
35	0x3d0ac7ef	0.033882078
36	0xbdafee2b	-0.08590349
37	0xbd1cfd90	-0.038327754
38	0xbe01f88d	-0.12692471
39	0xbd89c9e2	-0.06727959
40	0xbd0cda72	-0.034388013
41	0x3d35d783	0.04439498
42	0x3c3562de	0.011070935
43	0xbd1f83b8	-0.038943976
44	0x3e183c47	0.14866744
45	0xbe15d956	-0.14633688
46	0xbc13e4d9	-0.0090267295
47	0xbdb11d8b	-0.08648213
48	0x3bf2eb82	0.0074133286
49	0x3d188e02	0.037244804
50	0x3dfc493d	0.123186566
51	0x3cee8301	0.029115202
52	0x3e096ac0	0.13419628
53	0xbd74f0af	-0.059799846
54	0x3d04cb5e	0.03242051
55	0xbdb00e6a	-0.08596499
56	0xbe0a5ed9	-0.13512744
57	0xbd62da99	-0.055384252
58	0xbce39a48	-0.027783528
59	0xbd5b0199	-0.05346832
60	0x3d817774	0.06321612
61	0x3e085b52	0.13316086
62	0xbcfb1874	-0.030651309
63	0xbd111498	-0.03542003
64	0x3d93822b	0.07202562
65	0xbdeae6ca	-0.11469801
66	0xbcf0d6d5	-0.029399315
67	0xbe142f7a	-0.14471236
68	0xbdaa7cdf	-0.083245985
69	0x3d23bf47	0.03997734
70	0x3d91acaa	0.07113011
71	0x3d5a9414	0.053363875
72	0xbdb1e3d7	-0.08686035
73	0x3de2a5d8	0.110667884
74	0xbdcdce8b	-0.100491606
75	0x3e043a33	0.12912826
76	0x3d1e5655	0.03865655
77	0x3d89180c	0.0669404
78	0xbdf22ebf	-0.11825322
79	0xbd3bda67	-0.04586258
80	0xbc4157b1	-0.011800692
81	0x3dd8239c	0.10553667
82	0x3e0e90f7	0.13922487
83	0x3dcbd453	0.09952607
84	0x3e094209	0.13404097
85	0xbdeacb15	-0.11464516
86	0x3de0ff1b	0.109861575
87	0x3dfc4826	0.12318449
88	0xbd65c018	-0.056091398
89	0xbdbe8766	-0.09303169
90	0x3e12e5f7	0.14345537
91	0xbd1c581d	-0.03816997
92	0xbe2050f8	-0.15655887
93	0xbc22bf50	-0.009933308
94	0x3dd5c3a7	0.10437708
95	0xbc6e33c1	-0.014538706
96	0x3c423167	0.011852599
97	0x3c105a42	0.008810582
98	0x3cc2b490	0.02376774
99	0xbe1034bf	-0.14082621
100	0x3d9d822b	0.07690843
101	0xbcd887d0	-0.026431948
102	0xbdfcd61c	-0.123455256
103	0xbd93855b	-0.0720317
104	0xbda9f9c8	-0.08299595
105	0xbddac805	-0.10682682
106	0x3d973b43	0.0738435
107	0x3d574998	0.05256042
108	0xbd4b94c5	-0.049702425
109	0xbc8dc46b	-0.017305573
110	0xbe014b27	-0.12626325
111	0x3e1380f5	0.14404662
112	0xbb914cf5	-0.004434223
113	0x3c9b8662	0.018984977
114	0xbd676e6d	-0.056501795
115	0x3dd2f208	0.1030007
116	0xbd8c4d53	-0.06850686
117	0xbe2aa579	-0.16664685
118	0xbe071ffa	-0.13195792
119	0x3d89b6d0	0.06724322
120	0x3dcfe970	0.101519465
121	0x3e0c385b	0.13693373
122	0x3dd31254	0.1030623
123	0xbe17e43e	-0.14833161
124	0x3d91281e	0.0708773
125	0x3da931d6	0.082614586
126	0xbda691ba	-0.08133264
127	0xbddcf163	-0.10788228
128	0x3dc3afcd	0.09555016
129	0x3e04ec93	0.12980871
130	0xbe033d8a	-0.12816444
131	0xbdaac764	-0.08338812
132	0xbd255060	-0.040359855
133	0x3c27b586	0.01023615
134	0x3d2309dd	0.03980433
135	0x3da4be8d	0.08044157
136	0x3d80931f	0.06278061
137	0x3b36b972	0.002788153
138	0x3e012905	0.12613304
139	0xbdc81bef	-0.09770953
140	0x3ce4126a	0.027840812
141	0xbe257c98	-0.1616081
142	0x3de0acf1	0.10970486
143	0xba5f1f15	-0.00085114065
144	0x3caea5ea	0.021319348
145	0x3df562a3	0.11981704
146	0x3dcb4eae	0.09927116
147	0x3daaa11b	0.0833151
148	0x3dedbab0	0.116078734
149	0xbd78d2ed	-0.06074803
150	0xbd32b398	-0.043628305
151	0x3ca54407	0.02017404
152	0xbe082744	-0.13296229
153	0x3df945ae	0.121714935
154	0x3d84b0c0	0.06479025
155	0xbdad236b	-0.08454021
156	0x3d9cb8e4	0.076524526
157	0x3cc3dd3b	0.023909202
158	0xbd901624	-0.07035473
159	0x3e165e90	0.1468451
160	0x3dd8fabe	0.105947
161	0xbbcfbaed	-0.006339422
162	0xbe18c059	-0.14917125
163	0xbd53ebbe	-0.051738493
164	0xbdfccdc1	-0.12343932
165	0x3902d01a	0.0001247529
166	0xbcd64d64	-0.02615995
167	0xbe1daa92	-0.15397099
168	0x3dd127e2	0.10212685
169	0x3d20a777	0.039222207
170	0xbe131fcb	-0.14367597
171	0x3d3a021a	0.04541216
172	0x3ca0aa56	0.019612473
173	0x3c977a84	0.018491037
174	0x3dea9176	0.11453526
175	0x3e04daf3	0.12974147
176	0xbe1a0496	-0.15040812
177	0xbd9705b2	-0.07374133
178	0x3cb905fe	0.022585865
179	0xbd66185a	-0.056175567
180	0xbe2274a3	-0.15864806
181	0xbe035c95	-0.12828286
182	0x3d8c3a94	0.068471104
183	0xbd2b7c5a	-0.041866638
184	0xbdb83ec1	-0.08996344
185	0x3e1a0741	0.1504183
186	0x3e087886	0.13327226
187	0xbe053f4d	-0.13012429
188	0xbded93a5	-0.116004266
189	0x3d6d8b5b	0.057994228
190	0x3dddd42b	0.108314835
191	0x3dc43c2e	0.09581791
192	0x3e1910de	0.1494784
193	0xbd1ae753	-0.037818264
194	0xba8c3edf	-0.0010699889
195	0xbe22f234	-0.15912706
196	0xbe10e5fc	-0.14150232
197	0xbdcecd02	-0.10097696
198	0xbd74b8a2	-0.059746392
199	0xbd77a49b	-0.060459714
200	0xbc8931fa	-0.016747463
201	0xbe25fe33	-0.1621025
202	0x3d0afee1	0.033934478
203	0xbe0227d9	-0.12710513
204	0xbd64d6c4	-0.05586888
205	0x3e154b12	0.14579418
206	0xbdbae833	-0.0912632
207	0x3c2ba934	0.010477353
208	0xbd3d818d	-0.046266127
209	0x3c777abf	0.015104949
210	0xbd9fc666	-0.078015134
211	0x3dcf08db	0.10109111
212	0x3d9d6f50	0.07687247
213	0x3c7932cc	0.015209865
214	0x3db72434	0.08942452
215	0xbe1ff7ac	-0.15621823
216	0x3e19e540	0.15028858
217	0xbdf8e610	-0.12153256
218	0xbe23df1f	-0.16003083
219	0xbd509e27	-0.050932076
220	0x3ca01c98	0.019544885
221	0x3ccc2dc5	0.024924168
222	0x3da22490	0.0791713
223	0x3c176e3b	0.00924259
224	0x3e1feee1	0.15618469
225	0xbd9b155b	-0.075724326
226	0x3df36167	0.118838124
227	0xbe198cfa	-0.14995185
228	0x3cf1c0fb	0.029510966
229	0x3c8b5f2b	0.017013153
230	0xbd8f6caf	-0.070031516
231	0xbdf34e6f	-0.118801944
232	0x3d425f91	0.04745442
233	0xbd9085cc	-0.0705677
234	0xbde8a232	-0.11359061
235	0x3e15b72b	0.14620654
236	0x3d04e74c	0.032447144
237	0x3d37a4a4	0.044834748
238	0x3e03e96a	0.12882009
239	0x3cf1feae	0.029540386
240	0xbc3a85a1	-0.011384399
241	0xbe2b3a0d	-0.16721363
242	0x3d26658d	0.04062419
243	0x3cfab84a	0.030605454
244	0xbc769471	-0.01505004
245	0x3e0f83c3	0.14015107
246	0x3cbd824c	0.02313342
247	0xbe27d870	-0.16391158
248	0xbdbbda03	-0.09172442
249	0xbd9b2336	-0.07575075
250	0xbe0caa0e	-0.13736746
251	0xbdfe8fc4	-0.12429765
252	0xbc57a3da	-0.013161624
253	0x3ca225c8	0.019793406
254	0xbe1f2bfc	-0.15544122
255	0xbe04de6a	-0.12975469

bias f4 [50]
0	0x3cd49f6e	0.025954928
1	0x3c099a0d	0.008398545
2	0xba7a0411	-0.0009537349
3	0xbd37a9fc	-0.044839844
4	0xbd0c3afc	-0.03423594
5	0x3d118272	0.035524793
6	0x3ddeda8f	0.108815305
7	0x3dcc2965	0.09968833
8	0x3cf930f2	0.030418847
9	0x3ca0088a	0.019535322
10	0xbd11fcd8	-0.03564152
11	0xbc9b5ced	-0.018965209
12	0xbd37df8f	-0.044890936
13	0x3b2cf59a	0.0026391507
14	0x3cf34ab2	0.029698703
15	0x3c8f8798	0.01752071
16	0x3cc18c92	0.0236266
17	0xbd4c4d08	-0.04987815
18	0x3b903dab	0.0044018826
19	0x3ce2d405	0.02768899
20	0xbd4482de	-0.047976367
21	0xbce730f4	-0.028221585
22	0x3d93ae56	0.07210986
23	0x3c969205	0.018380174
24	0xbcf2e1a6	-0.029648613
25	0xbc8ec710	-0.017428905
26	0xbd82c30e	-0.0638486
27	0x3cae4ba6	0.021276306
28	0xbc7db46a	-0.015484909
29	0xbd0cd784	-0.03438522
30	0xbd09cb34	-0.033641055
31	0xbc8ba091	-0.017044337
32	0xbcd34c1b	-0.025793126
33	0xbd2b23f3	-0.04178233
34	0x3cb4c16b	0.022064885
35	0xbc970e93	-0.018439567
36	0x3d59fd20	0.053219914
37	0x3bbb007b	0.0057068444
38	0xbcea6bc2	-0.028615836
39	0x3d827d25	0.06371526
40	0x3cc0e9d1	0.023548992
41	0x3d7592b3	0.059954356
42	0xbd602684	-0.05472423
43	0xbc8a4df8	-0.016882882
44	0x3cf965bf	0.030444024
45	0xbd05b744	-0.03264548
46	0xbc92af20	-0.017905772
47	0xbb52a605	-0.0032142412
48	0xbbdd5a2d	-0.0067551346
49	0x3c8cf063	0.01720447

weight f4 [2, 50, 1, 1, 1]
0	0xbf2b884e	-0.6700486
1	0xbe7e944c	-0.24861258
2	0x3e2d403b	0.16919033
3	0xbe8d3a2e	-0.2758345
4	0x3ea0c443	0.31399736
5	0x3f69fcb6	0.9140123
6	0x3f092a63	0.535803
7	0x3f45d582	0.7727891
8	0x3cca5fb8	0.024703845
9	0x3f030adf	0.5118846
10	0x3f15bb95	0.5848935
11	0xbef8210b	-0.4846271
12	0xbf32132d	-0.6956051
13	0xbef72989	-0.48273876
14	0x3f1be9ec	0.6090381
15	0xbe171dc3	-0.14757447
16	0xbddcea1a	-0.10786839
17	0x3eb09529	0.344888
18	0xbd8ec364	-0.069708616
19	0x3f4ea623	0.80722255
20	0xbd484f1d	-0.048903573
21	0xbef8cc27	-0.48593256
22	0x3f04f183	0.5193102
23	0xbea52a5f	-0.3225889
24	0xbee9b999	-0.45649412
25	0xbf061fdd	-0.5239237
26	0x3e195a23	0.1497579
27	0x3e2217ca	0.15829387
28	0x3e5d8745	0.21633632
29	0xbf2a3f2b	-0.66502637
30	0xbefde7f2	-0.49591023
31	0x3f29c762	0.6631986
32	0x3f3f23f2	0.74664223
33	0xbedf6803	-0.43634042
34	0x3f27c29d	0.6553133
35	0xbf52b629	-0.82309204
36	0x3f2bca75	0.671058
37	0xbf2b2f28	-0.6686883
38	0xbf473fa4	-0.7783148
39	0x3ebdc376	0.37063187
40	0xbdd34aa0	-0.10316968
41	0x3f035b51	0.5131121
42	0xbf58d5be	-0.84701145
43	0x3f347212	0.7048656
44	0x3f161f9b	0.58641976
45	0xbf395334	-0.7239258
46	0xbef5adbf	-0.4798412
47	0xbf05e9c1	-0.52309805
48	0xbed3fcd0	-0.41403818
49	0xbed03883	-0.40668115
50	0xbef5183b	-0.4787005
51	0x3ee2009d	0.44141093
52	0xbe87c7dd	-0.2651967
53	0x3eb786f8	0.3584516
54	0x3f2b1ee0	0.66843987
55	0x3cb42593	0.021990573
56	0xbf3a15de	-0.72689617
57	0xbf60fbfb	-0.8788449
58	0x3e22be72	0.15892962
59	0xbef8b94f	-0.4857888
60	0x3f1e8888	0.6192708
61	0xbea29f3c	-0.3176211
62	0x3f26294c	0.64906764
63	0x3ea7b2e6	0.32753676
64	0x3d8fa4d1	0.07013858
65	0xbd23276c	-0.039832518
66	0xbe421931	-0.18954922
67	0x3f4910df	0.7854137
68	0x3edbfcc0	0.4296627
69	0x3e840caa	0.25790912
70	0x3f1cb6b8	0.61216307
71	0x3e500d5f	0.203176
72	0xbf0d3522	-0.551592
73	0xbddee779	-0.10883994
74	0x3edeb8ae	0.43500274
75	0xbee96a4b	-0.45588908
76	0x3f3425a1	0.7036992
77	0xbf2c928f	-0.6741113
78	0x3db8aea8	0.09017688
79	0xbddb3b74	-0.10704699
80	0x3dc3c832	0.095596686
81	0x3e07aaa1	0.13248684
82	0x3f349804	0.7054446
83	0x3d150b35	0.03638764
84	0xbd303af1	-0.04302496
85	0x3efc9a7a	0.49336606
86	0xbcd11e88	-0.025527254
87	0x3ea9e581	0.3318291
88	0xbf39b96c	-0.72548556
89	0xbf388046	-0.7207073
90	0xbf3040ec	-0.6884906
91	0xbe35a68a	-0.17739311
92	0x3e94ea22	0.2908488
93	0x3e8e35ab	0.2777532
94	0x3c85d8bf	0.016338704
95	0xbdc51c85	-0.0962458
96	0x3e96b088	0.29431558
97	0x3ecf046a	0.40433055
98	0xbf4ce7f1	-0.80041414
99	0xbe91797e	-0.28413004

bias f4 [2]
0	0xbcf2ff97	-0.02966289
1	0xbd3d8de1	-0.046277884

weight f4 [5]
0	0x3f690c65	0.9103454
1	0x3f33725a	0.7009636
2	0x3f6c08f0	0.9220114
3	0x3f6ec7f5	0.9327386
4	0x3f529aed	0.8226765

bias f4 [5]
0	0xbd8b3873	-0.06797876
1	0xbde5c648	-0.1121946
2	0x3d2e892d	0.04261129
3	0x3d9bd3bd	0.07608745
4	0x3cf180ee	0.029480424

running_mean f4 [5]
0	0xc3000b8e	-128.04514
1	0x42be7c97	95.24334
2	0xc3201ea9	-160.11977
3	0xc25faed0	-55.920715
4	0x42d10a95	104.52067

running_var f4 [5]
0	0x44713a81	964.9141
1	0x43df79cc	446.95154
2	0x4483b533	1053.6625
3	0x4400fe97	515.97797
4	0x449ec0db	1270.0267

weight f4 [10]
0	0x3f550a05	0.83218414
1	0x3f6365f7	0.8882746
2	0x3f5b3b33	0.85637206
3	0x3f638ae5	0.8888381
4	0x3f55d996	0.83535135
5	0x3f61187e	0.87928
6	0x3f65f95f	0.89833635
7	0x3f44f5b3	0.7693741
8	0x3f5da550	0.8658037
9	0x3f5c2728	0.8599725

bias f4 [10]
0	0xbe35eb60	-0.1776557
1	0x3d9a99ce	0.07548867
2	0x3cab5f50	0.020919472
3	0x3d156abd	0.036478747
4	0xbdde0fbf	-0.10842847
5	0x3d2636c3	0.04057957
6	0x3da1c2ba	0.07898469
7	0xbe00beeb	-0.1257283
8	0x3c6a1efe	0.014289616
9	0x3c119972	0.008886682

running_mean f4 [10]
0	0x3fdd082d	1.726812
1	0xbfb1bbc7	-1.388543
2	0xbfb0ac22	-1.3802531
3	0x3f723d8b	0.9462516
4	0x3f9ef82f	1.241949
5	0xbfb00a89	-1.3753215
6	0x3f25af13	0.6472027
7	0x3fff0e58	1.9926252
8	0x3fa8dec0	1.3192978
9	0x3f067229	0.52517945

running_var f4 [10]
0	0x40802a13	4.005136
1	0x3fee2afd	1.8606869
2	0x4095f6a1	4.686356
3	0x3fa7a73c	1.3097911
4	0x40435cf3	3.0525482
5	0x40441261	3.0636218
6	0x40234a1f	2.551399
7	0x4054c2bf	3.3243864
8	0x403098d5	2.7593281
9	0x3f32e6a1	0.6988316

weight f4 [20]
0	0x3f70246e	0.9380559
1	0x3f5cf242	0.86307156
2	0x3f4e0c99	0.8048797
3	0x3f614be2	0.88006413
4	0x3f784d5b	0.96993035
5	0x3f69da4f	0.9134874
6	0x3f65de35	0.89792186
7	0x3f73ae0f	0.9518747
8	0x3f70f35a	0.94121325
9	0x3f569ab9	0.8382984
10	0x3f4b9ad7	0.7953314
11	0x3f42084a	0.757939
12	0x3f55ffdc	0.83593535
13	0x3f4480b9	0.76758915
14	0x3f56111e	0.8361987
15	0x3f55945a	0.8342949
16	0x3f4c2913	0.79750174
17	0x3f614eb1	0.880107
18	0x3f6151a7	0.88015217
19	0x3f50c196	0.8154539

bias f4 [20]
0	0x3e20f0fc	0.15716928
1	0x3d13b035	0.036056716
2	0xbe5219ad	-0.20517607
3	0x3d700c46	0.058605455
4	0x3e7c0208	0.2461015
5	0x3ddc5c3d	0.107597806
6	0x3dae26ff	0.08503532
7	0x3e618f7a	0.22027388
8	0x3e46f3f8	0.19429004
9	0x3b9bd8a0	0.0047560483
10	0xbdebcaa5	-0.11513261
11	0xbe0d0de4	-0.1377483
12	0xba3ff25a	-0.0007322185
13	0xbd8e861a	-0.069591716
14	0x3b0b5c0d	0.0021264583
15	0x39a48aa1	0.00031383804
16	0xbd52ed07	-0.05149558
17	0x3d8dbc25	0.06920651
18	0x3d915404	0.07096103
19	0xbcf9af0c	-0.030478977

running_mean f4 [20]
0	0xbf155e2e	-0.5834683
1	0xbe70db6e	-0.23521206
2	0x3fa15a6c	1.260572
3	0xbec5a95d	-0.38605776
4	0xbf75a6bb	-0.95957536
5	0xbd95a628	-0.073070824
6	0xbe071176	-0.13190255
7	0xc0004c89	-2.0046713
8	0xbf743db6	-0.95406663
9	0xbd6c352e	-0.057667904
10	0x4015b3a1	2.3390887
11	0x3fe4a4d5	1.7862803
12	0x3f2fad54	0.6862385
13	0x3fa2e92d	1.272741
14	0xbd0b4211	-0.033998553
15	0xbdf56827	-0.11982756
16	0xbf3c5636	-0.7356905
17	0xbea21ee1	-0.31664184
18	0xbf84f646	-1.0387657
19	0x3d69ec02	0.05710984

running_var f4 [20]
0	0x412bbe33	10.733935
1	0x400e146a	2.219996
2	0x4106118c	8.379284
3	0x411e7d4b	9.905589
4	0x40ea24b3	7.31698
5	0x4106c4a3	8.423007
6	0x409d90af	4.9239116
7	0x40dcb5fa	6.897214
8	0x41747a6e	15.27989
9	0x40b19fbf	5.5507503
10	0x413d40d4	11.828327
11	0x41454cd7	12.33126
12	0x4034de39	2.8260634
13	0x40b4cf59	5.650311
14	0x3fd426c6	1.6574333
15	0x409539c8	4.6633034
16	0x3f4bfc1e	0.79681575
17	0x4083a382	4.1137094
18	0x41051cb9	8.319512
19	0x3fec2bdd	1.8450886

weight f4 [50]
0	0x3f800000	1.0
1	0x3f800000	1.0
2	0x3f800000	1.0
3	0x3f800000	1.0
4	0x3f800000	1.0
5	0x3f800000	1.0
6	0x3f800000	1.0
7	0x3f800000	1.0
8	0x3f800000	1.0
9	0x3f800000	1.0
10	0x3f800000	1.0
11	0x3f800000	1.0
12	0x3f800000	1.0
13	0x3f800000	1.0
14	0x3f800000	1.0
15	0x3f800000	1.0
16	0x3f800000	1.0
17	0x3f800000	1.0
18	0x3f800000	1.0
19	0x3f800000	1.0
20	0x3f800000	1.0
21	0x3f800000	1.0
22	0x3f800000	1.0
23	0x3f800000	1.0
24	0x3f800000	1.0
25	0x3f800000	1.0
26	0x3f800000	1.0
27	0x3f800000	1.0
28	0x3f800000	1.0
29	0x3f800000	1.0
30	0x3f800000	1.0
31	0x3f800000	1.0
32	0x3f800000	1.0
33	0x3f800000	1.0
34	0x3f800000	1.0
35	0x3f800000	1.0
36	0x3f800000	1.0
37	0x3f800000	1.0
38	0x3f800000	1.0
39	0x3f800000	1.0
40	0x3f800000	1.0
41	0x3f800000	1.0
42	0x3f800000	1.0
43	0x3f800000	1.0
44	0x3f800000	1.0
45	0x3f800000	1.0
46	0x3f800000	1.0
47	0x3f800000	1.0
48	0x3f800000	1.0
49	0x3f800000	1.0

bias f4 [50]
0	0x00000000	0.0
1	0x00000000	0.0
2	0x00000000	0.0
3	0x00000000	0.0
4	0x00000000	0.0
5	0x00000000	0.0
6	0x00000000	0.0
7	0x00000000	0.0
8	0x00000000	0.0
9	0x00000000	0.0
10	0x00000000	0.0
11	0x00000000	0.0
12	0x00000000	0.0
13	0x00000000	0.0
14	0x00000000	0.0
15	0x00000000	0.0
16	0x00000000	0.0
17	0x00000000	0.0
18	0x00000000	0.0
19	0x00000000	0.0
20	0x00000000	0.0
21	0x00000000	0.0
22	0x00000000	0.0
23	0x00000000	0.0
24	0x00000000	0.0
25	0x00000000	0.0
26	0x00000000	0.0
27	0x00000000	0.0
28	0x00000000	0.0
29	0x00000000	0.0
30	0x00000000	0.0
31	0x00000000	0.0
32	0x00000000	0.0
33	0x00000000	0.0
34	0x00000000	0.0
35	0x00000000	0.0
36	0x00000000	0.0
37	0x00000000	0.0
38	0x00000000	0.0
39	0x00000000	0.0
40	0x00000000	0.0
41	0x00000000	0.0
42	0x00000000	0.0
43	0x00000000	0.0
44	0x00000000	0.0
45	0x00000000	0.0
46	0x00000000	0.0
47	0x00000000	0.0
48	0x00000000	0.0
49	0x00000000	0.0

running_mean f4 [50]
0	0x00000000	0.0
1	0x00000000	0.0
2	0x00000000	0.0
3	0x00000000	0.0
4	0x00000000	0.0
5	0x00000000	0.0
6	0x00000000	0.0
7	0x00000000	0.0
8	0x00000000	0.0
9	0x00000000	0.0
10	0x00000000	0.0
11	0x00000000	0.0
12	0x00000000	0.0
13	0x00000000	0.0
14	0x00000000	0.0
15	0x00000000	0.0
16	0x00000000	0.0
17	0x00000000	0.0
18	0x00000000	0.0
19	0x00000000	0.0
20	0x00000000	0.0
21	0x00000000	0.0
22	0x00000000	0.0
23	0x00000000	0.0
24	0x00000000	0.0
25	0x00000000	0.0
26	0x00000000	0.0
27	0x00000000	0.0
28	0x00000000	0.0
29	0x00000000	0.0
30	0x00000000	0.0
31	0x00000000	0.0
32	0x00000000	0.0
33	0x00000000	0.0
34	0x00000000	0.0
35	0x00000000	0.0
36	0x00000000	0.0
37	0x00000000	0.0
38	0x00000000	0.0
39	0x00000000	0.0
40	0x00000000	0.0
41	0x00000000	0.0
42	0x00000000	0.0
43	0x00000000	0.0
44	0x00000000	0.0
45	0x00000000	0.0
46	0x00000000	0.0
47	0x00000000	0.0
48	0x00000000	0.0
49	0x00000000	0.0

running_var f4 [50]
0	0x3f800000	1.0
1	0x3f800000	1.0
2	0x3f800000	1.0
3	0x3f800000	1.0
4	0x3f800000	1.0
5	0x3f800000	1.0
6	0x3f800000	1.0
7	0x3f800000	1.0
8	0x3f800000	1.0
9	0x3f800000	1.0
10	0x3f800000	1.0
11	0x3f800000	1.0
12	0x3f800000	1.0
13	0x3f800000	1.0
14	0x3f800000	1.0
15	0x3f800000	1.0
16	0x3f800000	1.0
17	0x3f800000	1.0
18	0x3f800000	1.0
19	0x3f800000	1.0
20	0x3f800000	1.0
21	0x3f800000	1.0
22	0x3f800000	1.0
23	0x3f800000	1.0
24	0x3f800000	1.0
25	0x3f800000	1.0
26	0x3f800000	1.0
27	0x3f800000	1.0
28	0x3f800000	1.0
29	0x3f800000	1.0
30	0x3f800000	1.0
31	0x3f800000	1.0
32	0x3f800000	1.0
33	0x3f800000	1.0
34	0x3f800000	1.0
35	0x3f800000	1.0
36	0x3f800000	1.0
37	0x3f800000	1.0
38	0x3f800000	1.0
39	0x3f800000	1.0
40	0x3f800000	1.0
41	0x3f800000	1.0
42	0x3f800000	1.0
43	0x3f800000	1.0
44	0x3f800000	1.0
45	0x3f800000	1.0
46	0x3f800000	1.0
47	0x3f800000	1.0
48	0x3f800000	1.0
49	0x3f800000	1.0
