models/deepvesselnet_mra.model (torch_old, 243978 bytes, 26 tensors)

weight f4 [5, 1, 3, 3, 3]
000000 8e 27 ef bd 3c 4a d4 bd af 67 ec 3d b3 1a 7d bd
       -0.11677466 -0.103657216 0.115432136 -0.06179304
000010 f2 95 3d be 7e 5d 92 3d 4c 27 d9 3d 4f 35 0e 3e
       -0.18514231 0.071467385 0.106031984 0.13887523
000020 d1 21 dc bc 99 fb f7 bc 65 17 8f 3d ea 28 95 3d
       -0.026871594 -0.030271338 0.06986884 0.07283194
000030 46 a1 35 3d 58 16 1a 3e 9e 3c 23 3e 2b 70 df bb
       0.044343255 0.15047586 0.15941092 -0.0068187914
000040 5d d2 2e be ae 02 02 3e 68 ef b0 bd 6f b6 9b 3d
       -0.17072435 0.12696335 -0.08639413 0.07603156
000050 2d dc a2 3d 1d 13 9d 3d c7 6d 8c 3b 77 ab 6e 3d
       0.079521514 0.07669661 0.0042855474 0.05826899
000060 26 f3 81 3d 49 84 47 bb 63 13 a4 3d 26 43 40 3e
       0.06345205 -0.0030443838 0.0801151 0.18775615
000070 d5 2b 29 3e 6f 72 1a 3e d7 30 02 3e 0c 27 4b bd
       0.16520627 0.15082715 0.12713943 -0.049597785
000080 8b 41 b1 3c bf d6 1b be 73 98 41 3d 9a 08 dd bc
       0.021637699 -0.15218638 0.047264528 -0.02698164
000090 07 25 27 be 8c c0 48 3e 52 b2 2a 3e a0 89 88 3d
       -0.16322719 0.19604701 0.16669586 0.06666875
0000a0 a0 70 c0 bc 3f 26 36 be 28 4f 0d 3e b1 0b 09 3d
       -0.023491204 -0.17788027 0.13799727 0.033458415
0000b0 8a c5 f2 3d 04 eb 2b be 3f bd d6 3d 61 41 fe 3c
       0.11854084 -0.1678887 0.104853146 0.031037034
0000c0 bf d1 11 3e 0e 15 4f 3e 10 74 e1 3c 46 33 b8 3d
       0.14240168 0.20222875 0.027521163 0.08994155
0000d0 be 77 d7 3d 7a f7 07 3e e1 00 e4 bd 71 8c 39 be
       0.10520886 0.13277999 -0.1113298 -0.1811998
0000e0 7d 2b 0d be ea cc a3 bd 0a 26 6c bc e6 06 02 be
       -0.1378612 -0.07998069 -0.014413366 -0.12697944
0000f0 c5 41 2f bd 5e b0 6c bd f7 0e f6 bd cc 32 0a be
       -0.042787332 -0.057785384 -0.12014573 -0.1349594
000100 c9 61 8a 3d d3 0f 7a bd c1 e6 1a 3e e8 fa 11 be
       0.06756932 -0.061050247 0.15127088 -0.1425587
000110 0e b9 81 bd 13 c6 77 bd 42 d6 98 bd 24 59 f9 3d
       -0.063341245 -0.060491633 -0.074627414 0.12175205
000120 16 e2 fe 3d b7 62 d2 3d 02 bc c1 bd fe 28 c0 bd
       0.12445466 0.102727346 -0.09459688 -0.09382819
000130 a9 f2 78 3d c7 61 0f 3e 51 88 aa 3d 45 09 ef 3d
       0.060778294 0.14002143 0.083267815 0.1167169
000140 8a 5b da bd 9e 3d ae bc 36 02 ee bd 40 b4 3c 3d
       -0.10661991 -0.021269616 -0.116215155 0.046070337
000150 69 80 c5 bd c3 92 c6 bd 6f 49 a8 bd c9 f7 32 bd
       -0.09643633 -0.09695961 -0.08217131 -0.043693338
000160 07 cf 88 bd 03 e4 23 3e 2b 39 92 bd 70 da 80 bd
       -0.06680112 0.16004948 -0.0713981 -0.06291664
000170 ad 28 e7 3d 73 61 2c 3e 22 09 e7 3d 50 b4 24 3e
       0.11287055 0.16834049 0.11281039 0.16084409
000180 d8 c3 22 3e fd bf c8 bd 40 b7 2c bb cb 0e 37 bc
       0.15895021 -0.09802244 -0.0026354343 -0.0111729605
000190 30 a6 15 be 6f 0e 0d 3e d3 8d b6 bd 85 b6 4b 3d
       -0.14614177 0.13775037 -0.089137696 0.04973461
0001a0 78 9f 5f bd b2 63 14 bd 70 aa b0 bd f1 71 36 be
       -0.05459544 -0.03622789 -0.086262584 -0.17816903
0001b0 81 42 05 3e a7 e5 0b 3e cc 95 2f 3e 19 b8 7d 3d
       0.1301365 0.13661824 0.17146987 0.061943147
0001c0 33 75 f9 bd 9c e5 bb bc 42 9e 22 be 63 c9 36 3e
       -0.12180557 -0.022936635 -0.15880683 0.1785026
0001d0 64 d6 aa bd 90 b5 69 bd cb 8e 29 bd a3 6a 2a be
       -0.08341673 -0.057057917 -0.041395944 -0.16642241
0001e0 49 11 53 bd ba 23 8f 3c cb b8 26 3e 81 50 d6 bd
       -0.051530156 0.01747309 0.1628143 -0.10464574
0001f0 35 77 bd bd 2f 34 02 3e 34 41 41 be a1 21 e4 3c
       -0.092512526 0.12715219 -0.1887253 0.027848067
000200 ef 82 de 3d 93 13 ee 3d 41 21 1e be 08 ec c3 3c
       0.10864817 0.11624827 -0.15442373 0.02391626
000210 57 5d 4a bd 28 d5 03 be ac 92 f2 bc
       -0.049405422 -0.12874281 -0.029610954

bias f4 [5]
000000 0a 48 0d 3e 84 29 07 3e 4f 68 49 bd 0c c2 e2 3d
       0.13797012 0.1319943 -0.049171742 0.11072168
000010 fa 81 11 3e
       0.14209738

weight f4 [10, 5, 5, 5, 5]
000000 30 fc 8d bd 96 73 d1 bd c6 63 4f 3d e3 79 95 bd
       -0.069328666 -0.102271244 0.05063226 -0.07298639
000010 6d 82 81 3d cc f2 11 3d 99 b2 cd bd 0f a9 63 bc
       0.06323705 0.03563194 -0.100438304 -0.013895287
000020 61 0b 00 3d 7b e3 32 3d fa 92 33 bd a1 9d 7a bd
       0.03126085 0.043673974 -0.04384134 -0.061185483
000030 b4 7b c6 3c ed 0a 91 bd 17 b4 80 bc d5 88 96 bd
       0.024228908 -0.07082162 -0.015710874 -0.073503174
000040 56 9c 0d 3d 44 25 ac bd 4e f0 8d 3c 10 32 1c bc
       0.03457292 -0.08405545 0.0173265 -0.00953342
000050 c0 66 9a 3c b1 44 25 3d 17 02 81 bc 88 a7 d0 bb
       0.018847823 0.040348712 -0.015748067 -0.0063676275
000060 25 3c 11 bb 08 0e 56 3c ee cd fb 3c ad bd f1 bc
       -0.0022161093 0.013064869 0.030737843 -0.02950939
000070 87 88 45 3c 5e ec 29 3d 34 59 b8 bd 85 ad 02 bd
       0.012056476 0.041485183 -0.09001389 -0.031903762
000080 85 a5 96 bd ef 91 ac 3b da bb 11 bd da 1b e2 bc
       -0.07355789 0.00526642 -0.03557954 -0.027601171
000090 2e f7 eb bc 40 91 c1 bd 0a 91 8f 3b 96 5d 1e bc
       -0.028804388 -0.09451532 0.0043813037 -0.009665867
0000a0 f9 9b 8a 3c 7f 7d 06 bc 7b ca 52 3d 87 08 89 bd
       0.016920077 -0.008208632 0.05146263 -0.066910796
0000b0 94 0e 4a 3d e4 0b b7 bd 0d 53 e0 3c 57 44 6e 3d
       0.04933031 -0.08937815 0.027383352 0.058170643
0000c0 7e 41 cf 3b 51 52 15 bd 24 bd ca bc d4 2a 30 bd
       0.006324946 -0.036455456 -0.024748392 -0.043009594
0000d0 da a3 3a 3d 43 42 c4 3c 83 fa 9c 3d bd b2 20 bd
       0.045566417 0.023957377 0.07664969 -0.039232958
0000e0 d6 4d 1d 3d 96 aa c9 bd 01 d0 99 b9 f2 40 90 3c
       0.03840431 -0.0984699 -0.0002933741 0.017609093
0000f0 b8 5d 80 bd fa 1e 3b bc b4 fa 44 bd cb f2 a5 bd
       -0.062678754 -0.01142096 -0.04809065 -0.0810295
000100 8e d9 7e 3d 3b 69 8f bd 22 5c 32 3c 09 74 90 bc
       0.062219195 -0.07002493 0.010886224 -0.017633455
000110 76 f9 92 3d e0 a6 54 bb 61 ba a0 bd ad a6 67 bd
       0.07176487 -0.0032448098 -0.07848049 -0.05655544
000120 a9 99 94 bd 02 2b 89 3d d9 b5 80 3d 4c 9d be bc
       -0.07255871 0.06697656 0.06284685 -0.023268364
000130 04 ab 1c 3d 6b d7 93 bd 97 20 43 bd cc f0 6f 3d
       0.03824903 -0.07218822 -0.047638502 0.05857925
000140 d8 c2 df bd c3 71 5d 3c 5a 45 42 3d 71 f8 19 bc
       -0.10925835 0.013515892 0.04742942 -0.009397612
000150 a4 75 27 bd c5 ee 24 bd ed a0 25 3d 83 bf 00 3d
       -0.040883675 -0.04026677 0.040436674 0.03143264
000160 14 f0 44 3d 90 dd 7c bc 53 08 28 bd b5 8a 97 bd
       0.04808052 -0.015433684 -0.041023564 -0.07399503
000170 58 82 7e 3d f5 0c a5 bc 2a 9e 28 bd 40 68 c8 3c
       0.062136024 -0.02014778 -0.041166462 0.024463773
000180 a3 bb b6 bd e7 60 7c 3d 60 d3 d8 bc cc 6b 50 bb
       -0.089225076 0.06161585 -0.026467979 -0.0031802533
000190 b8 d9 e8 bc eb 6c 7d 3d 77 2b 09 3d 99 7c a6 3c
       -0.028424129 0.06187145 0.033488717 0.020323085
0001a0 32 48 31 3d 53 07 a9 bd 64 eb 64 3b 84 75 92 3b
       0.04328174 -0.0825335 0.0034930343 0.0044695754
0001b0 8f bb fc 3c 6c 95 80 bd 6c 67 40 3c ca b1 f5 ba
       0.030851154 -0.062785 0.011743408 -0.0018745002
0001c0 19 24 9b 3d e1 48 87 3c 9c 81 88 3d 35 75 b0 3c
       0.075752445 0.016514244 0.06665346 0.021540264
0001d0 dc 88 1a 3c c3 92 56 3d a5 b5 20 bd a3 40 c9 bc
       0.009432044 0.052386057 -0.03923573 -0.024566954
0001e0 14 e3 54 3d f4 3b 0d 3d 05 0a 1a bd a6 62 58 bd
       0.05197437 0.034481004 -0.03760721 -0.052828453
0001f0 d8 3b 38 3d fc 7c 6b bd e9 af d9 bd 50 45 f9 bc
       0.044978946 -0.05749224 -0.10629255 -0.030428559
000200 ac a7 aa 3c f3 1c d3 bb 03 26 80 3c 3d 31 97 bd
       0.020831905 -0.00644266 0.015643125 -0.07382438
000210 8e f2 63 3d d1 6b 7f 3d a3 a8 93 bd a7 e9 e8 bc
       0.05565124 0.06235868 -0.07209899 -0.028431727
000220 79 b6 d6 bd c6 a3 e8 bc 49 4d 29 bd 3e 3f 7b 3d
       -0.10484023 -0.028398406 -0.04133347 0.06133961
000230 33 79 87 bd eb cc 3f bd bf e8 96 bd 57 ee 32 3b
       -0.06614914 -0.046826284 -0.073686115 0.0027302706
000240 40 90 90 3d 5d 14 f2 bd 1d b7 a6 bb d7 86 97 3a
       0.070587635 -0.1182029 -0.005087747 0.0011560571
000250 54 b4 84 bd 38 2a f3 3c 2d bb b7 bc dc ff c5 3a
       -0.06479707 0.029683217 -0.02242812 0.0015106159
000260 b1 20 8f bd 99 00 bc bd 45 a7 a0 3d c7 8a 2e bd
       -0.06988657 -0.091798015 0.07844404 -0.042612817
000270 41 23 8f bd 21 7d 2c bd 6c ba 85 3d 68 fe 2e bb
       -0.06989146 -0.04211152 0.06529698 -0.002670193
000280 31 c1 ca 3c d4 5a d6 bc 16 be cb bc 8e 3d 54 bc
       0.024750324 -0.026166357 -0.024870913 -0.012954129
000290 59 eb 83 3c 61 04 fd bd be 3e 86 bd 66 b3 fc 3c
       0.016103433 -0.12354351 -0.06554936 0.030847263
0002a0 71 0b a9 bd 8b 13 6d 3d 2e c9 5a bd 91 61 34 3d
       -0.082541354 0.057879966 -0.053414516 0.04403836
0002b0 25 e7 a4 bc 95 f5 92 3d 1f f7 b4 bd aa 1f 22 3d
       -0.02012975 0.07175747 -0.08836197 0.03958098
0002c0 93 29 5c 3c b7 33 75 3d 97 ae 88 bd 5a 6c 22 bc
       0.013437646 0.059863772 -0.06673925 -0.009913528
0002d0 62 39 af bd c7 2d 26 3d 65 e7 0e 3d d4 c5 43 bd
       -0.08555867 0.040571 0.034888644 -0.047796085
0002e0 42 bf 76 bd a6 29 ac bd 5c 2f ee bd b6 e5 9c bc
       -0.06024099 -0.08406381 -0.11630127 -0.019152503
0002f0 f8 5d 8d 3d fb 7f ed 3c ee 89 c6 bd 75 6c e1 bd
       0.06902689 0.02899169 -0.09694277 -0.11007015
000300 61 81 a0 bc 62 15 10 bd ea 02 89 3d a3 7c 2a bd
       -0.019592943 -0.035176642 0.06690009 -0.04162277
000310 84 b8 bf bd 5e d6 cf bc cc fe 37 3c 8f ac 39 3d
       -0.093613654 -0.025370773 0.011230182 0.04533058
000320 c3 b4 d5 3c 39 57 bc bc cb 9c fa bc 94 89 db 3c
       0.02608717 -0.02299081 -0.030592343 0.026799
000330 9a 67 4f bd ec b9 b8 bd 92 29 22 3d 49 6c 4a 3d
       -0.05063591 -0.09019837 0.039590426 0.049419675
000340 82 b1 82 bd 2a c7 5c bd fe 44 be 3c e1 ec 24 3d
       -0.06381513 -0.053900875 0.023226257 0.040264968
000350 86 33 a5 bc 22 b9 31 3d 9e 1f 12 3c c2 9b a0 bd
       -0.02016617 0.043389447 0.008918671 -0.078422084
000360 9f 91 42 3d 10 10 45 bd 4a b0 79 bc 2b 73 b9 bc
       0.047502156 -0.04811102 -0.0152397845 -0.022637924
000370 6a 57 3b 3d d8 90 a8 bd 28 5f 74 bd 5d 08 8a bd
       0.04573766 -0.08230752 -0.05966106 -0.067398764
000380 b4 e9 29 bc ca c9 f0 39 4d 70 2a bc 29 65 3a 3d
       -0.010370661 0.00045926712 -0.010402751 0.04550663
000390 8f 23 a2 3c 08 03 80 3d fb 4d 4a bd fa 49 1a bd
       0.019792346 0.06250578 -0.049390774 -0.037668206
0003a0 53 89 62 3d 91 30 91 3d 74 60 46 bd fc d6 b2 bd
       0.055306744 0.070893414 -0.04843183 -0.08732411
0003b0 c6 95 95 bd 56 84 7b bd 7b c4 88 3d 20 4d 28 bd
       -0.07303958 -0.061405502 0.06678101 -0.041089177
0003c0 7a b0 c2 bd a6 e9 5c bd 16 75 97 bc 54 9b ae bd
       -0.095063165 -0.053933762 -0.018488448 -0.0852572
0003d0 9d 28 2f bd a6 f2 05 3c d3 98 66 bd 45 8c 8e bd
       -0.04276334 0.008175528 -0.05629809 -0.06960348
0003e0 06 f0 e4 bb fb 2f 45 3d 92 0e 87 bd 86 65 14 bd
       -0.006986621 0.04814146 -0.06594576 -0.036229633
0003f0 ed c9 a2 3d c5 20 8c bd 6e 42 6c 3c 80 ea 7b bc
       0.079486705 -0.06842188 0.014420135 -0.015375733

bias f4 [10]
000000 5e 3e fb ba 03 95 df bc 34 53 e2 bc 99 39 db 3b
       -0.0019168367 -0.027292734 -0.027627565 0.006690216
000010 17 48 d9 3b c7 43 f1 3c ef 49 5a 3c 05 b7 ae bb
       0.006630908 0.029451264 0.013323291 -0.005331876
000020 02 16 04 bd e3 f8 52 3b
       -0.03224755 0.0032191805

weight f4 [20, 10, 5, 5, 5]
000000 c6 23 40 3d d9 77 16 bd c9 48 a4 3c ac a5 64 3d
       0.046909116 -0.03673539 0.020054238 0.05582206
000010 79 15 fe bc 2d 3f ff bb ab 82 75 bd 34 ec 15 bd
       -0.031016098 -0.0077895136 -0.059939068 -0.036602214
000020 c9 d8 5e bc b6 72 ad 3c f0 6c 73 3c 70 31 f5 bb
       -0.01360149 0.021172862 0.014857516 -0.0074827
000030 9f 20 06 3c 97 b8 d3 3b b2 e7 a4 3c 44 56 6e bd
       0.008186488 0.006461214 0.020130012 -0.058187738
000040 4c 18 9f 3d 5b b3 af bd b6 94 30 bd 1f ca 17 bd
       0.07768306 -0.08579131 -0.04311057 -0.037057992
000050 b5 0d 4e bd 5e 79 0d 3c 38 de 71 bd b8 16 2f 3b
       -0.05030604 0.008634893 -0.059049815 0.0026716422
000060 d8 4d 32 3d 76 00 52 3d b1 6f 9c 3d 17 ea 6b 3c
       0.04353127 0.05126997 0.07638491 0.014399073
000070 d3 eb f9 bc 37 f8 89 3c c2 66 83 3d 2b 90 1a bd
       -0.030507958 0.01684199 0.06416084 -0.037735146
000080 b2 3d 70 bd 84 fe 47 3d 7e 27 37 3c aa 02 32 3d
       -0.058652587 0.04882671 0.011178849 0.043459572
000090 d0 7e 87 3d be 82 a3 bd 63 4b ce bb d1 d5 97 3d
       0.066159844 -0.079839215 -0.006295608 0.07413829
0000a0 05 62 21 bc 69 60 a0 3d dd d3 91 bd 39 42 aa 3d
       -0.00985003 0.07830889 -0.07120488 0.08313412
0000b0 56 a6 f3 bc e3 89 13 3d 14 8c a2 bd 62 84 12 bd
       -0.029742401 0.03602017 -0.07936874 -0.03577078
0000c0 ef 65 53 bc 5a cd 59 3c 71 94 50 bd 4f c3 55 bd
       -0.012902721 0.0132935885 -0.050922815 -0.052188214
0000d0 2c a2 21 3d d7 76 10 3d 37 fc ad 3d 33 49 45 3d
       0.0394613 0.035269585 0.08495372 0.04816551
0000e0 0b 09 2c 3d 63 e7 d2 3c 6c 09 41 3d 25 8b a4 bc
       0.04200081 0.0257451 0.047128126 -0.02008588
0000f0 27 57 aa 3d 9d 78 4b bc 2a 8d 48 bd a9 0a ab 3d
       0.08317404 -0.012418893 -0.04896275 0.08351643
000100 84 83 5e 3c f6 a3 02 bd c2 fe ad 3d e3 9b 5c 3d
       0.01358116 -0.031894647 0.08495857 0.053859603
000110 80 da cf 3b b6 34 74 3d 9a ab 5d bd 82 44 40 3d
       0.006343186 0.05962058 -0.05411873 0.046940334
000120 84 06 f3 bc a9 5f 9a bd 7e 80 c7 3d 6f b1 37 bd
       -0.029666193 -0.07537777 0.09741305 -0.04484695
000130 39 66 ab 3d 23 be f1 bb ca 7b 1a 3c c3 bf cf bc
       0.08369107 -0.0073774024 0.009428928 -0.025359994
000140 a0 83 9c bd 6b 61 13 bd bc fb fc 3c eb d3 76 bb
       -0.07642293 -0.035981577 0.030881755 -0.0037662934
000150 0b cb 3d bd a2 83 d3 bb 5f 30 fe 3b 3d 5d af 3d
       -0.046336215 -0.006454901 0.007757231 0.08562706
000160 2e 14 c2 3d 07 0e 35 3d b0 6f 56 3c 1a 74 11 bd
       0.09476505 0.04420283 0.013088152 -0.035511114
000170 27 55 96 3d 6e 0e 64 b9 92 fc c6 3d 74 30 e9 bb
       0.0734046 -0.0002174915 0.09716143 -0.0071163718
000180 1a 3b 79 bd 6b df a7 3d e9 df df 3b 83 14 98 bd
       -0.06084738 0.081969105 0.006832112 -0.07425787
000190 31 d3 85 bd b4 09 6d bc 3b 69 3a bb f8 af 73 bc
       -0.06534422 -0.014467645 -0.002844407 -0.014873497
0001a0 e4 da ba 3c de bd 75 3c 3f 99 a0 3b 73 81 10 bd
       0.022809453 0.014998881 0.004901081 -0.035279702
0001b0 24 22 a1 3d bd 22 84 3d 82 07 4f bd d9 d1 db bc
       0.0786784 0.06451938 -0.05054427 -0.026833462
0001c0 4d 7b 08 3d 94 d1 85 bd 04 3b 11 3d ec b2 40 3d
       0.033320714 -0.065341145 0.035456672 0.047045633
0001d0 0d b6 28 bd 2b 6b cb bc dc 37 21 3d b3 bf a3 3c
       -0.041189242 -0.024831375 0.039359912 0.01998887
0001e0 08 fe e6 3b 43 10 a5 bd 9e f5 d2 bc 36 8d 96 3d
       0.007049326 -0.08059742 -0.025751885 0.073511526
0001f0 ec 54 0e bd 64 d0 7e bd 50 f6 5a bd cf e0 9a 3c
       -0.034748957 -0.062210456 -0.05345756 0.018906025
000200 2b b0 1f bd fc c3 a1 bb 1d ca 87 3d d6 fb 19 3c
       -0.038986366 -0.0049366932 0.06630347 0.009398421
000210 dc 2e 4d 3c 53 eb f8 3a 53 3f 1d 3c 62 24 8a bd
       0.012523379 0.001899103 0.009597617 -0.06745221
000220 2d 7d 2a 3d d3 e4 a1 bd c6 ba 85 bd a7 db 78 bd
       0.041623283 -0.07904973 -0.06529765 -0.06075635
000230 b5 30 74 3d 03 9b 68 3d 2a 02 a0 bb e4 78 94 3c
       0.059616763 0.056788456 -0.0048830705 0.018124051
000240 3d bb cd 3a 27 10 2e bd 57 80 72 bd b8 f0 cb ba
       0.001569606 -0.042495873 -0.059204426 -0.0015559411
000250 d3 4b 84 bd 4f d8 54 3d 0e ec 3f bd 72 2d c9 bb
       -0.06459775 0.0519641 -0.04685598 -0.0061394507
000260 88 6c 7a 3d c9 2e 80 bd cd 9f 25 3d fc ab 68 3d
       0.06113866 -0.062589236 0.0404356 0.056804642
000270 65 d1 15 bd bd 91 29 3c c4 03 a4 bd 59 5f 87 3d
       -0.036576647 0.010349688 -0.08008531 0.06609983
000280 d4 e5 b9 bd 53 87 cc bc d8 6c 80 3d 08 31 8c bd
       -0.09077039 -0.024966871 0.0627076 -0.068452895
000290 67 49 4c 3d e7 bd 93 bd c8 49 c8 bd 76 e9 5d bd
       0.04987469 -0.072139554 -0.09779698 -0.054177724
0002a0 9e 77 66 3d f7 9b 09 3c b2 c1 c1 bd c5 d9 c5 bc
       0.05626642 0.008399001 -0.094607726 -0.024151692
0002b0 2d fe a0 bc 80 fc 63 3c 31 63 d6 bc 59 56 1d bd
       -0.01965245 0.013915181 -0.026170345 -0.038412426
0002c0 e2 9b a8 bd c1 b9 a8 bb 87 6b 16 bd 29 d0 ee bc
       -0.08232857 -0.0051490967 -0.03672364 -0.029151993
0002d0 d2 9d 73 bd c7 7f 96 3c 5c cc 24 bc bb 5c ca 3c
       -0.05947668 0.018371476 -0.010058489 0.02470242
0002e0 0f 82 6f 3d 03 dc 15 bd 9c 59 95 bd d4 44 04 3c
       0.058473643 -0.036586773 -0.07292482 0.0080730505
0002f0 98 6f 93 3d 70 0d 79 bd f6 82 5b bd a1 b9 99 3d
       0.07199019 -0.06080383 -0.05359169 0.07506109
000300 8c e8 3e bd db 39 b8 3c d1 b7 91 3c 66 7f f7 bb
       -0.046608493 0.022488525 0.017787846 -0.007553029
000310 d1 03 9e 3d 50 e6 d6 3c 2e 95 4d bd e6 9a 19 bd
       0.07715572 0.026232868 -0.050191097 -0.03750124
000320 35 38 a2 ba d8 ce a8 bc b1 43 4d 3d 56 46 5f 3d
       -0.001237637 -0.020606443 0.050113384 0.054510437
000330 6f 06 37 3d a9 06 e9 bc 56 30 a0 bd 71 10 b3 3c
       0.04468387 -0.028445559 -0.07821719 0.021858426
000340 38 2a b3 bc 03 2e 78 bd 50 4d 0c 3d 9d 1a c4 3b
       -0.021870717 -0.060590755 0.03425342 0.005984618
000350 df a0 c3 3c 2b c8 65 bd 10 6d 7a 3c e5 56 a6 3c
       0.02388042 -0.0560991 0.015284792 0.020305106
000360 89 2e 2f 3d 33 7f 66 3d 9f 74 7d 3d b6 ca 28 3d
       0.04276899 0.05627365 0.061878797 0.041208945
000370 e2 0b 94 bc 49 45 72 3d cb f5 c7 3b 2d 08 74 bd
       -0.018072072 0.059148107 0.006102299 -0.05957811
000380 ba df 50 bd a9 2c 58 3d 05 b0 98 3d 16 24 a1 bd
       -0.050994612 0.052776966 0.07455448 -0.07868211
000390 82 34 c5 3c de 75 66 3c 06 94 c4 3c 90 65 e6 bc
       0.02407289 0.014066188 0.023996364 -0.0281246
0003a0 18 78 fc bc fe 92 8d 3d d7 c1 d0 3b 26 51 17 bd
       -0.030818984 0.06912802 0.0063707638 -0.036942624
0003b0 0e a8 b4 bc b9 81 70 3d de b1 d1 3c d7 cb 94 3d
       -0.022052791 0.058717463 0.025597509 0.07265442
0003c0 89 8c 99 3d 7d e9 0e bd ec 98 c1 bd 67 d4 6c 3d
       0.07497508 -0.03489064 -0.09452996 0.05781975
0003d0 12 58 01 3d 02 e2 2b bd 27 7a 88 bc 69 21 90 3d
       0.03157813 -0.041963585 -0.01665981 0.070376225
0003e0 df 5e 7a bd f8 60 99 bd 9d c9 99 bb a0 0e 17 3c
       -0.061125632 -0.074891984 -0.0046932236 0.009219795
0003f0 f3 3e 76 3d 7f a5 c0 3c 1a a3 32 bd e6 31 8a 3c
       0.060118627 0.023516415 -0.043612577 0.016869497

bias f4 [20]
000000 ef c4 d4 bc f6 8f de bb 27 c4 d8 3b d3 5a a0 3a
       -0.025972812 -0.006792064 0.00661518 0.0012234099
000010 f9 3d d8 3c 8d 66 57 3c 7f d8 2a bc af 5d b9 bc
       0.026396738 0.013147009 -0.010427593 -0.02262768
000020 59 7d 58 3c b1 41 26 bc 43 2f 0f 3a ec ae f8 bb
       0.013213479 -0.010147498 0.00054620596 -0.0075892117
000030 74 2a b6 ba 45 9f 6c bc 34 1f 02 3b 4a e7 f5 3a
       -0.001389815 -0.01444227 0.0019855024 0.0018760946
000040 ae 20 98 bc ec 84 d4 bc 00 22 16 bc 19 a4 b0 3c
       -0.01857027 -0.025942288 -0.00916338 0.021562623

weight f4 [50, 20, 3, 3, 3]
000000 7f 6e a2 3d 7b 40 e3 3d 6f 10 1c 3d 8d a8 1e be
       0.07931232 0.11096283 0.03810161 -0.15493985
000010 5e cc 34 be 25 a8 d4 bd 3b 50 1f be 25 dd 59 bd
       -0.17656085 -0.103836335 -0.15557949 -0.053189415
000020 34 71 ca 3b d4 86 62 bd 99 88 ec bd f7 26 25 3e
       0.0061780456 -0.055304363 -0.115494914 0.16128145
000030 78 40 c8 bd 08 94 00 3e 3d 52 f7 bc ca 44 33 3e
       -0.097779214 0.1255647 -0.030190581 0.1750671
000040 a6 93 fc bd 08 36 73 3d cc 71 02 be 86 4e 09 3e
       -0.12332849 0.0593777 -0.12738723 0.1340886
000050 3d a6 15 3e 00 3d 32 3d 33 a1 ee 3c 42 ae e4 3d
       0.14614196 0.043515205 0.0291296 0.111660495
000060 b0 83 ad 3d aa 80 75 3c ca dc e9 bd f0 45 0f 3e
       0.08472383 0.014984289 -0.11419065 0.13991523
000070 38 3b 13 3e b7 cb e2 3d 6b 69 df bd 71 ee 4c 3d
       0.14378059 0.11074012 -0.10908779 0.050032083
000080 d3 c2 34 3e db fe 70 bd 83 5a 32 bd 83 2c 22 3d
       0.17652445 -0.0588368 -0.04354335 0.03959323
000090 1a c3 52 3d 8e e1 07 bc 79 1a b4 3d 97 d0 3e be
       0.051455595 -0.0082935225 0.08794112 -0.18634258
0000a0 f7 0d 39 3d 8c de 9e bd 9c 19 2f 3e 78 89 2b bd
       0.045179334 -0.07757291 0.17099613 -0.041879147
0000b0 7d 13 0a 3d 07 1e c6 3d e3 1b f8 bd 48 05 0e be
       0.03370999 0.09673696 -0.12114694 -0.13869202
0000c0 4b e6 96 3d 0b fc d4 bc 0d f5 97 3c 58 c5 96 3d
       0.07368144 -0.02599909 0.018549467 0.07361859
0000d0 62 e1 cb bd 1e 74 29 be af cf 46 be 57 1b ed 3b
       -0.09955098 -0.16548201 -0.19415163 0.007235925
0000e0 db dc 3b be 78 5c 2b 3e 36 56 d9 bd b0 35 c0 bd
       -0.18345968 0.16734493 -0.106121466 -0.0938524
0000f0 bc fa e2 bc c9 a3 0c 3e 78 1d dc bd 94 b9 a2 3d
       -0.02770745 0.13734354 -0.10747808 0.079455525
000100 bd e9 05 be 74 f1 8f bd 49 5e b0 3b 20 f6 b2 3d
       -0.13077445 -0.070284754 0.0053823334 0.08738351
000110 ea 5b 26 3e b7 0e 0c 3e c0 f1 ae 3d 92 fb 42 be
       0.16246 0.13677488 0.08542204 -0.19041279
000120 51 9d 82 bc 63 55 17 3e 35 79 94 bd 0b 54 05 be
       -0.015944155 0.14778666 -0.07249681 -0.13020341
000130 52 03 dd 3d b3 62 7e 3d 0d e6 c3 bd 35 c5 98 3d
       0.10791649 0.062105846 -0.09565363 0.07459489
000140 71 6d 49 bd 91 cd e7 3b be 59 ac bd 84 32 2d 3e
       -0.049176637 0.007074066 -0.084155545 0.16913801
000150 af c1 16 bd c3 ef 54 3b 94 0e 0b be 3b 30 82 3d
       -0.036805805 0.0032491542 -0.1357978 0.063568555
000160 eb 84 2a be 7d 9e 90 3d 45 8f 24 3d 85 bc 07 be
       -0.16652267 0.07061479 0.040175695 -0.13255508
000170 b4 a8 b2 bd e0 d0 81 bd c4 6b 4a bd eb a4 32 3c
       -0.08723584 -0.06338668 -0.04941918 0.010903577
000180 1d aa 19 3e b5 20 13 3e 59 a7 0e 3e eb a4 35 3e
       0.150063 0.14367945 0.13931026 0.17738692
000190 66 77 32 bd 6b 65 18 be 74 ca bb bd 4b ca 5f bd
       -0.0435709 -0.14882438 -0.09169474 -0.05463628
0001a0 ea af ee 3d d2 4d 58 bc 16 a6 44 bd 68 d9 29 3b
       0.11654647 -0.013202148 -0.048009954 0.0025916938
0001b0 9e 39 c6 bd b9 e3 c3 3d 5b 64 88 3d a5 29 00 bd
       -0.09678958 0.09564919 0.06659766 -0.031289715
0001c0 99 88 bc bd b4 13 72 3d 58 67 f6 bd 16 10 83 3d
       -0.092057414 0.05910082 -0.1203143 0.063995525
0001d0 eb cc 09 3e da 64 cc 3d ad 21 20 bd a4 e2 03 be
       0.13457076 0.099801734 -0.039094616 -0.12879425
0001e0 de 61 95 3d ce 66 29 3e 28 0c 38 3e 8b 07 c6 bc
       0.07294057 0.16543123 0.17973387 -0.024173519
0001f0 0a 76 cd bd 22 53 39 3e ee ca 05 be a7 35 11 be
       -0.1003228 0.18098119 -0.13065693 -0.14180623
000200 be c3 0f 3e f3 42 44 3d dd 1a 38 be 0e 2f 7f 3d
       0.14039513 0.04791541 -0.17978998 0.062300734
000210 86 d0 cc 3d 1d 5f 18 bb 33 f9 34 3e 19 be 9a bd
       0.1000071 -0.0023250051 0.17673187 -0.075557895
000220 3d b0 e7 bd ad c5 5b bd ee d9 0f 3e 4c 6d 25 3e
       -0.11312912 -0.053655315 0.14047977 0.16154975
000230 d4 08 ae bc 02 54 11 3d 3d 67 57 bd 88 7a 1d 3e
       -0.021244444 0.035480507 -0.05258869 0.15378773
000240 64 95 69 bd 4b 3f 95 3d ba 13 ef 3d 67 74 2f be
       -0.057027236 0.07287463 0.116736844 -0.17134248
000250 60 0d 16 3e aa 61 3d bd 6f e9 db bb de bc 85 bd
       0.1465354 -0.046235718 -0.006711177 -0.06530164
000260 7e 3a b5 bd 1d 8f 2a 3e 94 8b 2a be a9 c3 bc 3d
       -0.08849047 0.16656156 -0.16654807 0.09217007
000270 d3 64 9c bd 10 93 c5 3d 18 da 82 bd 5c a0 3a 3e
       -0.07636418 0.096471906 -0.06389254 0.18225235
000280 91 66 27 3e 44 d6 2a be 5d 75 1b 3e d2 55 a9 bc
       0.1634772 -0.16683298 0.1518149 -0.020670805
000290 5c 23 b7 3c 1a a1 0c 3c a2 4b 91 3d f5 80 3c be
       0.022355728 0.0085833315 0.07094504 -0.18408568
0002a0 e7 87 d4 3d c4 77 c7 3d 1a e8 67 3d da 19 e1 bd
       0.10377484 0.0973964 0.056617834 -0.10991259
0002b0 06 da 23 be 35 99 02 be 8c eb 35 bb 3e 12 a0 3b
       -0.16001138 -0.12753756 -0.0027758805 0.004884987
0002c0 9b b3 6f 3c 6c be 01 be 06 bf 0b 3e 92 c6 d7 3d
       0.014630224 -0.12670296 0.13647088 0.10535921
0002d0 34 65 9c 3c de 2b cf 3d 89 0e 7b bc 12 10 14 bd
       0.019091226 0.10115789 -0.01532329 -0.03614814
0002e0 7e 1c 23 be d7 62 05 3c e5 42 35 bd 0c ee 7f 3d
       -0.15928838 0.008141241 -0.04425325 0.06248288
0002f0 1d 70 36 be a7 a1 85 3d a6 40 9a 3d c6 94 8d 3d
       -0.17816205 0.06524973 0.07531862 0.06913142
000300 b9 f3 3a 3d de 81 96 3d 7f 86 22 be 44 d9 2f bd
       0.04564259 0.07348989 -0.15871619 -0.04293181
000310 15 5a 3a be c8 84 f5 3d 0a 02 20 bd fa 37 03 be
       -0.18198426 0.11988217 -0.039064445 -0.12814322
000320 19 c8 d5 3d 97 46 35 3e 39 5d d9 3c 40 da c6 bc
       0.10438556 0.17702709 0.02653371 -0.024273992
000330 cf 9f c6 3d 2d 06 95 bd 1d ab e4 bd 21 ac ad 3d
       0.0969845 -0.072765686 -0.1116545 0.084800966
000340 bd 0b 15 be 79 f2 a8 bd d0 2e 2a be cc c8 dc 3c
       -0.14555259 -0.08249373 -0.1661942 0.026951216
000350 63 17 d1 bd c7 c4 98 bd a8 a7 d1 bd 26 74 3e 3a
       -0.10209539 -0.07459407 -0.10237056 0.0007265232
000360 02 52 e1 3d 92 f8 b9 bd da 0f 98 3d 4b 52 8f bd
       0.1100197 -0.09080614 0.074248984 -0.06998118
000370 34 17 16 be e5 f2 03 be 44 af 28 be ed 86 38 3e
       -0.14657289 -0.12885626 -0.16473109 0.1802022
000380 2c a4 1b 3e f1 4e 06 3d 89 26 15 3d ac 6a 2c be
       0.15199345 0.03279013 0.036413703 -0.16837567
000390 ed a8 e5 bc 60 ca 10 be 33 4c 93 3d dc a5 02 3e
       -0.028034652 -0.141397 0.07192268 0.12758583
0003a0 55 38 b7 3d 1a 76 1e be ea 18 ad bd 35 53 21 bd
       0.08946291 -0.1547474 -0.084520176 -0.039385993
0003b0 0b 90 6b 3d 30 79 84 3c 18 61 2e be 8b d8 90 bd
       0.057510417 0.016171068 -0.17029226 -0.07072552
0003c0 79 e8 01 3e 7f 87 d3 3d 48 4a d0 3d 62 74 01 3d
       0.12686338 0.10328578 0.10170418 0.031605132
0003d0 f9 13 33 3e 24 3f c8 3d b7 06 97 3a 59 cf 06 3e
       0.17488088 0.09777668 0.0011522387 0.13165034
0003e0 78 67 c0 3c ac fc 26 be 6a 98 e8 3d 15 82 f9 3d
       0.023486838 -0.16307324 0.11357196 0.12183014
0003f0 41 ef 49 3d 8e a3 bc 3b 7c 7a 5d bc 59 7a 06 3b
       0.049300436 0.005756802 -0.013517972 0.0020519702

bias f4 [50]
000000 0c 9c 2a bd 10 7a d2 3c 57 99 1e bd 82 45 0f bd
       -0.041652724 0.02569297 -0.038720455 -0.034978397
000010 cb cf 83 3b 6b 31 1d bd 32 3a 76 bc 45 8a 2c bd
       0.0040225736 -0.038377207 -0.015028523 -0.04212405
000020 32 88 dc 38 34 4d 50 3b d3 51 1e 3d 24 ea fe ba
       0.00010515786 0.0031784298 0.038652252 -0.0019448441
000030 a9 bd 63 3c 56 e1 17 bc 15 25 23 3d ab 00 cc bc
       0.013900199 -0.009270033 0.039830286 -0.024902662
000040 ef 57 0f bd 63 28 f1 bc 8d 8d 21 bd 13 56 60 bc
       -0.03499597 -0.029438203 -0.039441634 -0.013692397
000050 3d b4 b0 bb 12 b0 92 3c 59 fe 47 3c ae c0 ea bc
       -0.00539258 0.017906222 0.012206637 -0.02865633
000060 03 dc aa 3b 63 5b db bc 2b 7e 68 bc f8 8c c7 3c
       0.0052142157 -0.026776975 -0.014190237 0.024359211
000070 ca 8c a2 3c f3 c4 23 3d 5c c8 19 bc b2 1a 8c bc
       0.019842524 0.039982747 -0.009386148 -0.017102573
000080 d8 fc f2 3c 1e 34 8a 3c 5f a5 ad bc 3b ba 23 bd
       0.02966158 0.016870555 -0.02119702 -0.039972525
000090 e8 7e e7 3c 80 c8 9b bb 27 1a 8a 3b 58 22 5a 3b
       0.028258756 -0.004754126 0.0042145434 0.003328463
0000a0 d5 c4 20 3d ee 4e 29 3c fe 71 d6 bc 2d 3a 2d bd
       0.039250214 0.01033376 -0.026177403 -0.04229181
0000b0 16 9e cc 3b 43 ef 9a ba ff fe b7 3c 79 0f 12 3d
       0.0062444312 -0.0011820573 0.022460459 0.035659287
0000c0 3a 4e a4 3a a6 79 ae 3c
       0.001253552 0.02129824

weight f4 [2, 50, 1, 1, 1]
000000 09 ef 36 3d 43 37 ce 3e 53 77 bf 3e 74 83 fb be
       0.044661555 0.40276536 0.37395725 -0.49123728
000010 fb 9b 50 bf 11 7b 56 bf 5a 30 19 bf 86 25 55 3d
       -0.8148801 -0.83781534 -0.59839404 0.05203774
000020 f7 5e bb be 90 ba e1 bd 89 65 67 3c 0d 6f 9d 3e
       -0.3659589 -0.11021912 0.014123329 0.30748788
000030 c1 03 5b bf 86 8d d2 be 68 cb 53 3f e3 18 55 bf
       -0.85552603 -0.411236 0.8273225 -0.832411
000040 a0 1a 40 3f ad 5d 18 3f 71 32 47 bb f7 27 56 3e
       0.75040627 0.5951794 -0.0030395056 0.20913683
000050 14 d0 41 bf 81 92 30 bf b6 52 4f bd 65 94 5d bf
       -0.7570813 -0.6897355 -0.05061599 -0.8655456
000060 8c 59 1b bd 0f 5d 2c 3f 24 77 5d 3f 83 c5 93 3e
       -0.037927195 0.67329496 0.8650992 0.28861627
000070 e6 db 71 3f 89 55 98 3e 47 47 98 3e ac 97 8a 3e
       0.94476163 0.29752758 0.2974188 0.2706884
000080 e8 41 18 3f 63 ee 24 bf 36 c5 2f bf f2 55 27 bf
       0.59475565 -0.6442625 -0.68660295 -0.6536552
000090 e5 73 1f 3e d7 cf b1 3c 56 e4 c5 be 82 6b 2b bd
       0.15571554 0.021705551 -0.3865077 -0.041850574
0000a0 26 c0 1a 3f 93 be 37 3f da cd 88 3e 4c 5e be be
       0.60449445 0.7177517 0.26719552 -0.37181318
0000b0 01 58 07 bf 64 99 db bd 75 b7 7a 3f 59 ae 53 3f
       -0.5286866 -0.10722616 0.97936183 0.8268791
0000c0 f5 ef c9 3e 7e 1d 4e 3f 3a 70 9a 3e c1 49 b2 be
       0.39440885 0.8051375 0.30163747 -0.34821895
0000d0 74 7f 49 3e ab 88 5a bf c1 39 58 3f 78 de 4d bf
       0.19677526 -0.8536479 0.84463125 -0.80417585
0000e0 a4 8c 48 bf 28 ef 79 3e 4e 44 90 be 28 1b 8f 3b
       -0.783396 0.24407637 -0.28177112 0.004367251
0000f0 92 f8 54 3e c4 66 ef be 07 17 94 be 40 56 45 be
       0.20797947 -0.4675809 -0.28923818 -0.19271183
000100 c2 9a 4f bf 1c bf c7 3b b7 7c 42 3e a3 24 bb bd
       -0.81095517 0.00609578 0.18992887 -0.09137847
000110 cf 1f fc be 99 51 a3 3e 5a 83 76 bf 5a 6a 0b 3f
       -0.49243018 0.31898192 -0.96294177 0.54459155
000120 04 3d 92 3e 4e ca ed 3e 0f 78 58 bf 74 07 05 3f
       0.28562176 0.4644341 -0.84558195 0.519645
000130 8e 1f d5 3e 4c 51 38 3f 4d e2 73 3f f4 97 6b 3e
       0.41625637 0.7199905 0.9526718 0.23007184
000140 80 4a 57 be 4c 29 6e 3f 0d 82 bd bb e2 70 64 bf
       -0.21024513 0.93031764 -0.0057833255 -0.89234746
000150 9f 3f b4 3e 22 0e ea 3e 00 f3 de 3e 48 e6 31 3f
       0.3520479 0.45713907 0.4354477 0.69492006
000160 72 b5 dd be 6f 14 a6 be 72 89 fb 3e 03 31 1d bf
       -0.43302494 -0.32437465 0.491283 -0.6140291
000170 b2 e0 8e 3d b3 9c f1 be 20 eb ee 3e d3 60 e5 be
       0.06976451 -0.47189865 0.4666376 -0.44800434
000180 ca 16 eb 3e 4d 33 28 3f a3 ed 50 bd 66 39 14 3f
       0.45915824 0.6570328 -0.051007878 0.57900083

bias f4 [2]
000000 db 54 bc bd 48 af 7b 3d
       -0.091958724 0.061446458

weight f4 [5]
000000 00 00 80 3f 00 00 80 3f 00 00 80 3f 00 00 80 3f
       1.0 1.0 1.0 1.0
000010 00 00 80 3f
       1.0

bias f4 [5]
000000 00 00 00 00 00 00 00 00 00 00 00 00 00 00 00 00
       0.0 0.0 0.0 0.0
000010 00 00 00 00
       0.0

running_mean f4 [5]
000000 00 00 00 00 00 00 00 00 00 00 00 00 00 00 00 00
       0.0 0.0 0.0 0.0
000010 00 00 00 00
       0.0

running_var f4 [5]
000000 00 00 80 3f 00 00 80 3f 00 00 80 3f 00 00 80 3f
       1.0 1.0 1.0 1.0
000010 00 00 80 3f
       1.0

weight f4 [10]
000000 00 00 80 3f 00 00 80 3f 00 00 80 3f 00 00 80 3f
       1.0 1.0 1.0 1.0
000010 00 00 80 3f 00 00 80 3f 00 00 80 3f 00 00 80 3f
       1.0 1.0 1.0 1.0
000020 00 00 80 3f 00 00 80 3f
       1.0 1.0

bias f4 [10]
000000 00 00 00 00 00 00 00 00 00 00 00 00 00 00 00 00
       0.0 0.0 0.0 0.0
000010 00 00 00 00 00 00 00 00 00 00 00 00 00 00 00 00
       0.0 0.0 0.0 0.0
000020 00 00 00 00 00 00 00 00
       0.0 0.0

running_mean f4 [10]
000000 00 00 00 00 00 00 00 00 00 00 00 00 00 00 00 00
       0.0 0.0 0.0 0.0
000010 00 00 00 00 00 00 00 00 00 00 00 00 00 00 00 00
       0.0 0.0 0.0 0.0
000020 00 00 00 00 00 00 00 00
       0.0 0.0

running_var f4 [10]
000000 00 00 80 3f 00 00 80 3f 00 00 80 3f 00 00 80 3f
       1.0 1.0 1.0 1.0
000010 00 00 80 3f 00 00 80 3f 00 00 80 3f 00 00 80 3f
       1.0 1.0 1.0 1.0
000020 00 00 80 3f 00 00 80 3f
       1.0 1.0

weight f4 [20]
000000 00 00 80 3f 00 00 80 3f 00 00 80 3f 00 00 80 3f
       1.0 1.0 1.0 1.0
000010 00 00 80 3f 00 00 80 3f 00 00 80 3f 00 00 80 3f
       1.0 1.0 1.0 1.0
000020 00 00 80 3f 00 00 80 3f 00 00 80 3f 00 00 80 3f
       1.0 1.0 1.0 1.0
000030 00 00 80 3f 00 00 80 3f 00 00 80 3f 00 00 80 3f
       1.0 1.0 1.0 1.0
000040 00 00 80 3f 00 00 80 3f 00 00 80 3f 00 00 80 3f
       1.0 1.0 1.0 1.0

bias f4 [20]
000000 00 00 00 00 00 00 00 00 00 00 00 00 00 00 00 00
       0.0 0.0 0.0 0.0
000010 00 00 00 00 00 00 00 00 00 00 00 00 00 00 00 00
       0.0 0.0 0.0 0.0
000020 00 00 00 00 00 00 00 00 00 00 00 00 00 00 00 00
       0.0 0.0 0.0 0.0
000030 00 00 00 00 00 00 00 00 00 00 00 00 00 00 00 00
       0.0 0.0 0.0 0.0
000040 00 00 00 00 00 00 00 00 00 00 00 00 00 00 00 00
       0.0 0.0 0.0 0.0

running_mean f4 [20]
000000 00 00 00 00 00 00 00 00 00 00 00 00 00 00 00 00
       0.0 0.0 0.0 0.0
000010 00 00 00 00 00 00 00 00 00 00 00 00 00 00 00 00
       0.0 0.0 0.0 0.0
000020 00 00 00 00 00 00 00 00 00 00 00 00 00 00 00 00
       0.0 0.0 0.0 0.0
000030 00 00 00 00 00 00 00 00 00 00 00 00 00 00 00 00
       0.0 0.0 0.0 0.0
000040 00 00 00 00 00 00 00 00 00 00 00 00 00 00 00 00
       0.0 0.0 0.0 0.0

running_var f4 [20]
000000 00 00 80 3f 00 00 80 3f 00 00 80 3f 00 00 80 3f
       1.0 1.0 1.0 1.0
000010 00 00 80 3f 00 00 80 3f 00 00 80 3f 00 00 80 3f
       1.0 1.0 1.0 1.0
000020 00 00 80 3f 00 00 80 3f 00 00 80 3f 00 00 80 3f
       1.0 1.0 1.0 1.0
000030 00 00 80 3f 00 00 80 3f 00 00 80 3f 00 00 80 3f
       1.0 1.0 1.0 1.0
000040 00 00 80 3f 00 00 80 3f 00 00 80 3f 00 00 80 3f
       1.0 1.0 1.0 1.0

weight f4 [50]
000000 00 00 80 3f 00 00 80 3f 00 00 80 3f 00 00 80 3f
       1.0 1.0 1.0 1.0
000010 00 00 80 3f 00 00 80 3f 00 00 80 3f 00 00 80 3f
       1.0 1.0 1.0 1.0
000020 00 00 80 3f 00 00 80 3f 00 00 80 3f 00 00 80 3f
       1.0 1.0 1.0 1.0
000030 00 00 80 3f 00 00 80 3f 00 00 80 3f 00 00 80 3f
       1.0 1.0 1.0 1.0
000040 00 00 80 3f 00 00 80 3f 00 00 80 3f 00 00 80 3f
       1.0 1.0 1.0 1.0
000050 00 00 80 3f 00 00 80 3f 00 00 80 3f 00 00 80 3f
       1.0 1.0 1.0 1.0
000060 00 00 80 3f 00 00 80 3f 00 00 80 3f 00 00 80 3f
       1.0 1.0 1.0 1.0
000070 00 00 80 3f 00 00 80 3f 00 00 80 3f 00 00 80 3f
       1.0 1.0 1.0 1.0
000080 00 00 80 3f 00 00 80 3f 00 00 80 3f 00 00 80 3f
       1.0 1.0 1.0 1.0
000090 00 00 80 3f 00 00 80 3f 00 00 80 3f 00 00 80 3f
       1.0 1.0 1.0 1.0
0000a0 00 00 80 3f 00 00 80 3f 00 00 80 3f 00 00 80 3f
       1.0 1.0 1.0 1.0
0000b0 00 00 80 3f 00 00 80 3f 00 00 80 3f 00 00 80 3f
       1.0 1.0 1.0 1.0
0000c0 00 00 80 3f 00 00 80 3f
       1.0 1.0

bias f4 [50]
000000 00 00 00 00 00 00 00 00 00 00 00 00 00 00 00 00
       0.0 0.0 0.0 0.0
000010 00 00 00 00 00 00 00 00 00 00 00 00 00 00 00 00
       0.0 0.0 0.0 0.0
000020 00 00 00 00 00 00 00 00 00 00 00 00 00 00 00 00
       0.0 0.0 0.0 0.0
000030 00 00 00 00 00 00 00 00 00 00 00 00 00 00 00 00
       0.0 0.0 0.0 0.0
000040 00 00 00 00 00 00 00 00 00 00 00 00 00 00 00 00
       0.0 0.0 0.0 0.0
000050 00 00 00 00 00 00 00 00 00 00 00 00 00 00 00 00
       0.0 0.0 0.0 0.0
000060 00 00 00 00 00 00 00 00 00 00 00 00 00 00 00 00
       0.0 0.0 0.0 0.0
000070 00 00 00 00 00 00 00 00 00 00 00 00 00 00 00 00
       0.0 0.0 0.0 0.0
000080 00 00 00 00 00 00 00 00 00 00 00 00 00 00 00 00
       0.0 0.0 0.0 0.0
000090 00 00 00 00 00 00 00 00 00 00 00 00 00 00 00 00
       0.0 0.0 0.0 0.0
0000a0 00 00 00 00 00 00 00 00 00 00 00 00 00 00 00 00
       0.0 0.0 0.0 0.0
0000b0 00 00 00 00 00 00 00 00 00 00 00 00 00 00 00 00
       0.0 0.0 0.0 0.0
0000c0 00 00 00 00 00 00 00 00
       0.0 0.0

running_mean f4 [50]
000000 00 00 00 00 00 00 00 00 00 00 00 00 00 00 00 00
       0.0 0.0 0.0 0.0
000010 00 00 00 00 00 00 00 00 00 00 00 00 00 00 00 00
       0.0 0.0 0.0 0.0
000020 00 00 00 00 00 00 00 00 00 00 00 00 00 00 00 00
       0.0 0.0 0.0 0.0
000030 00 00 00 00 00 00 00 00 00 00 00 00 00 00 00 00
       0.0 0.0 0.0 0.0
000040 00 00 00 00 00 00 00 00 00 00 00 00 00 00 00 00
       0.0 0.0 0.0 0.0
000050 00 00 00 00 00 00 00 00 00 00 00 00 00 00 00 00
       0.0 0.0 0.0 0.0
000060 00 00 00 00 00 00 00 00 00 00 00 00 00 00 00 00
       0.0 0.0 0.0 0.0
000070 00 00 00 00 00 00 00 00 00 00 00 00 00 00 00 00
       0.0 0.0 0.0 0.0
000080 00 00 00 00 00 00 00 00 00 00 00 00 00 00 00 00
       0.0 0.0 0.0 0.0
000090 00 00 00 00 00 00 00 00 00 00 00 00 00 00 00 00
       0.0 0.0 0.0 0.0
0000a0 00 00 00 00 00 00 00 00 00 00 00 00 00 00 00 00
       0.0 0.0 0.0 0.0
0000b0 00 00 00 00 00 00 00 00 00 00 00 00 00 00 00 00
       0.0 0.0 0.0 0.0
0000c0 00 00 00 00 00 00 00 00
       0.0 0.0

running_var f4 [50]
000000 00 00 80 3f 00 00 80 3f 00 00 80 3f 00 00 80 3f
       1.0 1.0 1.0 1.0
000010 00 00 80 3f 00 00 80 3f 00 00 80 3f 00 00 80 3f
       1.0 1.0 1.0 1.0
000020 00 00 80 3f 00 00 80 3f 00 00 80 3f 00 00 80 3f
       1.0 1.0 1.0 1.0
000030 00 00 80 3f 00 00 80 3f 00 00 80 3f 00 00 80 3f
       1.0 1.0 1.0 1.0
000040 00 00 80 3f 00 00 80 3f 00 00 80 3f 00 00 80 3f
       1.0 1.0 1.0 1.0
000050 00 00 80 3f 00 00 80 3f 00 00 80 3f 00 00 80 3f
       1.0 1.0 1.0 1.0
000060 00 00 80 3f 00 00 80 3f 00 00 80 3f 00 00 80 3f
       1.0 1.0 1.0 1.0
000070 00 00 80 3f 00 00 80 3f 00 00 80 3f 00 00 80 3f
       1.0 1.0 1.0 1.0
000080 00 00 80 3f 00 00 80 3f 00 00 80 3f 00 00 80 3f
       1.0 1.0 1.0 1.0
000090 00 00 80 3f 00 00 80 3f 00 00 80 3f 00 00 80 3f
       1.0 1.0 1.0 1.0
0000a0 00 00 80 3f 00 00 80 3f 00 00 80 3f 00 00 80 3f
       1.0 1.0 1.0 1.0
0000b0 00 00 80 3f 00 00 80 3f 00 00 80 3f 00 00 80 3f
       1.0 1.0 1.0 1.0
0000c0 00 00 80 3f 00 00 80 3f
       1.0 1.0
