models/deepvesselnet_noisy1.model (torch_old, 243978 bytes, 26 tensors)

weight f4 [5, 1, 3, 3, 3]
0	0x3d50f4f4	0.051014856
1	0x3edf272c	0.43584573
2	0x3e811724	0.25212967
3	0x3d995676	0.07487194
4	0xbbea98aa	-0.0071593123
5	0x3ddb6eb5	0.10714475
6	0xbd32f9b1	-0.043695156
7	0xbe02713b	-0.12738506
8	0xbe498041	-0.19677831
9	0x3e5fa231	0.21839215
10	0x3e85c535	0.2612702
11	0x3ee936e0	0.4554968
12	0x3dec2b6a	0.11531718
13	0x3df70c3c	0.120628804
14	0x3e55571b	0.2083401
15	0xbe4d3f52	-0.20043686
16	0xbd5ec6f0	-0.05438894
17	0xbd0a75ec	-0.033803865
18	0x3d783e07	0.06060603
19	0x3e4c558f	0.19954513
20	0x3ba6d240	0.0050909817
21	0xbd66a901	-0.05631352
22	0xbe02e1f3	-0.12781505
23	0x3d0f5da3	0.03500141
24	0xbe58e3e1	-0.21180679
25	0xbdebf33b	-0.11521002
26	0xbe38026b	-0.17969672
27	0xbcb17381	-0.021661522
28	0x3b3e7024	0.002905854
29	0xbd840885	-0.064469375
30	0xbde5df04	-0.112241775
31	0x3df27e11	0.118404515
32	0xbe27e4b0	-0.16395831
33	0xbe187967	-0.14890061
34	0x3e268339	0.16260995
35	0xbad77de6	-0.0016440719
36	0xbe117c06	-0.14207467
37	0x3e28ba51	0.16477324
38	0xbc8b7f62	-0.017028514
39	0x3d758013	0.059936594
40	0xbdbd8fe2	-0.09255959
41	0x3aedacb3	0.0018133133
42	0xbd50d636	-0.050985537
43	0x3e94829a	0.2900589
44	0x3d53f9fb	0.05175207
45	0x3d83a929	0.06428749
46	0x3d92fb50	0.0717684
47	0xbe566c4d	-0.20939751
48	0xbe574fcb	-0.21026532
49	0x3d99bdd2	0.075069085
50	0x3d4597f8	0.04824063
51	0xbdaded73	-0.084925555
52	0x3e785ecc	0.24254912
53	0x3e31a79c	0.17349094
54	0x3d8e7a89	0.069569655
55	0x3e2ee501	0.17079546
56	0x3e73453a	0.23756877
57	0xbc39a5cf	-0.011331036
58	0x3cc5e86a	0.024158675
59	0xbdba0671	-0.0908326
60	0x3e3099f5	0.1724623
61	0xbdca5be7	-0.0988081
62	0xbc8db1da	-0.01729672
63	0xbdb7172f	-0.08939969
64	0xbe92ae3d	-0.28648558
65	0xbdec6320	-0.11542344
66	0x3ccdea0b	0.025136014
67	0xbe5e05f5	-0.2168196
68	0xbde64fe8	-0.1124571
69	0x3d3eb574	0.046559766
70	0xbe37e7b4	-0.17959481
71	0xbbb9e682	-0.0056732306
72	0xbd1e4086	-0.038635753
73	0xbd540e87	-0.051771667
74	0xbb964d34	-0.00458684
75	0x3d808c57	0.06276768
76	0xbe13ff6b	-0.14452903
77	0x3dad2d7e	0.084559426
78	0x3e3bb305	0.1833001
79	0xbe00e17b	-0.12586014
80	0xbd991fd4	-0.07476774
81	0x3df9bbd2	0.12194027
82	0xbe4dfa74	-0.20115072
83	0xbe1fd87a	-0.15609923
84	0x3e727c33	0.2368019
85	0x3d13a199	0.036042783
86	0x3ddc4c02	0.10756685
87	0x3e217d9c	0.15770572
88	0xbe4e4a90	-0.20145631
89	0x3d8ad258	0.06778401
90	0x3e01cc0d	0.12675495
91	0xbe192a50	-0.14957547
92	0x3c5d61ba	0.013512069
93	0x3e0839cf	0.13303302
94	0xbe88201a	-0.26586992
95	0x3d848756	0.06471126
96	0xbd41b78c	-0.047294185
97	0xbe3804eb	-0.17970626
98	0xbe029d4c	-0.12755316
99	0x3dda8a7a	0.106709436
100	0xbe342036	-0.17590412
101	0xbdfcca22	-0.12343241
102	0x3db15be9	0.086601086
103	0xbd81a589	-0.063304015
104	0x3d9a8b5c	0.07546112
105	0xbbe3f70f	-0.006956942
106	0x3d9be9c4	0.07612947
107	0x3c18117a	0.0092815105
108	0xbe13dc8c	-0.144396
109	0xbcde76b4	-0.027156211
110	0x3c54db12	0.012991684
111	0x3caa5f9b	0.020797541
112	0x3cf9a28c	0.030473016
113	0x3d327a83	0.043573868
114	0xbe02810b	-0.12744538
115	0x3d519de6	0.051175974
116	0xbdf20d0b	-0.11818894
117	0x3d8c0e40	0.068386555
118	0x3d1b2a80	0.037882328
119	0x3c07ef36	0.008296778
120	0xbe37f294	-0.1796363
121	0xbd6b0338	-0.057376117
122	0xbe18d408	-0.14924634
123	0xbe73299f	-0.23746346
124	0xbe13b019	-0.14422645
125	0x3ddab0ff	0.106782906
126	0x3c46e158	0.012138687
127	0xbd927af1	-0.071523555
128	0x3b46a57e	0.0030311043
129	0xbd474ed4	-0.04865916
130	0xbe658a75	-0.22416098
131	0x3e0b9b71	0.13633515
132	0x3e26c6c9	0.16286768
133	0xbe1718b8	-0.14755523
134	0x3dda758c	0.106669515

bias f4 [5]
0	0x3e163479	0.14668454
1	0x3d8db716	0.069196865
2	0x3e2fdf05	0.17174919
3	0xbe22f1ba	-0.15912524
4	0x3e2bcfbd	0.16778465

weight f4 [10, 5, 5, 5, 5]
0	0xbd987168	-0.074435055
1	0xbcd38f12	-0.025825057
2	0xbdd8b602	-0.1058159
3	0xbc4abc7f	-0.0123740425
4	0x3c9f374b	0.019435545
5	0x3d76ba1e	0.06023609
6	0x3d7cf0a4	0.06175293
7	0xbd234dcb	-0.03986911
8	0x3d4df789	0.050284896
9	0x3d6ca957	0.057778683
10	0x3ad5ca3f	0.0016310884
11	0x3d3717e0	0.044700503
12	0x3d5efde1	0.054441337
13	0x3d4375f5	0.047719914
14	0x3d145103	0.03621007
15	0xbc960c93	-0.018316543
16	0xbb989219	-0.004656088
17	0x3cbc0033	0.022949314
18	0x3d8a97dd	0.06767247
19	0x3d6a69e6	0.0572299
20	0xbcd38d5c	-0.025824241
21	0x3ccb8c99	0.024847316
22	0x3ccc53d3	0.024942314
23	0x3d740d45	0.059582967
24	0xbdf00200	-0.117191315
25	0xbd8d3e8b	-0.06896695
26	0xbd929138	-0.071566045
27	0x3d4da7a2	0.050208695
28	0xbd843a30	-0.06456411
29	0x3d7792b7	0.060442653
30	0x3d1e80fe	0.038697235
31	0x3dd72048	0.10504204
32	0xbc8b598b	-0.01701047
33	0xbc57fdff	-0.013183116
34	0x3bad6352	0.005291381
35	0x3d81df01	0.06341363
36	0x3db4b492	0.088235036
37	0x3d8970ec	0.06710991
38	0x3cfb1781	0.030650856
39	0x3dc1478a	0.09437473
40	0x3d6e825e	0.058229797
41	0x3de7cca3	0.11318328
42	0xbc0d6b62	-0.008631559
43	0x3dcf4528	0.101206124
44	0x3dba10b3	0.090852164
45	0xbdf55359	-0.11978788
46	0x3beaaba5	0.007161575
47	0x3d9e9fd3	0.07745328
48	0x3dd49843	0.10380604
49	0x3d9b4b36	0.07582705
50	0xbe089b1c	-0.1334042
51	0xbd98d802	-0.07463075
52	0xbd541b24	-0.051783696
53	0xbd55882e	-0.052131824
54	0xbdc96e26	-0.09835462
55	0xbde12285	-0.10992912
56	0x3d55cc25	0.05219664
57	0xbd419dd5	-0.04726966
58	0x3df91511	0.12162221
59	0x3d772e01	0.060346607
60	0xbd8f6836	-0.070022985
61	0xbcfc1341	-0.0307709
62	0x3e079c43	0.13243203
63	0x3d2a007f	0.04150438
64	0xbd36d3b2	-0.044635482
65	0x3d01948c	0.031635806
66	0x3d9cc384	0.07654479
67	0x3db3bd54	0.08776346
68	0x3d079188	0.033097774
69	0xbbd9d016	-0.00664712
70	0xbda209d5	-0.079120316
71	0x3c5dc249	0.013535091
72	0xbbfb524c	-0.0076697227
73	0x3e02e20a	0.1278154
74	0x3daa04c9	0.08301694
75	0xbcdd4525	-0.02701051
76	0xba8e2e9f	-0.0010847634
77	0xbde6faf9	-0.11278338
78	0xbd9b7345	-0.07590345
79	0x3d129fa5	0.03579678
80	0xbceb3429	-0.028711395
81	0x3cb1fbe1	0.02172655
82	0xbd676354	-0.05649121
83	0xbba60479	-0.005066451
84	0x3d5f7ea6	0.05456414
85	0x3a3d321f	0.00072172465
86	0xbcd609f6	-0.026127797
87	0x3d621ea9	0.05520502
88	0x3da26e4e	0.07931195
89	0xbd2339a6	-0.0398499
90	0xbbb283ee	-0.005447856
91	0x3da154d8	0.07877511
92	0xbce102cf	-0.02746716
93	0x3dd06d61	0.10177112
94	0xbd591679	-0.052999947
95	0xbc9208a2	-0.017826382
96	0xba02d140	-0.0004990287
97	0x3d6fee14	0.05857666
98	0x3d8a0762	0.067396894
99	0x3d8f1c39	0.06987805
100	0xbdf12a1e	-0.11775611
101	0xbd049078	-0.03236434
102	0x3c530128	0.012878694
103	0xbb73e29d	-0.003721393
104	0xbd3f7815	-0.04674538
105	0xbda6a2cb	-0.08136519
106	0x3d205013	0.039138865
107	0xbda4d944	-0.08049253
108	0xbd4d456c	-0.050115034
109	0xbd91fb26	-0.07127981
110	0xbceb81fc	-0.028748505
111	0xbd189c7a	-0.037258603
112	0xbd366edf	-0.04453933
113	0x3d6d210a	0.057892837
114	0x3ce45016	0.02787022
115	0xbd848530	-0.06470716
116	0x3c3833c9	0.011242815
117	0xbc53ca7d	-0.012926695
118	0xbdb4f327	-0.0883544
119	0xbd77092f	-0.060311493
120	0x3ae46e25	0.0017427845
121	0x3cd5f4b1	0.026117655
122	0xbc3e0082	-0.011596801
123	0xbd0f2b33	-0.034953307
124	0xbd804a7e	-0.06264208
125	0x3bd99fb5	0.006641353
126	0x3d2f0272	0.04272694
127	0xbd3afbbd	-0.045650233
128	0xbb5a1eaf	-0.003328245
129	0xbd8a83a0	-0.06763387
130	0xbd231023	-0.03981031
131	0x3d93a6ab	0.07209524
132	0x3a247bb4	0.0006274537
133	0x3d1f183e	0.03884148
134	0x3d20f9aa	0.0393006
135	0x3d1d18d3	0.038353752
136	0xbd831111	-0.063997395
137	0x3dd69fdb	0.10479709
138	0x3de92375	0.11383716
139	0xbda703a3	-0.081549905
140	0xbbbc3a86	-0.005744281
141	0xbd10fdf9	-0.035398457
142	0x3d919bef	0.0710982
143	0x3d826ed1	0.06368793
144	0x3d79972d	0.060935188
145	0x3d4a3a93	0.049372267
146	0xbd449323	-0.047991883
147	0xbd03b155	-0.03215154
148	0x3d98a6a6	0.07453661
149	0xbd8ba31a	-0.068182185
150	0x3d2af72b	0.041739624
151	0x3dbbec17	0.0917589
152	0x3d3ee61d	0.046606172
153	0x3d148743	0.036261808
154	0x3d3d6768	0.046241194
155	0x3d1350c9	0.035965715
156	0x3d8aa1c1	0.06769133
157	0x3d6d3199	0.057908628
158	0x3dc1f20e	0.094699964
159	0x3d8cb976	0.06871311
160	0x3dd328fb	0.10310551
161	0xbd3673db	-0.044544082
162	0xbd2408bd	-0.040047396
163	0x3dc4903b	0.09597822
164	0x3d8da575	0.06916324
165	0x3d26327a	0.040575482
166	0x3d40a34b	0.04703073
167	0x3bc169b7	0.005902495
168	0xbd375448	-0.04475811
169	0x3d0a6263	0.033785235
170	0xbd77f6b1	-0.060537998
171	0xbd8c1f4e	-0.068419084
172	0x3c86758c	0.016413473
173	0x3bc564bf	0.0060239728
174	0x3cd0f47b	0.025507202
175	0x3d0f90c9	0.035050187
176	0x3d9e393c	0.0772576
177	0x3ddbe1d6	0.10736434
178	0x3d6ce135	0.05783196
179	0xbd9557a0	-0.07292104
180	0x3d8d6718	0.06904429
181	0x3da57f91	0.08080972
182	0x3db25429	0.087074585
183	0x3d9ec180	0.07751751
184	0x3da1a58d	0.078929044
185	0x3d6f0648	0.0583556
186	0x3b7c5b33	0.0038506507
187	0xbccc0f2b	-0.024909576
188	0x3ce32097	0.027725501
189	0xbd8296ff	-0.063764565
190	0xbd8b448a	-0.06800182
191	0x3db91164	0.0903652
192	0x3c18a071	0.009315596
193	0xbd0f2884	-0.034950748
194	0x3db2bc3e	0.087273106
195	0x3d6d0f35	0.05787583
196	0xbd360164	-0.04443492
197	0x3d46c2f6	0.048525773
198	0xbd25a7b5	-0.04044314
199	0xbd048be5	-0.032359976
200	0x3d89e990	0.06734002
201	0x3cde85fb	0.027163496
202	0x3d25caac	0.040476486
203	0xbd7fa185	-0.062409896
204	0xbce79eee	-0.028274026
205	0x3cd1f048	0.02562727
206	0xbd009fcf	-0.031402405
207	0xbd18a788	-0.037269145
208	0x3db49eea	0.08819373
209	0xbb9f685c	-0.0048647355
210	0x3d914be7	0.07094555
211	0xbc9bff68	-0.019042686
212	0x3d007a1f	0.031366464
213	0x3d98de48	0.07464272
214	0x3d6a8a22	0.05726064
215	0x3dae1d03	0.08501627
216	0x3c12ad86	0.008952504
217	0xbc4320c2	-0.011909666
218	0x3db58f9d	0.08865283
219	0xbd7fb36e	-0.062426977
220	0xbd96531b	-0.0734007
221	0x3d9a8701	0.07545281
222	0xbd2283aa	-0.039676346
223	0xbd099796	-0.03359183
224	0x3db43ab6	0.08800261
225	0x3d7f2d8c	0.062299296
226	0xbda10193	-0.078616284
227	0xbda6aa67	-0.081379704
228	0x3d77f4bd	0.060536135
229	0x3d91fc6b	0.07128223
230	0xbd6456c3	-0.055746805
231	0xbda50458	-0.08057469
232	0x3d70b9b3	0.058770847
233	0x3bfdad1c	0.0077415835
234	0xbdb32399	-0.08747024
235	0x3926bb0e	0.00015900677
236	0xbdbb45f1	-0.091442
237	0xbc886bde	-0.016652998
238	0xbcda855c	-0.026674919
239	0x3d45b901	0.048272137
240	0xbc2f1397	-0.010685823
241	0x3d0419b9	0.032251094
242	0xbd91074c	-0.0708147
243	0x3d1432cc	0.036181256
244	0x3d95fd13	0.07323661
245	0x3c990780	0.018680334
246	0x3cc0626d	0.023484433
247	0x3d0e833f	0.034793135
248	0x3aaf8eb6	0.0013393972
249	0xbd3cb76c	-0.046073362
250	0xbd2c6f51	-0.042098347
251	0xbd1a10f2	-0.037613817
252	0x3d8021b0	0.062564254
253	0x3d8376bf	0.064191334
254	0x3dc23657	0.09483021
255	0xbd87b55c	-0.066263884

bias f4 [10]
0	0x3b37f91f	0.0028072072
1	0x3cd1b06e	0.025596824
2	0x3ce76544	0.02824653
3	0x3b1582a5	0.0022813466
4	0x3be9790c	0.0071250256
5	0xbd15ceea	-0.03657428
6	0x3cc435cc	0.023951434
7	0x3ca7f71f	0.020503579
8	0xbcf1a28a	-0.02949645
9	0xbd09060b	-0.03345303

weight f4 [20, 10, 5, 5, 5]
0	0x3d7d544b	0.061847966
1	0xbd86cf7d	-0.06582544
2	0xbd3deacc	-0.046366498
3	0x3d41fbc1	0.04735923
4	0xbd958870	-0.07301414
5	0x3cf33900	0.029690266
6	0x3d79817e	0.06091451
7	0x3d9c204e	0.07623349
8	0x3c3c04c2	0.011475744
9	0x3d3c2a0f	0.045938548
10	0xbd155495	-0.036457617
11	0xbd4bb86b	-0.04973642
12	0x3d9b524d	0.07584057
13	0x3c217c2c	0.009856265
14	0x3da7bb49	0.08190019
15	0x3c3f4f31	0.011676596
16	0x3d814192	0.06311335
17	0x3db0875e	0.08619569
18	0xbd720144	-0.05908324
19	0xbda339e3	-0.079700254
20	0xbce6a98f	-0.028157024
21	0x3d53842c	0.05163972
22	0x3bdf6543	0.0068174913
23	0xbb346a5b	-0.0027529213
24	0x3be26982	0.00690955
25	0x3dca7d18	0.09887141
26	0x3dc23504	0.09482768
27	0x3c19501b	0.009357478
28	0x3c0a6449	0.008446761
29	0xbd92c7e3	-0.071670316
30	0x3cc3bd97	0.023894114
31	0xbd75dfd3	-0.06002791
32	0x3b493f93	0.003070806
33	0x3c107d17	0.008818886
34	0x3d20c337	0.03924867
35	0xbd715c2d	-0.058925796
36	0x3d9d469e	0.07679485
37	0xbd434157	-0.047669735
38	0x3dbfcfcf	0.09365808
39	0x3dbe16b6	0.092816755
40	0xbd8cb948	-0.06871277
41	0x3b085920	0.0020805076
42	0x3db1552c	0.08658823
43	0x3d11b979	0.03557727
44	0x3d4814c8	0.048847944
45	0x3d0557b5	0.032554347
46	0x3dc3e648	0.09565407
47	0x3cad1941	0.021130206
48	0x3b129fd6	0.0022373102
49	0xbd0f354e	-0.034962945
50	0x3d462bf2	0.048381753
51	0x3cbdb0e0	0.02315563
52	0x3c87a58f	0.016558437
53	0xbd8f8cc8	-0.07009274
54	0x3d18f52b	0.037343185
55	0xbd6ac4f0	-0.05731672
56	0x3d85de76	0.06536572
57	0xbd48c90c	-0.04901986
58	0x3d1eb8f7	0.038750615
59	0x3d5174e7	0.051136877
60	0xbd2e3557	-0.042531338
61	0x3d6dcf3d	0.058058966
62	0x3d1dacd4	0.0384949
63	0xbd8df2d8	-0.069310844
64	0xbc8c2465	-0.017107198
65	0xbd81c945	-0.06337217
66	0xbcaf8f2d	-0.021430576
67	0xbd0e5dcf	-0.03475743
68	0x3d9669e2	0.07344414
69	0x3db7df08	0.08978087
70	0x3d396235	0.045259673
71	0x3bb0bb74	0.00539344
72	0x3db9db68	0.090750515
73	0xbd2a7e4d	-0.041624356
74	0x3d0aa0f6	0.03384491
75	0x3c8ddb53	0.017316496
76	0xbd815c9c	-0.06316492
77	0xbc4a1f87	-0.012336618
78	0xbd844b9e	-0.06459735
79	0xbd372afb	-0.044718724
80	0x3d0ae3b3	0.033908557
81	0x3daec982	0.08534528
82	0x3d941149	0.072298594
83	0xba4e4a78	-0.0007869373
84	0xbba2784e	-0.004958189
85	0xbbf7d88d	-0.0075636567
86	0x3c2f8b96	0.010714432
87	0xbca740cd	-0.020416642
88	0xbcaab66b	-0.020838937
89	0x3c4785c0	0.012177885
90	0x3ccc3062	0.024925414
91	0x3cb34910	0.021885425
92	0xbca7a1a5	-0.02046282
93	0x3d831a58	0.06401509
94	0xba36d4a7	-0.00069744367
95	0xbabb923c	-0.0014310549
96	0x3d1c45df	0.03815257
97	0xbd0165b9	-0.03159115
98	0x3d366cdc	0.04453741
99	0xbd331898	-0.043724626
100	0xbd4e1126	-0.050309323
101	0x3c894e37	0.016760929
102	0xbc3c12cf	-0.011479094
103	0x3d3614cc	0.044453427
104	0x3cebfa86	0.028805982
105	0x3d719a97	0.05898532
106	0x3d465e8c	0.04843001
107	0x3d0fa477	0.035068955
108	0x3bf6f1e3	0.0075361594
109	0xbd572584	-0.052526012
110	0x3ab0a2db	0.0013476269
111	0xbd85a2d4	-0.065251976
112	0x3db70011	0.089355595
113	0xbc7143a3	-0.0147255985
114	0x3da0587f	0.07829379
115	0xbd24f7c3	-0.040275346
116	0x3d7d0c33	0.061779212
117	0xbd7f8e01	-0.062391285
118	0x3d111be9	0.035427008
119	0x3d797689	0.06090406
120	0x3d34b378	0.044116467
121	0xbbd921f2	-0.006626361
122	0xbc4cef5b	-0.012508239
123	0x3ceab543	0.028650885
124	0xbd95cb56	-0.07314174
125	0x3d51bf8d	0.051208068
126	0xbd00121d	-0.031267274
127	0x3d24519b	0.040116888
128	0xbc0d9b7a	-0.0086430255
129	0x3c9a2bb8	0.018819675
130	0xbd526ab1	-0.05137128
131	0xbd82c8fd	-0.06385992
132	0x3da1dbae	0.07903229
133	0x3da01c73	0.07817926
134	0x3d833f0b	0.06408509
135	0x3d61d34a	0.05513314
136	0xbce71a48	-0.028210774
137	0x3da3ae67	0.07992249
138	0xbd85d394	-0.06534496
139	0xbc411d1f	-0.011786728
140	0x3d1fa0dd	0.03897177
141	0x3d9a1e2a	0.075252846
142	0xbd97daf6	-0.0741481
143	0xbd987730	-0.07444608
144	0x3da040b0	0.07824838
145	0x3d6a91a8	0.057267815
146	0x3d7743a1	0.06036723
147	0xbd8027c0	-0.06257582
148	0x3d7efae8	0.062251
149	0x3d408305	0.04699995
150	0xbd723c8b	-0.05913977
151	0xbda26ac3	-0.079305194
152	0xbd88a5c2	-0.06672241
153	0x3da1c78d	0.078993894
154	0xbd118c7b	-0.035534363
155	0xbd39ab0c	-0.04532914
156	0x3d4ab4e5	0.04948892
157	0xbd454336	-0.0481598
158	0xbcef159d	-0.02918511
159	0x3d4aae95	0.0494829
160	0x3da2def9	0.07952685
161	0xbd6348ad	-0.05548923
162	0x3d844a01	0.064594276
163	0xbd808e5a	-0.062771514
164	0xbdab0b16	-0.08351724
165	0xbcd2c157	-0.025726957
166	0xbd83f4de	-0.06443189
167	0x3cd390ec	0.02582594
168	0xbdab4630	-0.083629966
169	0xbc5a12ed	-0.013310176
170	0x3c6872a2	0.014187487
171	0x3d01891d	0.031624902
172	0xbd094f36	-0.033522807
173	0x3dc7da7e	0.09758471
174	0xbd59377b	-0.053031426
175	0x3c6c7c34	0.014433909
176	0xbcf2ed79	-0.029654251
177	0xbae677cd	-0.0017583311
178	0xbd9c5d8d	-0.07635031
179	0x3d6a2313	0.057162356
180	0x3d955dd5	0.07293288
181	0x3c7edc88	0.015555508
182	0x3d71d0f3	0.05903716
183	0x3d1a9138	0.037736148
184	0xbc4a938b	-0.012364279
185	0x3d21406e	0.039368086
186	0x3d66207f	0.056183334
187	0x3a851d1a	0.0010155768
188	0xbc7141fd	-0.0147252055
189	0xbd92d8e2	-0.07170273
190	0xbb6912d6	-0.0035564206
191	0xbd87d572	-0.06632508
192	0xbd9b5f28	-0.07586509
193	0x3d353d58	0.044247955
194	0x3da402a4	0.08008316
195	0xbd01321b	-0.031541925
196	0xbd53f6c3	-0.051749002
197	0x3da4d20e	0.08047877
198	0x3d6c0ed2	0.05763132
199	0x3cff941c	0.031198554
200	0xbdaacb14	-0.08339515
201	0xbd294456	-0.041324936
202	0xbd447c14	-0.047969893
203	0xbcefbf41	-0.029266002
204	0xbd912245	-0.070866145
205	0x3d350b33	0.044200134
206	0x3cd0b275	0.02547572
207	0xbd850171	-0.064944156
208	0x3c9487a9	0.018131094
209	0x3d8bd07b	0.06826874
210	0x3d0c7500	0.034291267
211	0x3d6bbfb5	0.057555873
212	0xbdab8797	-0.08375471
213	0xbd1364b0	-0.035984695
214	0xbcb9a2fa	-0.022660721
215	0xbd74f490	-0.059803545
216	0x3c960d5c	0.018316917
217	0xbdb96f18	-0.090543926
218	0xbc5492f7	-0.012974492
219	0x3d35d38d	0.044391204
220	0xbd8be384	-0.068305045
221	0xbd7fe62f	-0.06247538
222	0xbc1cfc03	-0.009581569
223	0xbc59145b	-0.013249482
224	0xbd503861	-0.050835017
225	0x3c2246b8	0.009904556
226	0x3d4b9367	0.04970112
227	0xbda24797	-0.07923811
228	0xbdae83ff	-0.0852127
229	0xbd9f58ef	-0.077806346
230	0x3d6e2a3e	0.058145754
231	0x3cc7fca9	0.02441247
232	0x3da1b25a	0.07895346
233	0x3d6171d4	0.055040196
234	0xbcce76de	-0.025203165
235	0x3d175757	0.03694853
236	0xbd5e2217	-0.05423173
237	0xbd58b293	-0.052904677
238	0xbd2fe70f	-0.042944964
239	0xbd4a0e83	-0.049330246
240	0x3cf0d31c	0.02939754
241	0xbdb2a2cb	-0.087224565
242	0x3d85507e	0.06509493
243	0x3d4aca92	0.049509592
244	0xbdc3deb1	-0.095639594
245	0x3d53e5f7	0.051732983
246	0xba076fd3	-0.00051665044
247	0x3c8a3157	0.01686923
248	0xbd7b241a	-0.061313726
249	0x3d8a282f	0.06745946
250	0x3d804030	0.06262243
251	0xbc347ee8	-0.011016585
252	0x3d62811b	0.055298906
253	0xbce6b84f	-0.028164057
254	0xbd4ed276	-0.05049368
255	0xba4c1f96	-0.0007786689

bias f4 [20]
0	0x3cb5fef0	0.02221629
1	0x3c50a657	0.012734971
2	0xbc20466c	-0.009782415
3	0xbcac53d8	-0.021036074
4	0xbbd9cb40	-0.0066465437
5	0x3bd9457d	0.006630598
6	0x3cbdc606	0.023165714
7	0xbbf00aeb	-0.0073255203
8	0xbc76b860	-0.015058607
9	0x3c1b0dbc	0.009463724
10	0xbca73b80	-0.020414114
11	0xbcd3b811	-0.025844606
12	0x3c1f6863	0.009729478
13	0xbc78e77c	-0.015191909
14	0x3c55f932	0.013059901
15	0xbca1d26e	-0.019753661
16	0x3c9887cf	0.018619446
17	0xbce206ed	-0.027591193
18	0xbc05fb12	-0.008177536
19	0xbcc1bbe4	-0.023649164

weight f4 [50, 20, 3, 3, 3]
0	0x3d3f6776	0.046729527
1	0x3d2062ba	0.039156653
2	0x3e341a11	0.17588069
3	0x3ce1112f	0.027474014
4	0xbb3aa6cb	-0.0028480764
5	0x3e3a8252	0.18213776
6	0xbcc6f956	-0.024288815
7	0xbdea916b	-0.114535175
8	0x3e05d7df	0.1307063
9	0xbd8a455d	-0.06751511
10	0x3cb7c589	0.02243306
11	0x3d516732	0.051123805
12	0xbe0ff13b	-0.14056866
13	0x3e439bef	0.19102453
14	0xbd2ff6f7	-0.042960133
15	0xbd4b544b	-0.049640935
16	0xbe136ccb	-0.1439697
17	0xbda9f815	-0.08299271
18	0xbcc1ce76	-0.023658019
19	0x3dfbf16f	0.12301909
20	0x3dfbbd1a	0.12291928
21	0x3d22eb5e	0.039775245
22	0x3e3da825	0.18521173
23	0xbd2cc20d	-0.04217725
24	0x3e0ac04f	0.13549922
25	0x3d0f876e	0.035041265
26	0x3deadf19	0.11468334
27	0xbdbb906f	-0.09158408
28	0xbe2e6838	-0.17031944
29	0x3db5bba3	0.088736795
30	0xbe24f6c8	-0.16109765
31	0x3df15ace	0.11784898
32	0xbad8a453	-0.0016528465
33	0x3d366c32	0.044536777
34	0xbd0daa62	-0.034586318
35	0x3d0a742b	0.033802193
36	0x3e35b7d6	0.17745909
37	0x3dec658b	0.11542805
38	0x3e265306	0.16242608
39	0xbcff896f	-0.031193463
40	0x3d154fcc	0.036453053
41	0x3e0ee336	0.13953862
42	0x3dd4b7ab	0.103865944
43	0xbdf784ff	-0.12085914
44	0xbe37716a	-0.17914358
45	0xbe11aee4	-0.14226872
46	0x3cbd6289	0.023118274
47	0xbdcdc7f9	-0.100479074
48	0xbe2a36d8	-0.16622484
49	0x3d403768	0.04692784
50	0x3d60beb5	0.054869372
51	0xbd682bda	-0.056682445
52	0x3e27540e	0.16340658
53	0x3e35536c	0.17707604
54	0x3d6917a0	0.056907296
55	0xbde80503	-0.11329081
56	0xbe31893a	-0.17337504
57	0x3e009d9e	0.12560126
58	0xbc1bc81e	-0.009508161
59	0x3d38af23	0.0450889
60	0x3aa51c50	0.0012596939
61	0x3dfbc373	0.12293138
62	0x3e120bce	0.14262316
63	0xbe357bf6	-0.17723069
64	0xbd907eca	-0.07055433
65	0xbdb9c3a4	-0.090705186
66	0xbdf4ab52	-0.11946739
67	0xbc86d5b8	-0.01645933
68	0x3e33065f	0.17482899
69	0x3e083f0f	0.13305305
70	0x3df1cc67	0.11806565
71	0xbe36e278	-0.17859828
72	0xbd51b6c3	-0.051199686
73	0x3e14b7c8	0.14523232
74	0x3e338492	0.1753104
75	0x3d1416d3	0.03615458
76	0xbccefe2d	-0.025267685
77	0x3e0e2a06	0.13883218
78	0xbe35ffd0	-0.17773366
79	0x3c455174	0.012043346
80	0x3d9d6499	0.07685203
81	0x3e0bd21d	0.1365437
82	0xbd14401b	-0.03619395
83	0xbe0f3d88	-0.13988316
84	0xbe1a73a4	-0.15083176
85	0x3e3f2518	0.18666494
86	0x3bfde179	0.0077478257
87	0x3b62cab8	0.0034605693
88	0xbe41845f	-0.18898152
89	0x3dcf5a4f	0.10124647
90	0x3d6d7ea6	0.05798211
91	0xbe3b29b8	-0.18277633
92	0xbdc23e57	-0.09484547
93	0xbdb6c3d8	-0.08924073
94	0xbde06f8e	-0.10958777
95	0xbd60d718	-0.05489263
96	0xbc130140	-0.008972466
97	0x3db73740	0.08946085
98	0x3cc78a01	0.024357798
99	0x3e0e26a9	0.13881935
100	0xbe4335f4	-0.1906355
101	0xbdb9f2b4	-0.09079495
102	0x3e393864	0.18087918
103	0x3e0bb801	0.1364441
104	0xbdb93872	-0.09043969
105	0xbd70d618	-0.058797926
106	0x3dae5d17	0.08513849
107	0xbdd90534	-0.105966955
108	0xbd5f329e	-0.05449163
109	0x3e3a5188	0.18195164
110	0xbe37c304	-0.17945486
111	0xbd9bcddd	-0.07607625
112	0x3e4794dd	0.1949038
113	0x3e35c583	0.17751126
114	0x3e451424	0.19245964
115	0x3d8cbf0d	0.068723775
116	0x3e081fcd	0.13293381
117	0x3e35a564	0.17738873
118	0x3d301e7b	0.04299782
119	0x3dfb4894	0.122697026
120	0xbc91b111	-0.017784627
121	0xbd66786b	-0.056267183
122	0xbdcebca3	-0.10094573
123	0x3e1edd86	0.15514192
124	0x3c7baf83	0.0153616695
125	0xbd82361f	-0.06357979
126	0x3cf034fc	0.02932214
127	0x3dc63c29	0.096794434
128	0x3de92a86	0.11385064
129	0x3d3685d3	0.04456122
130	0xbd28032b	-0.041018646
131	0x3e336185	0.1751767
132	0x3e26a3d7	0.16273437
133	0x3d142c50	0.036175072
134	0xbd840bd8	-0.064475715
135	0xbd6c28a2	-0.057655938
136	0x3e100770	0.14065337
137	0x3dd70873	0.104996584
138	0x3d03ceb3	0.032179546
139	0xbd67c4ce	-0.056584172
140	0x3e11eebc	0.14251226
141	0x3e178c62	0.14799646
142	0x3e07ef7d	0.13274951
143	0xbbda7a3c	-0.0066674035
144	0x3dc75503	0.097330116
145	0x3d091e7d	0.03347634
146	0xbe04e78a	-0.1297895
147	0xbda9271f	-0.08259415
148	0xbc5fde58	-0.013663851
149	0x3dfb1b74	0.12261096
150	0xbda6311d	-0.08114836
151	0x3e31d91e	0.1736798
152	0x3dddc1f5	0.1082801
153	0xbd76e6e7	-0.0602788
154	0xbd8bfe29	-0.068355866
155	0xbceaa4b3	-0.028642988
156	0xbd8a76e8	-0.06760961
157	0x3dd55db7	0.10418265
158	0xbd1cd8d0	-0.038292706
159	0xbd6472d1	-0.05577356
160	0x3bfafac6	0.007659289
161	0xbdadbe9c	-0.084836215
162	0xbe0cf628	-0.13765776
163	0x3e1841b3	0.14868812
164	0xbe45bd43	-0.19310479
165	0x3e3686e2	0.17824891
166	0x3dfe53e2	0.12418343
167	0x3d9bc1cf	0.076053254
168	0x3cc9b166	0.024620723
169	0xbddbd86e	-0.1073464
170	0x3dfdeafe	0.12398337
171	0xbdfb425d	-0.12268517
172	0xbc18039b	-0.009278203
173	0x3d11166b	0.03542177
174	0x3d51d6aa	0.05123011
175	0x3daed8ea	0.08537467
176	0xbc840ecd	-0.016120339
177	0x3a990b33	0.0011676311
178	0x3d95b2a6	0.07309465
179	0xbe189932	-0.1490219
180	0x3d883589	0.06650836
181	0x3b8a7582	0.004225434
182	0xbe2ee1fe	-0.17078397
183	0x3da3095e	0.07960771
184	0xbdc6c8c2	-0.0970626
185	0x3dfcd337	0.123449735
186	0x3d475d25	0.048672814
187	0x3dee50f6	0.11636536
188	0xbdbc3c6b	-0.09191211
189	0x3d58dd8a	0.05294565
190	0x3d9ffb48	0.078116
191	0xbe427336	-0.18989262
192	0xbdc38191	-0.09546197
193	0xbe3f62dc	-0.18690056
194	0x3dc05d41	0.09392787
195	0xbcd6689a	-0.026172925
196	0x3e343ef1	0.17602135
197	0xbe3de79b	-0.18545382
198	0xbd54c29a	-0.0519434
199	0xbdf5dd7c	-0.120051354
200	0xbe057320	-0.13032198
201	0xbda16a6c	-0.078816265
202	0xbd536ced	-0.05161755
203	0xbda2492a	-0.07924111
204	0x3c4e3ae3	0.012587282
205	0xbd4b853e	-0.049687617
206	0xbd67e85c	-0.05661808
207	0xbe3eba60	-0.18625784
208	0x3d5c133d	0.053729285
209	0xbe3ec5f8	-0.18630207
210	0xbe04b524	-0.12959725
211	0x3d9bb923	0.076036714
212	0xbe1dc1e1	-0.1540599
213	0x3df19a2d	0.11796985
214	0xbe3864cb	-0.180072
215	0x3dc8b3a8	0.09799892
216	0x3d2baee0	0.04191482
217	0x3ddb4e1a	0.10708256
218	0xbe07b8b5	-0.13254054
219	0xbd03ee4d	-0.032209683
220	0x3e030dd0	0.12798238
221	0x3db2bbeb	0.08727249
222	0x3e20a01e	0.1568608
223	0xbd6d3846	-0.057914995
224	0xbe2485db	-0.16066687
225	0xbe0ebfd1	-0.1394036
226	0xbddef043	-0.1088567
227	0x3bcff301	0.006346107
228	0xbe4b0f80	-0.19830132
229	0xbe3d63bc	-0.18495077
230	0xbe14d4fc	-0.14534372
231	0x3e22b234	0.15888292
232	0xbd168f65	-0.036757845
233	0x3b5cae18	0.0033673104
234	0x3d5fb2ec	0.054613993
235	0xbe19510e	-0.14972326
236	0xbe44d5cc	-0.19222182
237	0x3e106406	0.14100656
238	0x3d65d300	0.05610943
239	0x3dc859ab	0.09782728
240	0xbe30ee23	-0.17278342
241	0x3d9598dc	0.07304546
242	0xbdaa7ddb	-0.08324786
243	0x3d2d466e	0.042303495
244	0x3d0b7455	0.03404649
245	0xbd8b78db	-0.06810161
246	0x3db1e7fd	0.086868264
247	0xbe44d7bf	-0.19222926
248	0x3dea9dfd	0.11455915
249	0xbe1cb55b	-0.15303557
250	0x3d9d7d34	0.07689896
251	0xbe32d642	-0.17464545
252	0xbd25cb56	-0.04047712
253	0xbd91cca1	-0.07119108
254	0x3e07fd21	0.13280155
255	0xbe3f02c1	-0.18653394

bias f4 [50]
0	0xbd0be11a	-0.03415022
1	0x3daadc7e	0.08342837
2	0xbbf9ddc5	-0.007625314
3	0x3d166797	0.036719885
4	0x3d044834	0.03229542
5	0xbc23779c	-0.009977248
6	0x3db4fc8f	0.08837234
7	0xbd4520d2	-0.048127003
8	0x3c3ee20d	0.011650574
9	0xbba62174	-0.005069906
10	0xbc2f13dd	-0.010685888
11	0xbd32a618	-0.04361543
12	0x3cd1371a	0.02553897
13	0xbc948f20	-0.018134654
14	0x3d4caf45	0.049971838
15	0x3d6ffcb0	0.05859059
16	0x3d1201b8	0.03564617
17	0x3d0747bd	0.0330274
18	0x3d97c46b	0.07410511
19	0x3d1b22a0	0.037874818
20	0x3c07299f	0.008249669
21	0xbd6a4628	-0.057195812
22	0xbd0756d5	-0.033041794
23	0x3d31dca0	0.043423295
24	0xb9ac3f6b	-0.00032853647
25	0xbd65b980	-0.05608511
26	0x3d6e5889	0.058189902
27	0x3c97639f	0.01848012
28	0xbd42fcc5	-0.04760434
29	0xba4e1834	-0.0007861883
30	0x3b6a4c9f	0.0035751236
31	0x3d5c5e39	0.053800795
32	0xbd144902	-0.03620244
33	0x3b51cb1d	0.0032011934
34	0xbd6d368e	-0.057913356
35	0xbd2dbf38	-0.04241869
36	0x3c8ad878	0.016948923
37	0x3d04f6a7	0.03246179
38	0xbd03694f	-0.032082852
39	0x3d0b75d7	0.034047928
40	0x3d356db1	0.044294063
41	0x3c7de02c	0.015495341
42	0xbd9e4946	-0.077288195
43	0x3d14913e	0.036271326
44	0xbd15eb6d	-0.036601473
45	0x3d03031a	0.03198538
46	0xbcae83e5	-0.021303127
47	0xbd1462c5	-0.036227006
48	0xbd3575ee	-0.04430192
49	0xbcae75cf	-0.02129641

weight f4 [2, 50, 1, 1, 1]
0	0xbf4267e7	-0.7593979
1	0x3f8a6870	1.0813122
2	0x3e4c5506	0.19954309
3	0xbe46387f	-0.19357489
4	0x3d6798b5	0.056542117
5	0xbf4d015a	-0.8008019
6	0x3f741ea3	0.9535925
7	0xbee2edde	-0.44322103
8	0x3cbe8037	0.023254497
9	0xbc89aecd	-0.016806984
10	0xbeefb644	-0.46818745
11	0xbecfeb88	-0.40609384
12	0xbe9b01a5	-0.30274692
13	0xbf59a5bf	-0.85018533
14	0x3d4475bc	0.047963843
15	0x3f1a5eb7	0.60300773
16	0x3e33c0d2	0.17554024
17	0x3f12dfc8	0.57372713
18	0x3f3a7706	0.72837865
19	0x3f65ee8a	0.89817107
20	0xbf1c0d23	-0.60957545
21	0xbeed2479	-0.4631689
22	0xbf315706	-0.6927341
23	0x3f39146a	0.72296774
24	0xbf1c1a98	-0.6097808
25	0xbeeb3f97	-0.45946953
26	0x3ca57a9e	0.02020007
27	0xbdff8aae	-0.12477623
28	0xbefa3095	-0.4886519
29	0xbe887b52	-0.26656586
30	0xbf0dcde7	-0.5539231
31	0x3f669613	0.90072745
32	0x3f25fb73	0.64836806
33	0xbea56e3b	-0.32310662
34	0xbf46531f	-0.7747058
35	0xbed69484	-0.41910183
36	0xbf3a32a9	-0.7273355
37	0x3b97baba	0.004630414
38	0xbf068da5	-0.5255988
39	0xbe129d31	-0.14317776
40	0x3f15a967	0.5846161
41	0x3eea8bbd	0.45809737
42	0xbf68f9d6	-0.9100622
43	0x3f3144ee	0.69245803
44	0xbef8603c	-0.4851092
45	0x3f285114	0.65748715
46	0x3e9057f4	0.28192103
47	0x3ef050c4	0.4693662
48	0x3f5a8077	0.8535227
49	0x3e4cac45	0.1998759
50	0x3e893914	0.2680136
51	0xbf10dc8f	-0.56586546
52	0xbefaa0aa	-0.48950702
53	0xbf39139f	-0.72295564
54	0x3e6f74bd	0.23384376
55	0xbe3ae206	-0.18250284
56	0xbf182f14	-0.59446836
57	0xbf381c42	-0.7191812
58	0xbf463b3c	-0.77434134
59	0xbf49c3b0	-0.7881422
60	0xbf0e7493	-0.5564663
61	0x3f0dcc49	0.5538984
62	0xbefeba9e	-0.49751753
63	0xbf7a894c	-0.9786575
64	0xbee8e201	-0.45484927
65	0xbef23a8b	-0.4731029
66	0xbf4de7c4	-0.8043177
67	0x3b948a14	0.0045330618
68	0xbd2e4fc4	-0.04255654
69	0xbe21fde6	-0.15819511
70	0xbf6ed808	-0.9329839
71	0x3eae1090	0.3399701
72	0x3e89d94f	0.26923606
73	0x3ed3df83	0.41381463
74	0xbf27661f	-0.653902
75	0x3eba799f	0.36420915
76	0xbf2e5cbf	-0.6811027
77	0x3e9464da	0.28983194
78	0xbefe433b	-0.49660668
79	0x3e495c14	0.19664031
80	0x3f1f6fa6	0.62279737
81	0x3eae83af	0.34084842
82	0x3f232853	0.63733405
83	0xbf1c0aaf	-0.609538
84	0x3e5f5965	0.21811445
85	0xbf2201be	-0.6328391
86	0x3eb0e1e9	0.34547356
87	0x3eb84540	0.35990334
88	0x3f1ee9c6	0.6207546
89	0xbf0a3881	-0.5399247
90	0xbe2abf53	-0.16674547
91	0xbf64a1f9	-0.8930965
92	0x3e5ded70	0.21672606
93	0xbf46db63	-0.7767851
94	0xbf5fc4c0	-0.8740959
95	0xbf4634aa	-0.7742411
96	0x3eced330	0.40395498
97	0x3f390e9f	0.72287935
98	0x3f5ff1c1	0.8747826
99	0x3e8f94e7	0.2804329

bias f4 [2]
0	0x3e214bb1	0.1575153
1	0x3dc8216d	0.097720005

weight f4 [5]
0	0x3f81768a	1.01143
1	0x3f809280	1.0044708
2	0x3f7f75b9	0.99789006
3	0x3f7fc4e0	0.9990978
4	0x3f7ef5e0	0.99593925

bias f4 [5]
0	0xbc8e256e	-0.017351832
1	0x3d74ca9c	0.059763536
2	0x3cdc6c2a	0.026907045
3	0x3d0a498e	0.033761553
4	0x3c9fdf19	0.019515561

running_mean f4 [5]
0	0x42d41a55	106.05143
1	0x4159b5c7	13.606879
2	0xc25c1a26	-55.025536
3	0xc1c53a88	-24.65358
4	0xc2a39871	-81.79774

running_var f4 [5]
0	0x44aa8d8a	1364.4231
1	0x4337912f	183.56712
2	0x4364b4ab	228.70573
3	0x4360b6b1	224.71364
4	0x43b8a4c4	369.28723

weight f4 [10]
0	0x3f734190	0.95021915
1	0x3f85ba73	1.0447525
2	0x3f83b3fb	1.0289301
3	0x3f841659	1.031932
4	0x3f736bb8	0.9508624
5	0x3f7e1457	0.99249786
6	0x3f7e5c7f	0.9935989
7	0x3f801c0c	1.0008559
8	0x3f703007	0.93823284
9	0x3f876b90	1.05797

bias f4 [10]
0	0xbd747df9	-0.05969045
1	0xbb45b2a3	-0.003016629
2	0xbd2f2d07	-0.04276755
3	0x3d8dab61	0.069174536
4	0xbc8c0e6a	-0.017096717
5	0xbd86e61c	-0.06586859
6	0xbc96483d	-0.018344993
7	0xbbe4ce4e	-0.0069826012
8	0xbdd0396d	-0.10167203
9	0x3d5070c1	0.05088878

running_mean f4 [10]
0	0x3f8111b3	1.0083526
1	0x3ed99f5b	0.4250439
2	0x3dfca7f7	0.12336724
3	0xbeeba217	-0.46022102
4	0xbceb5321	-0.028726162
5	0x3f85a17d	1.0439907
6	0x3e342eec	0.17596024
7	0xbf6b91d5	-0.920194
8	0xbfb8f216	-1.4448879
9	0x3f2c88b2	0.6739608

running_var f4 [10]
0	0x3f9fc87f	1.2483062
1	0x3f3eae94	0.74485135
2	0x3f72ceb3	0.9484665
3	0x400053b0	2.0051079
4	0x3f300c4e	0.68768775
5	0x3f7136d2	0.94224274
6	0x3f5b5ab4	0.85685277
7	0x3f619521	0.8811818
8	0x3fbd170e	1.4772661
9	0x3f8f7d77	1.1210164

weight f4 [20]
0	0x3f7199f7	0.94375557
1	0x3f785276	0.97000825
2	0x3f66c1e8	0.9013963
3	0x3f7bde29	0.98385864
4	0x3f71df73	0.9448158
5	0x3f7f0a76	0.9962534
6	0x3f873269	1.0562259
7	0x3f780b02	0.96891797
8	0x3f85e367	1.0460023
9	0x3f85317c	1.0405726
10	0x3f6ac0bd	0.91700345
11	0x3f64e606	0.8941349
12	0x3f8df5e0	1.109066
13	0x3f89ea20	1.0774574
14	0x3f88dc21	1.0692178
15	0x3f83684f	1.0266207
16	0x3f83bc10	1.0291767
17	0x3f82406b	1.0175909
18	0x3f8486a1	1.0353585
19	0x3f843918	1.0329924

bias f4 [20]
0	0xbda64e64	-0.081204206
1	0x3c00c811	0.0078602
2	0xbdc98e60	-0.09841609
3	0x3c7abf2f	0.015304371
4	0xbd124e8e	-0.035719447
5	0x3c9bb680	0.019007921
6	0x3dc98bc5	0.09841112
7	0xbcadf7bc	-0.021236293
8	0x3dd67d48	0.10473114
9	0x3db02ca1	0.08602262
10	0xbdd057bd	-0.10172985
11	0xbdae5aa8	-0.08513385
12	0x3e3b8035	0.18310626
13	0x3e002d78	0.12517345
14	0x3e024d20	0.12724733
15	0xbe79618c	-0.24353617
16	0x3d90987e	0.070603356
17	0x3d7e1835	0.062034804
18	0x3d88edbe	0.06685971
19	0x3d8a62fa	0.067571595

running_mean f4 [20]
0	0x400dd217	2.2159479
1	0xbfe7ba38	-1.8103704
2	0xbfd549e1	-1.6663171
3	0xbfc9dc6e	-1.5770395
4	0x3e18a18a	0.14905372
5	0xbf2f2385	-0.68413574
6	0xbf386244	-0.7202494
7	0xbfbf951f	-1.4967383
8	0xbfcf0980	-1.6174774
9	0xbf409dda	-0.7524086
10	0x40392568	2.892908
11	0x3f98e5da	1.1945145
12	0xc011e1ac	-2.279399
13	0xbeaed806	-0.34149188
14	0xbe929ec2	-0.28636748
15	0x4008518a	2.1299767
16	0xc0359be8	-2.8376408
17	0xbcd88926	-0.026432585
18	0xbf225cf3	-0.6342308
19	0xbf728b54	-0.9474385

running_var f4 [20]
0	0x409d68bd	4.9190354
1	0x408745c1	4.227265
2	0x402a5598	2.6614742
3	0x4042831d	3.0392525
4	0x404c41f5	3.1915257
5	0x400cbf1f	2.199165
6	0x40b43d56	5.6324873
7	0x406cb065	3.6982663
8	0x4059524a	3.3956475
9	0x404dbeb2	3.214764
10	0x40d0527b	6.5100684
11	0x405081a2	3.2579122
12	0x40b9f8dd	5.811629
13	0x401fd5c0	2.4974213
14	0x40b9469f	5.7898707
15	0x40cb4195	6.3517556
16	0x40fee285	7.9651513
17	0x40486b76	3.131559
18	0x400663ee	2.0998492
19	0x401154ed	2.2708085

weight f4 [50]
0	0x3f800000	1.0
1	0x3f800000	1.0
2	0x3f800000	1.0
3	0x3f800000	1.0
4	0x3f800000	1.0
5	0x3f800000	1.0
6	0x3f800000	1.0
7	0x3f800000	1.0
8	0x3f800000	1.0
9	0x3f800000	1.0
10	0x3f800000	1.0
11	0x3f800000	1.0
12	0x3f800000	1.0
13	0x3f800000	1.0
14	0x3f800000	1.0
15	0x3f800000	1.0
16	0x3f800000	1.0
17	0x3f800000	1.0
18	0x3f800000	1.0
19	0x3f800000	1.0
20	0x3f800000	1.0
21	0x3f800000	1.0
22	0x3f800000	1.0
23	0x3f800000	1.0
24	0x3f800000	1.0
25	0x3f800000	1.0
26	0x3f800000	1.0
27	0x3f800000	1.0
28	0x3f800000	1.0
29	0x3f800000	1.0
30	0x3f800000	1.0
31	0x3f800000	1.0
32	0x3f800000	1.0
33	0x3f800000	1.0
34	0x3f800000	1.0
35	0x3f800000	1.0
36	0x3f800000	1.0
37	0x3f800000	1.0
38	0x3f800000	1.0
39	0x3f800000	1.0
40	0x3f800000	1.0
41	0x3f800000	1.0
42	0x3f800000	1.0
43	0x3f800000	1.0
44	0x3f800000	1.0
45	0x3f800000	1.0
46	0x3f800000	1.0
47	0x3f800000	1.0
48	0x3f800000	1.0
49	0x3f800000	1.0

bias f4 [50]
0	0x00000000	0.0
1	0x00000000	0.0
2	0x00000000	0.0
3	0x00000000	0.0
4	0x00000000	0.0
5	0x00000000	0.0
6	0x00000000	0.0
7	0x00000000	0.0
8	0x00000000	0.0
9	0x00000000	0.0
10	0x00000000	0.0
11	0x00000000	0.0
12	0x00000000	0.0
13	0x00000000	0.0
14	0x00000000	0.0
15	0x00000000	0.0
16	0x00000000	0.0
17	0x00000000	0.0
18	0x00000000	0.0
19	0x00000000	0.0
20	0x00000000	0.0
21	0x00000000	0.0
22	0x00000000	0.0
23	0x00000000	0.0
24	0x00000000	0.0
25	0x00000000	0.0
26	0x00000000	0.0
27	0x00000000	0.0
28	0x00000000	0.0
29	0x00000000	0.0
30	0x00000000	0.0
31	0x00000000	0.0
32	0x00000000	0.0
33	0x00000000	0.0
34	0x00000000	0.0
35	0x00000000	0.0
36	0x00000000	0.0
37	0x00000000	0.0
38	0x00000000	0.0
39	0x00000000	0.0
40	0x00000000	0.0
41	0x00000000	0.0
42	0x00000000	0.0
43	0x00000000	0.0
44	0x00000000	0.0
45	0x00000000	0.0
46	0x00000000	0.0
47	0x00000000	0.0
48	0x00000000	0.0
49	0x00000000	0.0

running_mean f4 [50]
0	0x00000000	0.0
1	0x00000000	0.0
2	0x00000000	0.0
3	0x00000000	0.0
4	0x00000000	0.0
5	0x00000000	0.0
6	0x00000000	0.0
7	0x00000000	0.0
8	0x00000000	0.0
9	0x00000000	0.0
10	0x00000000	0.0
11	0x00000000	0.0
12	0x00000000	0.0
13	0x00000000	0.0
14	0x00000000	0.0
15	0x00000000	0.0
16	0x00000000	0.0
17	0x00000000	0.0
18	0x00000000	0.0
19	0x00000000	0.0
20	0x00000000	0.0
21	0x00000000	0.0
22	0x00000000	0.0
23	0x00000000	0.0
24	0x00000000	0.0
25	0x00000000	0.0
26	0x00000000	0.0
27	0x00000000	0.0
28	0x00000000	0.0
29	0x00000000	0.0
30	0x00000000	0.0
31	0x00000000	0.0
32	0x00000000	0.0
33	0x00000000	0.0
34	0x00000000	0.0
35	0x00000000	0.0
36	0x00000000	0.0
37	0x00000000	0.0
38	0x00000000	0.0
39	0x00000000	0.0
40	0x00000000	0.0
41	0x00000000	0.0
42	0x00000000	0.0
43	0x00000000	0.0
44	0x00000000	0.0
45	0x00000000	0.0
46	0x00000000	0.0
47	0x00000000	0.0
48	0x00000000	0.0
49	0x00000000	0.0

running_var f4 [50]
0	0x3f800000	1.0
1	0x3f800000	1.0
2	0x3f800000	1.0
3	0x3f800000	1.0
4	0x3f800000	1.0
5	0x3f800000	1.0
6	0x3f800000	1.0
7	0x3f800000	1.0
8	0x3f800000	1.0
9	0x3f800000	1.0
10	0x3f800000	1.0
11	0x3f800000	1.0
12	0x3f800000	1.0
13	0x3f800000	1.0
14	0x3f800000	1.0
15	0x3f800000	1.0
16	0x3f800000	1.0
17	0x3f800000	1.0
18	0x3f800000	1.0
19	0x3f800000	1.0
20	0x3f800000	1.0
21	0x3f800000	1.0
22	0x3f800000	1.0
23	0x3f800000	1.0
24	0x3f800000	1.0
25	0x3f800000	1.0
26	0x3f800000	1.0
27	0x3f800000	1.0
28	0x3f800000	1.0
29	0x3f800000	1.0
30	0x3f800000	1.0
31	0x3f800000	1.0
32	0x3f800000	1.0
33	0x3f800000	1.0
34	0x3f800000	1.0
35	0x3f800000	1.0
36	0x3f800000	1.0
37	0x3f800000	1.0
38	0x3f800000	1.0
39	0x3f800000	1.0
40	0x3f800000	1.0
41	0x3f800000	1.0
42	0x3f800000	1.0
43	0x3f800000	1.0
44	0x3f800000	1.0
45	0x3f800000	1.0
46	0x3f800000	1.0
47	0x3f800000	1.0
48	0x3f800000	1.0
49	0x3f800000	1.0
