models/deepvesselnet.model (torch_old, 243940 bytes, 26 tensors)

weight f4 [5, 1, 3, 3, 3]
00000000: feb9 da3d 4241 31bd fe01 81bd 3343 1e3e
00000010: 17ad 9bbd fc8d 7c3d c15a 15be 4338 f93d
00000020: 5382 41be eb78 063e 0e3e 66bd 34c3 fa3d
00000030: 022b 84ba fdc5 e43c 7d12 f53d 9dd0 c73d
00000040: 2643 5c3d 72f7 aabd 3a22 c8bd fcec 08be
00000050: 3a6c 5cbe a4d5 3bbd 730d 73be 6bd5 35be
00000060: 4928 e3bc 8533 1fbe 61d0 b13d f0b8 f23c
00000070: d916 42be 9138 113d e157 bbbd 4667 143e
00000080: 2e73 343d 386a 90bc 15b7 8bbd 2d49 5abe
00000090: 0562 f93d 600a 833e bbfc aebb adc1 34bc
000000a0: 2edc 1cbd b4e0 553e 83b2 4e3e a42b 8c3b
000000b0: 3dbd 573e 7309 15be c140 01be 21f1 313d
000000c0: d3a7 3dbd 8bc3 89bd 96ac 4d3c 23a8 14be
000000d0: 8eaf 703d 1741 62bd dde9 543d de45 02bd
000000e0: 747d e5bb 3e58 f33d 155d c73d f821 ab3d
000000f0: 1b31 383e 10bd c3bc 93b2 a03d d7e1 353e
00000100: e7dc 773e e749 d6bc 2a74 643d 752d 723e
00000110: 94a7 4fbd 494f 2c3e be0c bfbc 428c 563e
00000120: 859b 093e 7c07 65bd 080f 5dbc 1ce8 1b3e
00000130: 9a26 a03c c728 153e 6eb4 37bd cbfd 213e
00000140: 864c cfbd e374 05be 3322 d3bd c337 05be
00000150: a2bc e9bd 3f55 bb3b 922f 483e ae52 32be
00000160: 6f20 e53d 5849 693e 3d1a 82bd 8044 983d
00000170: 8d30 623c 7b22 f8bc 7686 8e3d e3a2 4e3e
00000180: 1427 c83c 3b50 103d 0f68 123d d1e0 b4bd
00000190: 35db cf3c 3e77 2ebe da0f a23d ce3e 483d
000001a0: 783e a23d a90d 1e3c c420 dcbd 45da 0b3e
000001b0: 1317 2cbd 554b c8bc d335 d2bd af65 ac3d
000001c0: cb45 3f3d b4ad 0b3b a13c eabd 782b 513e
000001d0: 5df1 803d 7a17 5e3a 8a92 413e da28 e53d
000001e0: dab2 06bd 4d4e 083e 57b6 d43c 3dc3 8dbd
000001f0: 01c9 a63e ef0c de3d 6a38 5abc eba1 9fbd
00000200: aac3 133e b809 dbbc de4c 4f3e 6df5 af3d
00000210: bd90 1c3e 32bb 593e 352f 173c
0.106800064 -0.043275125 -0.06299208 0.15455322 -0.07601374 0.061658844 -0.14585401 0.12168934
-0.18897371 0.13132064 -0.056211524 0.12244263 -0.0010083618 0.02792644 0.11966417 0.09756587
0.053774975 -0.08347978 -0.09772153 -0.13371652 -0.2152566 -0.04585804 -0.23735599 -0.17757194
-0.02772917 -0.15546997 0.08682323 0.0296292 -0.18954028 0.035454337 -0.09147621 0.1449252
0.044055156 -0.017628774 -0.068220295 -0.21316977 0.12176899 0.25593853 -0.0053401864 -0.011032504
-0.038295917 0.20886499 0.20185284 0.0042776633 0.21068282 -0.14554386 -0.12622358 0.04344285
-0.046302628 -0.0672675 0.012553355 -0.14517264 0.058761172 -0.055237856 0.051980842 -0.03180491
-0.0070034806 0.11882065 0.09734551 0.083560884 0.17987482 -0.023893863 0.0784656 0.17761932
0.24205361 -0.026158286 0.055774845 0.23650153 -0.050696924 0.1682712 -0.023321506 0.20951942
0.13438232 -0.05591534 -0.013492353 0.15225261 0.019549657 0.14566337 -0.044849806 0.1581947
-0.101220176 -0.1303287 -0.10309257 -0.13009553 -0.11412932 0.0057169492 0.19549397 -0.17414352
0.11187827 0.22781885 -0.06352661 0.0743494 0.013805521 -0.03028988 0.0695924 0.20179324
0.024432696 0.035232764 0.03574377 -0.08831943 0.02537308 -0.17037675 0.0791318 0.04888802
0.07922071 0.0096468115 -0.10748437 0.13657482 -0.042014193 -0.024449984 -0.102641724 0.08417832
0.04669742 0.0021313252 -0.11437345 0.20426738 0.062960364 0.0008472126 0.18903556 0.111894324
-0.03288541 0.1331112 0.025965853 -0.06922004 0.3257523 0.10842311 -0.013319114 -0.07794555
0.14430109 -0.026738033 0.20244166 0.08591733 0.15289588 0.21262816 0.009227564

bias f4 [5]
00000000: 55f3 4bbd ce22 f3bd 8dfc 243d 248b 0fbe
00000010: 2302 0c3e
-0.049792606 -0.11871873 0.040279914 -0.14017922 0.1367269

weight f4 [10, 5, 5, 5, 5]
00000000: 51ff aabd 622f 8abd d15c a63d 8712 70bd
00000010: 1449 603d 1c54 0bbd 3205 833d ba89 2e3c
00000020: c2e3 aebd 7fbe 23bd e07f 153d 124b 99bd
00000030: 1e97 96bd dbc5 bbbc ecba 9dba d91a a3bd
00000040: 2fc7 51bd 2f06 023d 3eda 89bd 6acb 0a3d
00000050: 6d8a 853d 31ef 893d d35d 0abd 5b63 953d
00000060: 805b 023c 9140 563d 9f9b 5e3d 7788 1a3d
00000070: e776 b4bd 74dd 4cbd 0cff 97bd 8202 80bd
00000080: 52e7 9a3d c6a6 30bb 919d 343d acf7 c6bc
00000090: aed3 843d 993a c63c 2725 7bbd c6db 653d
000000a0: 2157 98bd 2258 8b3d 1f0b 823d 88fe 893a
000000b0: 290c 64ba b84f 103c db85 6dbc 2503 7a3d
000000c0: f5c0 453d 86e6 17bd 4b2c b53c a187 be3d
000000d0: 0643 a73d 446a 7abd 1b91 263d ac89 7d3d
000000e0: dee0 453c 5f20 fdbc 8de7 5bbd a834 a9bb
000000f0: 555c d63c d37b 0d3d 0abf 4f3d fdf3 bcbc
00000100: 30c1 713d ce63 963d bb75 193d 489e 223d
00000110: 7927 1ebd 084b 30bc 12e1 2d3c 1feb ce3d
00000120: dc6d a23d e0aa 8f3d 4456 9c3b 3cf7 fdbc
00000130: bd24 99bd 4bed 76bd b8e1 2b3d 522d eb3c
00000140: b8f4 a73d 7eb2 133a 8641 89bd e07b 30bc
00000150: b50a a4bd 8419 5bbd 04ed a13c e92b a93b
00000160: 2d45 63bd d950 8039 c5d5 893d 42d8 a8bd
00000170: 4411 923d a075 bcbd 85fe 093d 6404 cb3c
00000180: 6384 6cbc 2b4d 88bd 9e3c 8f3d ccd2 21bd
00000190: fe53 a3bd a058 a23d dc0a afbd 70c6 81bb
000001a0: 3220 8f3d 6dbc 863d bab9 c3bd fe57 323c
000001b0: 781c 813d 5e1e 113d cad4 9fbb dcbe d7bc
000001c0: 606b 083c 38c7 993d 263c 69bd 1e65 843d
000001d0: 2cd8 febc e54e e1bc 1b3d 423c c9b5 393d
000001e0: 41a1 e13c c056 a7bd d401 6b3c 55ec 3a3d
000001f0: 4657 84bd 8a1c e93c 7fd3 863d 03d2 9c3d
00000200: ce22 ab3d f397 d5b8 345b a03d d1ea 933c
00000210: 29b1 36bc dc4d 8c3d 9f68 35bd 2e56 603d
00000220: e9f5 7b3d ff37 15bd dd95 893d 669e 763b
00000230: df05 63bd 6ecd d3bb 2cb4 8abc e54c 893c
00000240: b294 8abd 6046 ad3d edbe bb3b a8e4 a73d
00000250: 7d7a a6bd 3c26 dabc 156c e33c f91d 2dbd
00000260: c841 adbb bd3b 383d 7939 873d cb33 623d
00000270: f853 60bc 2d9d 743b a220 743c f83b 38bd
00000280: f90c 5fbc 6adc 52bd 66d3 b13d 61ad 37bd
00000290: 7a97 6ebd 77f7 38bd b852 a23b e3cd bb3c
000002a0: 650b 9ebd 3525 293c 6c31 613d 5c13 913d
000002b0: 9cdd 593d aee1 1fbb 8dba 283d 617d 8ebd
000002c0: 4fe2 44bd 0810 203d 27ee 1c3c 6937 d23d
000002d0: c32c bc3b 9269 503c 2d9a 82bd ff9a 3cbd
000002e0: 107f b73d 1301 a23d a133 973d 413e c23d
000002f0: f95e 5c3d 1ebf c53a 3acd 87bd 5459 ae3d
00000300: e918 3b3d 400b a23c 0adb 3bbd a4ad 603d
00000310: 3f4f 1ebd 3892 36bc 5a0c d03c ef08 863d
00000320: b262 82bd 7002 3abc f126 5b3b 0500 44bc
00000330: 2aa8 a13d 198e 70bd fcbe 753d 9ee2 9bbc
00000340: 3bb5 fcbc eadb a0bd 3730 68bd cde2 343d
00000350: 532d 94ba 842c a0bd 7f65 023d 7e64 77bc
00000360: 4448 9bbd 47d6 debc 66e9 85bd b3de fb3c
00000370: 255e 803c a001 8dbd e70a 03bd 44df 2bbc
00000380: 7cc9 82bd e218 82bd 63f1 233d 4180 fe3a
00000390: dc5c dd3c f96a c2bc 09f4 98bc 3020 b23d
000003a0: c52e a03c b01b 8d3d ee2d 2fbd 6367 8cbb
000003b0: 9f2e 71bc d4e1 093d a85d a73b f9fa 6d3d
000003c0: 76b0 81bd 300d a8bd ea5a 9cbb 4d13 ab3d
000003d0: 572d 03bc 9012 b6bc 6461 66bd e1e9 41bc
000003e0: e80a 1ebd 7c0f 513c 8c5d 963d 0b4e 663b
000003f0: e360 dc3c 965e 3a3d 7c2e c6bd fc5f ab3c
-0.08349479 -0.06747319 0.08123172 -0.05861142 0.054757193 -0.03401576 0.06397475 0.010652954
-0.08539535 -0.039976593 0.036498904 -0.07485022 -0.07353042 -0.022921493 -0.0012033856 -0.07964105
-0.051215347 0.03174418 -0.067310795 0.033885397 0.06520543 0.06735075 -0.033780884 0.07294341
0.007956386 0.05230767 0.05434763 0.0377278 -0.08811741 -0.05001588 -0.07421693 -0.06250478
0.07563652 -0.0026954873 0.04409558 -0.024288021 0.06485687 0.024197863 -0.061314728 0.056117795
-0.074384935 0.068039194 0.063497774 0.0010528127 -0.0008699322 0.008808069 -0.014497246 0.061038155
0.04827972 -0.03708508 0.022115847 0.09303213 0.081670806 -0.0611365 0.040665727 0.061898872
0.012077538 -0.030899225 -0.05368762 -0.005163748 0.026167074 0.034541916 0.0507193 -0.023065561
0.05902213 0.07343255 0.037465792 0.03970173 -0.038611863 -0.010760076 0.010612743 0.101034395
0.0793111 0.07015014 0.004771026 -0.03100168 -0.074777104 -0.060284894 0.04196331 0.028708134
0.08200973 0.00056342024 -0.06701951 -0.010771722 -0.08009855 -0.05349113 0.019766338 0.005162705
-0.055485893 0.000244743 0.067302264 -0.08244373 0.071321994 -0.09202123 0.033689994 0.024782367
-0.01443586 -0.066553436 0.06993984 -0.039507672 -0.079750046 0.0792706 -0.08546993 -0.003960423
0.06988563 0.06578908 -0.09556909 0.010885237 0.06304258 0.03542935 -0.0048776614 -0.026336126
0.008326381 0.07508701 -0.056942128 0.06464599 -0.031108938 -0.02750344 0.011855389 0.04533938
0.027542712 -0.08170843 0.014343698 0.04563554 -0.064619586 0.028455991 0.065833084 0.07657244
0.08356248 -0.00010184934 0.078298956 0.018056305 -0.011150637 0.06850788 -0.044289228 0.054769687
0.061513815 -0.036430355 0.06718037 0.0037631034 -0.05542552 -0.006463698 -0.016931616 0.016760299
-0.06766643 0.084606886 0.0057295472 0.081979096 -0.081288315 -0.02662956 0.027761498 -0.042264912
-0.0052873828 0.044978846 0.06602759 0.055225175 -0.013691895 0.003732513 0.014900358 -0.044979066
-0.013613933 -0.051479734 0.08682899 -0.04484308 -0.058249928 -0.045157876 0.0049537085 0.022925323
-0.07717017 0.010323812 0.054978773 0.07083771 0.05318986 -0.002439599 0.041193534 -0.06957508
-0.048067387 0.03907779 0.009578264 0.10264475 0.0057426407 0.012720482 -0.06377063 -0.046046253
0.08959782 0.07910361 0.07382894 0.0948453 0.05380151 0.0015086865 -0.06630941 0.08513132
0.045678053 0.019780755 -0.04586319 0.054853097 -0.038649794 -0.01114326 0.025396515 0.06544673
-0.06366481 -0.01135312 0.003343996 -0.011962895 0.07893403 -0.058729265 0.05999659 -0.019028958
-0.030848136 -0.07854445 -0.056686606 0.044161607 -0.0011305012 -0.07820991 0.031835075 -0.015099643
-0.07582143 -0.027201785 -0.06538658 0.03074584 0.015669892 -0.068850756 -0.03199282 -0.010490242
-0.06386086 -0.06352402 0.040025126 0.0019416885 0.027021818 -0.02373265 -0.018671053 0.086975455
0.019553551 0.068900466 -0.04276841 -0.0042847856 -0.014720588 0.033662632 0.0051076002 0.058100674
-0.063324854 -0.0820564 -0.00477158 0.08353291 -0.008006415 -0.022225648 -0.056245223 -0.011835546
-0.03858462 0.012760039 0.073420614 0.0035141732 0.026901668 0.04550036 -0.09676835 0.020919792

bias f4 [10]
00000000: e6ce 8c3c 1fa8 5b3c 1eec 96bc c371 c33c
00000010: 1749 e13c 35f9 72bd 2469 1b3b 4a19 dc3b
00000020: e059 3bbd a068 4f3c
0.0171885 0.013406782 -0.018423136 0.023857957 0.027500672 -0.059319694 0.0023713792 0.006716882
-0.04574001 0.012659222

weight f4 [20, 10, 5, 5, 5]
00000000: 7522 29bd 0aaf c73b 4ba1 933d f11d af3c
00000010: c92d a6bd 850b ac3d 4764 78bd f42a 6f3c
00000020: 04c9 963c ff74 c13b 5df2 fbbc f56d 8a3c
00000030: 71d7 1bbc 27c0 b13d 11cf cd3c e7d7 8c3d
00000040: cb0d 9ebd 40f4 6cbb 552c 81bc f0ce 7a3d
00000050: a9ee db3b ff61 98bd 88c2 6a3c 1499 e93c
00000060: 979e 3b3d faaf 153d 9b6f 623d f4b9 823d
00000070: 4247 ccbc bdeb f1bc cdd4 583d 4521 583d
00000080: b164 a23d b8d0 a73d 7877 c4bc cefe 16bc
00000090: b517 a2bd dfe7 363d b09c f6bb cde0 03bb
000000a0: 01c9 1e3d 6b14 6a3d 2d61 923d 4df5 d8bb
000000b0: b0ef 8ebb 94d5 9cbc d905 e63c 96ec 25bd
000000c0: 7c39 8c3d 4045 80bd ca10 16bd 84d5 9c3d
000000d0: 5733 99bd 2c53 45bb c908 923d 0d4c 51bd
000000e0: e515 833b a0f3 50bd 88b7 303d b44b 0abd
000000f0: d5b8 723b aa70 7cbc fd26 8c3d 3448 5a3c
00000100: 5371 ffbc 5fe0 b63d 6b8e a83d bc19 e9bb
00000110: 5412 813d 5a14 873d 7d58 583d 1aaa 2e3d
00000120: 3a5d 0fbd 5652 c33d bd73 783d 63b0 d8bc
00000130: 1255 a23c 5581 8fbd 0914 903d 0b6a 833d
00000140: 0864 c43b f239 a53c bdb9 283d 44ac 4d3b
00000150: a5da 5c3d b7f7 44bd 16a9 763d e1b1 593d
00000160: 1773 423c bc93 1ebd 1c5a abbd 35cf 47bd
00000170: 2f5a 243d bc68 61bd 181d 5abd 72a5 b63d
00000180: f961 30bd b5b7 96bd 023f 9fbd 8520 633c
00000190: 172b 88bd 589e 72bd fe79 ba3c d3dc b0bd
000001a0: 34a9 90bb 890b 543d 81bb 1ebd 9207 3bbd
000001b0: 3c2a 6f3d 737f 873d d61c 5ebd 238c 143d
000001c0: c3b6 b8bd 3bd8 70bb 87a7 81bd a805 a2bd
000001d0: c95e 87bd 8f8f 7bbd f371 25bd bdb8 11bd
000001e0: 7aec 3dbc 1c31 c2bc d378 f93c 5290 aabd
000001f0: 8f20 3f3d a626 203c e243 533d 7786 b03d
00000200: 61f5 9c3d 8ea2 c03a 68fe 2a3c eabc 2cbd
00000210: 19d1 43bd 0422 39bd 6ea8 a0bd 8c49 7bbc
00000220: ed0f 39bc 9194 7f3c 4de3 f23b 67c7 0bbd
00000230: d678 d23c f6d0 2bbc 0f7a b03d 1e81 863d
00000240: e4ac 8a3c b37c 833b 5e13 443d 603a b63b
00000250: 35f4 42bd 68c4 473d 496d a53d cdfc fcbc
00000260: bf5e 5cbd 50e6 993c 7a33 c43d 4309 fe3c
00000270: a636 5ebd 66a3 af3d 22c4 b03d 2e0c 6fbb
00000280: 0d15 8a3c 761d 8c3d acd7 83bc e163 26bd
00000290: de80 c13c 40f8 c13d 6147 a0bd 1452 993d
000002a0: 54f0 4cbd 7b47 983d 45d6 0d3d ad71 6abc
000002b0: 1a34 c4bc a72a 00bd 548f a8bc caee 9ebd
000002c0: 8683 76bd dc71 0dbc 72c0 923d f61f b23c
000002d0: ff50 053c 6466 353c 8775 a0bd 14b2 293d
000002e0: dc20 47bd 0e81 163d f4c1 a73d e60f 4dbd
000002f0: 8e02 28bd f1b2 843d 7aa9 55bc 9db0 2fbd
00000300: 79cc 72bd 42c7 87bd 8ca0 65bd aabb 483d
00000310: 026c aebc 9ded 8bbd 8506 543d 6964 243d
00000320: 2836 1c3d 90ce a93d cad1 ab3d ffa3 02bd
00000330: 032e 82bd 1e1c a2bd 6cc2 5c3d 3e02 babb
00000340: b861 64bd f4c8 d4bc e038 a43d ad8f a1bd
00000350: 7cc1 a83c e683 403c 5884 59bd 8575 9f3d
00000360: 07f5 193d 00ea 793d a5e1 8d3c 028f de3b
00000370: ca14 c8bc 020a afbd be29 7f3d 4a71 6ebc
00000380: 6fa9 743d d978 55bd 5fea 1bbc 22d5 723d
00000390: dcda a03d 6e5b 623d 6e67 a83d b109 b33c
000003a0: 618a 063d 9a53 203c c741 4b3d c008 30bb
000003b0: be0e 6f3c 103c b8bd ed06 913d 7835 c63b
000003c0: 01f0 1fbd abeb 993b 8bb3 ff3b c19e 8ebc
000003d0: fe1f e8bb 5183 e13c 60fa 47bd bb4d 4e3d
000003e0: f593 b43c 0e77 273c a46f 9d3d bdbc 45bd
000003f0: 7f1e 3d3c a9e3 1bbd 9597 13bd 2a7a c23c
-0.041292626 0.0060938643 0.072084986 0.021376582 -0.081142016 0.08400635 -0.060642507 0.014597643
0.018406399 0.0059038396 -0.030755216 0.016898135 -0.009511814 0.08679228 0.025123151 0.068771176
-0.077174746 -0.0036156327 -0.01576821 0.061232507 0.0067118 -0.07440566 0.014328606 0.028515376
0.04580554 0.036544777 0.055282217 0.06383124 -0.024936322 -0.029531354 0.052937318 0.052766103
0.079293616 0.08194107 -0.023982748 -0.009216024 -0.07914678 0.044654723 -0.007526003 -0.0020123005
0.03876591 0.05714838 0.07147441 -0.006621039 -0.004362069 -0.01914481 0.02807896 -0.04050883
0.06846902 -0.062632084 -0.036637105 0.076579124 -0.074804954 -0.0030109389 0.07130582 -0.05109792
0.0040004128 -0.05101359 0.04314378 -0.033763602 0.0037036438 -0.015407721 0.06843374 0.013322879
-0.031181967 0.08929514 0.08230289 -0.0071136635 0.06302324 0.06595679 0.052818764 0.04264269
-0.035001017 0.09537189 0.06065725 -0.026451295 0.019815955 -0.0700709 0.070350714 0.064167105
0.00599337 0.020169232 0.04119276 0.0031383196 0.053919453 -0.0480878 0.060219847 0.053148154
0.01186826 -0.03871511 -0.083667964 -0.048781592 0.04012507 -0.055031523 -0.053250402 0.08918275
-0.043062184 -0.07359258 -0.0777569 0.013862734 -0.06648844 -0.05923304 0.022763249 -0.08635869
-0.004414702 0.051768813 -0.038753036 -0.045661516 0.058389887 0.06616106 -0.05422672 0.036266457
-0.09019234 -0.0036749977 -0.063307814 -0.07911235 -0.06609876 -0.061416205 -0.040391874 -0.03557657
-0.011592025 -0.023705058 0.030453121 -0.08328308 0.04666191 0.0097748395 0.05157841 0.08619397
0.0766399 0.0014696883 0.010436632 -0.04217235 -0.047806833 -0.045198455 -0.078446254 -0.015337359
-0.011295301 0.015599386 0.0074123503 -0.03412571 0.025692385 -0.010486832 0.08617031 0.06567596
0.016928144 0.004012668 0.047870032 0.005561158 -0.047596175 0.048771292 0.08077485 -0.030882264
-0.053801294 0.01878658 0.09580131 0.031010276 -0.054251336 0.08576088 0.08631159 -0.0036475766
0.01685574 0.06841557 -0.016094051 -0.040622596 0.023621019 0.09471178 -0.078261144 0.07486358
-0.050033882 0.07435509 0.03462817 -0.014309329 -0.023950625 -0.031290676 -0.020576157 -0.07760389
-0.060184024 -0.008633103 0.07165612 0.021743756 0.008136987 0.011071775 -0.078349166 0.041429594
-0.04861532 0.03674417 0.081912905 -0.05006399 -0.04101806 0.06479443 -0.013040895 -0.04289304
-0.05927703 -0.06629802 -0.056061313 0.049007095 -0.021291737 -0.068324305 0.05176403 0.04013482
0.038137585 0.08291352 0.083896235 -0.03189468 -0.06356432 -0.07915519 0.053896353 -0.005676537
-0.055757254 -0.025974728 0.080186605 -0.07888732 0.020600073 0.011750197 -0.05310473 0.07786087
0.037587192 0.061014175 0.01731951 0.00679195 -0.024423975 -0.08546831 0.062295668 -0.014553377
0.059731897 -0.052117202 -0.009516328 0.05928529 0.07854244 0.055262975 0.08222853 0.021855207
0.032846812 0.009785557 0.049623277 -0.0026860684 0.014590917 -0.08995831 0.07081399 0.0060488544
-0.039047245 0.0046972833 0.0078033856 -0.017409684 -0.007083892 0.027528437 -0.04882276 0.0503671
0.022043208 0.010221256 0.076873094 -0.048275698 0.011542915 -0.03805891 -0.03603323 0.023739893

bias f4 [20]
00000000: 6835 c63c ea85 65bc ffcb e3b9 9072 c1bc
00000010: 2c46 e13b ad56 0dbc c8fb a33c fae2 e93c
00000020: 3fde b6bb 2832 903c 6e98 ba3b cc26 f5bc
00000030: d876 a3bc 604a 84bc aa28 283c b469 363c
00000040: 391d 683c 773f 6a3c 5a73 663c 6383 10bd
0.024195388 -0.014008978 -0.00043448803 -0.023614198 0.00687482 -0.008626622 0.02001752 0.028550614
-0.005580693 0.017602041 0.0056944406 -0.029925726 -0.01995413 -0.016148746 0.010263601 0.0111336
0.0141671235 0.014297358 0.014065588 -0.03528155

weight f4 [50, 20, 3, 3, 3]
00000000: 805c 9bbd bd27 343e 2a1a 84bc 4f8a 9b3d
00000010: efc1 18be f763 863d 84e2 933c 8745 44be
00000020: 9bb0 c5bd 2657 0f3e 1b34 e2bc d231 c2bd
00000030: 4834 0d3d beca fc3d 799f 353e 0f6e 67bd
00000040: 7bf6 0a3d a7ed 43be e264 5ebd 1b1e a5bc
00000050: 6ea6 bb37 5161 f53d b26d 05be f860 b33d
00000060: 566c 0cbd 3f7a 2bbd de03 d4bc 24e3 1c3e
00000070: 312f a63a 13d6 e6bc dca2 14bd 47e6 ee3d
00000080: 5ddd fd3d c6dc cfbd f4fe 2fbb 8b58 90bd
00000090: b572 6bbc 7599 083e 5bd2 af3b de0e d5bc
000000a0: bab5 11be 79a5 253e 1beb 963d 6435 08bd
000000b0: 07bf 8ebc 2537 79bd 74e9 e13d 6da5 ebbb
000000c0: 1882 d8bd ffe5 403e 4a6d bc3d 41f3 92bd
000000d0: 2668 5bbc bd7b 50bd 2380 143e e9a5 38be
000000e0: 2053 37bd 5c8f 2f3e 7f6e d03c db58 1a3e
000000f0: 6cb5 81bd 340e bbbd 6d80 183e d700 6a3d
00000100: dee8 cb3d 6783 1a3c d7cc dabd ea1d b4bd
00000110: 624f ba3d 88b7 1fbe cc18 bebd 98b0 6c3d
00000120: d3f4 ab3d 2980 023e 33a6 12be b490 fabd
00000130: d719 0dbe e7b7 833d ccfc 053e c77a e83d
00000140: 591a 633b 9a37 293e ce0a 09be 107c c0ba
00000150: bf77 2fbe 669b 7c3d b49d 05be 7ea4 14bd
00000160: e17b e63a 3581 bbbd 0cc8 f4bc eed2 b33d
00000170: ceae eebd 4017 a0bc a8f8 063e 11cc aebd
00000180: c2a9 9c3d 3187 223d 9f80 a43d e4ca 853d
00000190: adb1 fc3d 4c25 90bd fdf6 1abe 1160 63bd
000001a0: b825 fcbc 60dc 22be 6bf3 1dbe 9880 0bbe
000001b0: 3311 e6bd d80c 3dbe 8d24 2d3e a9ec 993d
000001c0: f613 a4bd 58e0 223e 74e6 9abd 790b 863c
000001d0: 0517 ebbd 0db2 01be c0bd 9dbd eac0 26bd
000001e0: d0cd 1d3e e027 49be 9cc9 903d 265a d1bd
000001f0: 8bfc 05bc 2421 2abe a2f4 1a3e c64d 50be
00000200: c882 26be 0ff8 203d 330a 24be 5f4c 023e
00000210: d991 3dbe ce35 38be 4797 cb3d 9ca9 4e3d
00000220: 9b53 ab3d bf37 253c edcc d2bc 91dc a7bd
00000230: 38ea 15be 7584 c73c b48b 0b3e c28b 813d
00000240: 6465 0d3e cbee a4bc 2d41 0bbe fc29 81bb
00000250: 8c29 463e 24ca bd3d b8ae cf3c dac3 1dbe
00000260: 0ec6 e73d 76e5 db3d 13f6 3abd bc28 143d
00000270: f14b 133e 952e 1c3d 22d5 443e b578 d4bd
00000280: d374 22bd 370a e03c aedc af3d e360 f23d
00000290: 5e8e 9d3d 58e6 d6bd 9c35 dd3d d2d8 92bd
000002a0: 1207 41be 7338 e9bd 068c 233e 1c4a 53bd
000002b0: 75a4 7c3d 461b 64bd f42b 2f3e c856 43bd
000002c0: cd7a 373e dbe6 2dbe e251 98bd 5c83 40be
000002d0: 8dc4 f93d f0f8 cd3d a4f8 e63d ab97 a8bc
000002e0: f90f b93d 84d4 8e3c da57 44bd c567 fc3d
000002f0: 3ba9 11bd 73c2 ec3c 968f 33bd 2a76 f33a
00000300: 0381 3abe 566b 403d b7c5 053e e40f ebbd
00000310: 8609 bbbd 33ea d9bd 4c8e 663d ae8c 413e
00000320: e923 563c 7192 933d 7eb9 173e beea 0d3e
00000330: 0b0e 0c3e 8df3 05be 6e1c 153e ef6b 2e3d
00000340: d770 553d f8b3 083e cd4f 87bd 31f8 fdbd
00000350: 9d2a 57bb 3a86 d43c decd 36be 90f7 2c3c
00000360: d996 ee3d cea4 c5bc 3732 2c3e c25d 40be
00000370: c86b 00be 5e83 81bd b793 e8bd e9f4 79bd
00000380: ce2c 333b dad3 7bbc 0508 093e 122c e0bc
00000390: be96 0fbd 2b26 093e 3511 3d3e eb19 203d
000003a0: 66b5 12be 6e57 30be 9e98 00be 44b0 213e
000003b0: 5509 143e b710 ce3d 6079 9ebd 3e69 2f3e
000003c0: 1fd3 463d 9201 993b d7dc 92bd 9f82 ccbd
000003d0: 8e66 1fbe c0b8 14be 37e5 a3bd 82b7 fc3d
000003e0: e4f0 6cbd 8f60 12be f83e 70bc b02b 173e
000003f0: f188 b4bd 5084 9abd 982f 373d 844f fa3d
-0.07586002 0.17593284 -0.016125757 0.0759474 -0.1491773 0.065620355 0.018052347 -0.19167148
-0.096528254 0.13998088 -0.027612736 -0.09482159 0.034473687 0.123433575 0.17736615 -0.056501444
0.03392647 -0.19133626 -0.054295428 -0.020155957 2.2369637e-05 0.11981452 -0.13030127 0.0875873
-0.034283005 -0.04186463 -0.02588075 0.15321022 0.0012678859 -0.02817825 -0.036288127 0.11665016
0.12395737 -0.10149531 -0.0026854845 -0.07048138 -0.01437061 0.13339789 0.0053656525 -0.026008066
-0.1422948 0.16176404 0.073690616 -0.033254042 -0.017425073 -0.060843606 0.11030856 -0.007191351
-0.105716884 0.18837737 0.09200533 -0.07175303 -0.01339153 -0.050899256 0.14502005 -0.1803204
-0.04475701 0.17144531 0.025443314 0.15072958 -0.063334316 -0.091335684 0.1489274 0.057129707
0.09956525 0.009430743 -0.10683601 -0.08794768 0.09097172 -0.15597355 -0.092820734 0.0577856
0.08396306 0.12744202 -0.14321212 -0.12234631 -0.13779388 0.06431561 0.13084716 0.11351543
0.0034653156 0.16525117 -0.13383028 -0.0014685411 -0.17135523 0.061671637 -0.1304844 -0.036289684
0.0017584526 -0.09155504 -0.029880546 0.08780466 -0.11654435 -0.019542336 0.13180792 -0.08535016
0.07649566 0.03967971 0.08032345 0.06532839 0.123385765 -0.07038364 -0.15133281 -0.055511538
-0.030779704 -0.15904379 -0.15424888 -0.13623273 -0.11233749 -0.18461931 0.16908474 0.075158425
-0.0801162 0.15905893 -0.07563487 0.016362892 -0.11479 -0.12665577 -0.077022076 -0.04071132
0.15410542 -0.19644117 0.07069704 -0.102222726 -0.008177887 -0.16614205 0.15132383 -0.20342168
-0.16260827 0.039299067 -0.16019516 0.12724446 -0.18512668 -0.17989275 0.09940963 0.05045472
0.08365556 0.010084092 -0.025732482 -0.081963666 -0.14640129 0.024355153 0.13627511 0.06325485
0.13808209 -0.020133397 -0.13599081 -0.0039417725 0.19351786 0.09267071 0.025351867 -0.15406743
0.11317073 0.107371256 -0.04564483 0.03617166 0.14384438 0.03813036 0.19221929 -0.103745855
-0.039662194 0.02734862 0.08587013 0.11834886 0.0769317 -0.10493153 0.10801241 -0.071702614
-0.18850353 -0.1138772 0.15971383 -0.051584348 0.061680276 -0.055690072 0.1710661 -0.047690183
0.17917939 -0.16982596 -0.07437493 -0.1880011 0.12195692 0.10057247 0.11277893 -0.020580133
0.0903625 0.01743532 -0.047935344 0.1232448 -0.03556178 0.028901314 -0.043838106 0.0018574644
-0.18213277 0.046977364 0.13063703 -0.1147764 -0.09132676 -0.10640373 0.05628805 0.18901321
0.013070085 0.07205666 0.14816853 0.13859078 0.13677232 -0.13081188 0.14561626 0.042583402
0.052109566 0.13349903 -0.06607018 -0.124008544 -0.0032831796 0.02594291 -0.1785197 0.01055707
0.11649866 -0.024126437 0.1681603 -0.18785766 -0.12541115 -0.063238844 -0.11356299 -0.06102458
0.0027339938 -0.015370334 0.13381965 -0.027364764 -0.03505587 0.13393466 0.18463595 0.039087217
-0.1432701 -0.17220852 -0.12558219 0.15789896 0.14456685 0.10061782 -0.07737994 0.1712999
0.048541185 0.0046693766 -0.07171028 -0.099858515 -0.15566465 -0.14523602 -0.08002704 0.12339689
-0.05784692 -0.14294647 -0.01466345 0.14762759 -0.08815182 -0.07544768 0.044723123 0.12222198

bias f4 [50]
00000000: 2156 663d 8288 fb3c 44d9 e5bc 63c9 8f3c
00000010: a9b6 28bc 18be de3c e7ee 723c 5cb0 763d
00000020: d49b 4c3c efd8 59bc 271c 373c 657a 31bd
00000030: 4896 20bd 2689 873d 967f 10bc be9f 133d
00000040: 86c4 3abc d522 c5bc f1cd bf3c 2e3a 4fbc
00000050: d8ec 7cbc 9e04 6bb9 26ab aebb 5140 753d
00000060: e5b6 a33c c0eb 7fbd 4916 6d3d 88a4 1e3c
00000070: 32a8 f5bc c44d 023c d596 c8bc 8a9b 88bc
00000080: f639 563d 88c4 b43d 2d6f a63c e2f0 04bd
00000090: d1cc a23c ce62 05bd f8d1 8bbc a428 8d3c
000000a0: 1fda 5bbd 66a1 2a3d aa52 693d 4882 c83a
000000b0: 406b cfbc c94a b33a 8fce 2dbd e1fe b83c
000000c0: 088b 593d d7ad 28bd
0.056234483 0.03070474 -0.028057702 0.017552083 -0.010297456 0.027190253 0.014827467 0.060226783
0.012488324 -0.01329635 0.011176146 -0.043329615 -0.03920582 0.06617956 -0.008819481 0.036041014
-0.011399394 -0.02406446 0.02341363 -0.012648148 -0.015437327 -0.00022413066 -0.005330461 0.05987579
0.019984672 -0.062480688 0.05788258 0.009682782 -0.029987428 0.007953111 -0.024485985 -0.01667573
0.05230137 0.08826548 0.020316685 -0.032456286 0.019873055 -0.03256493 -0.017067894 0.017231293
-0.053674813 0.041657828 0.0569636 0.0015297616 -0.025319695 0.0013678904 -0.042433318 0.022582473
0.053111106 -0.04118141

weight f4 [2, 50, 1, 1, 1]
00000000: 616f 373f 12f0 4a3e eb0d 31bf 49ac 48bf
00000010: 0c3f 523e d682 cd3e e54c ac3e 7f63 123f
00000020: 9578 11bf 5039 273f 94ae 403e 3efb 6e3f
00000030: 8d0a 0a3f ebaa 053f 3cd6 113e 3909 2b3f
00000040: 28c3 b7bc f5cf 61bf eaf3 093f e23c 5b3e
00000050: 1c18 abbe 8eaf 1ebd 73fc 75be 263e 363f
00000060: 8c99 1b3f cc42 47bf e6e1 543f e330 0a3f
00000070: f8ee 42bf eac7 9fbe b763 4f3f 0f41 6fbf
00000080: dd79 743f ff31 6d3f e355 5f3f 3076 51be
00000090: f166 983d 10fd 52bf ceeb 823f eabd a63e
000000a0: 5ae8 b23e a6bc eebe 7dcf f33e b687 363f
000000b0: f6bc 233f bf12 61bf 46e4 b0be 4485 6ebf
000000c0: 1e8f 29be a5ca 99be cfc1 42bf 2ec4 15be
000000d0: 594a f9be 2f8e b9be e9aa 613f ba3a 34be
000000e0: 5790 82bf 3d0a 49bf 275e 3dbf fd01 b6be
000000f0: 1ea0 1b3f ada2 2f3f c027 f03e df11 febe
00000100: d7a5 873e 962c ebbe 97e7 0ebf f6a5 4c3f
00000110: 9afd 0d3f e851 4f3f 6020 d5be cea3 323e
00000120: 7eff 113e 0055 4bbf c4c4 43bf 8728 603f
00000130: 36c9 6fbf d807 d4be f27b 6fbf c034 27be
00000140: 7aa6 fa3e 0f8b 00bf f5f0 b3be 0917 6fbf
00000150: 6368 163f c4e5 f23e 9168 463e 1246 5b3f
00000160: d334 f73d 1bd0 72bf 8f1c 683f 8e2a 30bf
00000170: e4f7 61bf a29b 32bf 73ff 453f 34a8 2fbe
00000180: ccb7 143f 35b3 57bf 1ea8 4cbf e792 053f
0.71654326 0.19818142 -0.6916186 -0.78387886 0.20531863 0.40138882 0.33652416 0.5718307
-0.5682462 0.65321827 0.18816596 0.93352115 0.5392235 0.52213925 0.1424188 0.6681095
-0.022431925 -0.8820794 0.5388781 0.21409944 -0.33416831 -0.03874164 -0.24022083 0.7118858
0.6078117 -0.778363 0.83157194 0.53980845 -0.7614589 -0.3120721 0.8101153 -0.93458647
0.9549845 0.92654413 0.8724043 -0.20455241 0.074415095 -0.8241739 1.0228212 0.32566768
0.34942895 -0.46628302 0.47619238 0.7130083 0.63960207 -0.8791923 -0.3454916 -0.931721
-0.16558501 -0.30037418 -0.7607698 -0.14625618 -0.48689535 -0.3624129 0.88151413 -0.17600527
-1.0200299 -0.7853125 -0.7397179 -0.35548392 0.60791194 0.686076 0.46905327 -0.4962301
0.26493713 -0.45932454 -0.5582213 0.79940736 0.5546509 0.80984354 -0.41626263 0.17445299
0.14257619 -0.79426575 -0.76472116 0.8756184 -0.936664 -0.41412234 -0.935485 -0.16328716
0.48955137 -0.50212187 -0.35144773 -0.93394524 0.5875303 0.47440922 0.19375826 0.85653794
0.12070622 -0.94848794 0.90668577 -0.68814933 -0.88268876 -0.69768727 0.7734291 -0.17154008
0.5809295 -0.84257823 -0.79944026 0.5217728

bias f4 [2]
00000000: 376f 403e a71b 11be
0.18792425 -0.14170705

weight f4 [5]
00000000: 1011 7c3f c624 823f 699c 753f d6c4 823f
00000010: f893 813f
0.98463535 1.0167472 0.9594179 1.021632 1.0123281

bias f4 [5]
00000000: a30a a4bc de42 60bd 0672 dfbd 4f2b aabc
00000010: 0766 4cbd
-0.020024603 -0.05475127 -0.1091042 -0.020772604 -0.04990199

running_mean f4 [5]
00000000: 7af0 0a3f a536 6d41 a24b 4343 b653 c541
00000010: 5bc2 2543
0.5427319 14.825841 195.29544 24.665874 165.7592

running_var f4 [5]
00000000: 9e6d a641 f9b9 4243 5514 a744 6396 9a43
00000010: 1845 8644
20.803524 194.72646 1336.6354 309.1749 1074.1592

weight f4 [10]
00000000: 5d55 753f 62c6 803f 9215 7a3f f81e 7a3f
00000010: c031 803f 3290 853f 4c29 863f 12ce 7e3f
00000020: 0bdd 7a3f 6076 803f
0.9583338 1.0060542 0.97689164 0.97703505 1.0015182 1.043463 1.0481353 0.9953319
0.97993535 1.0036125

bias f4 [10]
00000000: 5717 babb 6f02 99bc d4f4 9fbd 7049 3ebc
00000010: c4b5 fdbc 87db 05be 4fdf 93bd 4f7c e0bb
00000020: fbad d7bc dfcd bebc
-0.005679052 -0.018677918 -0.07810369 -0.011614189 -0.030970462 -0.13072024 -0.07220327 -0.0068507562
-0.026328078 -0.023291526

running_mean f4 [10]
00000000: f99e 543f 4a3f fc3e 8fb6 133f 8c75 fd3e
00000010: bc9d 1f3f c4f6 1b3f cc05 d33e e97f f13e
00000020: 6ba8 c83e f1a3 e43e
0.83055073 0.49267036 0.5770044 0.49503744 0.6235006 0.6092341 0.4121536 0.471679
0.39190993 0.44656327

running_var f4 [10]
00000000: 6909 d73f 18d8 3840 81ff 4d40 f033 643f
00000010: e94c bd40 6217 bf40 22f0 883f 4e9c f53f
00000020: 3168 663f ca2c 0240
1.6799747 2.8881893 3.2187197 0.8914175 5.9156384 5.9716043 1.0698283 1.9188325
0.90002733 2.0339837

weight f4 [20]
00000000: c2e4 763f 465b 833f faa3 813f 970f 813f
00000010: dd35 813f 1b25 7b3f 8967 7e3f 7dcc 803f
00000020: 7b0e 7a3f 318e 7f3f e38d 823f 35b4 7c3f
00000030: d17b 793f 78f6 833f a49b 7e3f 915a 7d3f
00000040: cba8 813f c218 803f e534 803f fa6f 883f
0.96442807 1.026223 1.0128167 1.0082883 1.0094563 0.98103493 0.9937673 1.0062405
0.97678345 0.9982634 1.019955 0.98712474 0.97454554 1.0309591 0.9945624 0.9896632
1.0129637 1.0007555 1.0016142 1.0659173

bias f4 [20]
00000000: f98d 59bc 7bfd 09be 4457 6fbe 5274 23bd
00000010: 041d d0bc 64da a1bd 098f f1bd 5e1a 6c3d
00000020: 7c4a cc3c 6a1b 3c3a db51 97bb 336f be3c
00000030: 7120 8c3d 8efe dabd d0ec 223e f425 39be
00000040: f01c 52bd ae7c b7bd 1f06 6fbd c7ae aabe
-0.013278478 -0.13475601 -0.23373133 -0.039905854 -0.02540446 -0.07902983 -0.1179486 0.057642333
0.02493786 0.0007175716 -0.004617912 0.023246383 0.06842125 -0.10693084 0.1591065 -0.18080884
-0.05129713 -0.08959328 -0.058355447 -0.3333647

running_mean f4 [20]
00000000: fcee 413f d710 7f3f d3b9 9b3f 35b0 253f
00000010: db89 f93f ac14 6b3f e6d2 493f 1400 f53f
00000020: ff6c 4c3f 06e9 023f 452e 1e3f 229c 243f
00000030: 5055 ef3f 34a4 153f 79b1 493f d004 ad3f
00000040: b887 033f 501a 303f 3569 373f df3e aa3f
0.75755286 0.9963507 1.2166084 0.64721996 1.9495195 0.9182842 0.7883743 1.9140649
0.79853815 0.51136816 0.6178935 0.6430074 1.869791 0.5845368 0.78786427 1.3517094
0.51378965 0.6879015 0.7164491 1.3300437

running_var f4 [20]
00000000: 6bd6 1041 6fee 6f41 9a82 ed41 c536 cb40
00000010: 2c92 b03f 8902 2341 74d5 0f41 059f b03f
00000020: 4251 0240 9f96 f33f 5e82 8240 e2ae b140
00000030: 9d29 a93f 2cb7 c840 4b8f ef40 ba56 e141
00000040: ee66 3e40 93b4 d640 16b7 0d41 dba6 0142
9.052348 14.995711 29.68877 6.3504357 1.3794608 10.188119 8.989613 1.3798529
2.0362096 1.9030341 4.078414 5.552598 1.3215824 6.27236 7.486242 28.167347
2.9750323 6.7095428 8.857199 32.412945

weight f4 [50]
00000000: 0000 803f 0000 803f 0000 803f 0000 803f
00000010: 0000 803f 0000 803f 0000 803f 0000 803f
00000020: 0000 803f 0000 803f 0000 803f 0000 803f
00000030: 0000 803f 0000 803f 0000 803f 0000 803f
00000040: 0000 803f 0000 803f 0000 803f 0000 803f
00000050: 0000 803f 0000 803f 0000 803f 0000 803f
00000060: 0000 803f 0000 803f 0000 803f 0000 803f
00000070: 0000 803f 0000 803f 0000 803f 0000 803f
00000080: 0000 803f 0000 803f 0000 803f 0000 803f
00000090: 0000 803f 0000 803f 0000 803f 0000 803f
000000a0: 0000 803f 0000 803f 0000 803f 0000 803f
000000b0: 0000 803f 0000 803f 0000 803f 0000 803f
000000c0: 0000 803f 0000 803f
1.0 1.0 1.0 1.0 1.0 1.0 1.0 1.0
1.0 1.0 1.0 1.0 1.0 1.0 1.0 1.0
1.0 1.0 1.0 1.0 1.0 1.0 1.0 1.0
1.0 1.0 1.0 1.0 1.0 1.0 1.0 1.0
1.0 1.0 1.0 1.0 1.0 1.0 1.0 1.0
1.0 1.0 1.0 1.0 1.0 1.0 1.0 1.0
1.0 1.0

bias f4 [50]
00000000: 0000 0000 0000 0000 0000 0000 0000 0000
00000010: 0000 0000 0000 0000 0000 0000 0000 0000
00000020: 0000 0000 0000 0000 0000 0000 0000 0000
00000030: 0000 0000 0000 0000 0000 0000 0000 0000
00000040: 0000 0000 0000 0000 0000 0000 0000 0000
00000050: 0000 0000 0000 0000 0000 0000 0000 0000
00000060: 0000 0000 0000 0000 0000 0000 0000 0000
00000070: 0000 0000 0000 0000 0000 0000 0000 0000
00000080: 0000 0000 0000 0000 0000 0000 0000 0000
00000090: 0000 0000 0000 0000 0000 0000 0000 0000
000000a0: 0000 0000 0000 0000 0000 0000 0000 0000
000000b0: 0000 0000 0000 0000 0000 0000 0000 0000
000000c0: 0000 0000 0000 0000
0.0 0.0 0.0 0.0 0.0 0.0 0.0 0.0
0.0 0.0 0.0 0.0 0.0 0.0 0.0 0.0
0.0 0.0 0.0 0.0 0.0 0.0 0.0 0.0
0.0 0.0 0.0 0.0 0.0 0.0 0.0 0.0
0.0 0.0 0.0 0.0 0.0 0.0 0.0 0.0
0.0 0.0 0.0 0.0 0.0 0.0 0.0 0.0
0.0 0.0

running_mean f4 [50]
00000000: 0000 0000 0000 0000 0000 0000 0000 0000
00000010: 0000 0000 0000 0000 0000 0000 0000 0000
00000020: 0000 0000 0000 0000 0000 0000 0000 0000
00000030: 0000 0000 0000 0000 0000 0000 0000 0000
00000040: 0000 0000 0000 0000 0000 0000 0000 0000
00000050: 0000 0000 0000 0000 0000 0000 0000 0000
00000060: 0000 0000 0000 0000 0000 0000 0000 0000
00000070: 0000 0000 0000 0000 0000 0000 0000 0000
00000080: 0000 0000 0000 0000 0000 0000 0000 0000
00000090: 0000 0000 0000 0000 0000 0000 0000 0000
000000a0: 0000 0000 0000 0000 0000 0000 0000 0000
000000b0: 0000 0000 0000 0000 0000 0000 0000 0000
000000c0: 0000 0000 0000 0000
0.0 0.0 0.0 0.0 0.0 0.0 0.0 0.0
0.0 0.0 0.0 0.0 0.0 0.0 0.0 0.0
0.0 0.0 0.0 0.0 0.0 0.0 0.0 0.0
0.0 0.0 0.0 0.0 0.0 0.0 0.0 0.0
0.0 0.0 0.0 0.0 0.0 0.0 0.0 0.0
0.0 0.0 0.0 0.0 0.0 0.0 0.0 0.0
0.0 0.0

running_var f4 [50]
00000000: 0000 803f 0000 803f 0000 803f 0000 803f
00000010: 0000 803f 0000 803f 0000 803f 0000 803f
00000020: 0000 803f 0000 803f 0000 803f 0000 803f
00000030: 0000 803f 0000 803f 0000 803f 0000 803f
00000040: 0000 803f 0000 803f 0000 803f 0000 803f
00000050: 0000 803f 0000 803f 0000 803f 0000 803f
00000060: 0000 803f 0000 803f 0000 803f 0000 803f
00000070: 0000 803f 0000 803f 0000 803f 0000 803f
00000080: 0000 803f 0000 803f 0000 803f 0000 803f
00000090: 0000 803f 0000 803f 0000 803f 0000 803f
000000a0: 0000 803f 0000 803f 0000 803f 0000 803f
000000b0: 0000 803f 0000 803f 0000 803f 0000 803f
000000c0: 0000 803f 0000 803f
1.0 1.0 1.0 1.0 1.0 1.0 1.0 1.0
1.0 1.0 1.0 1.0 1.0 1.0 1.0 1.0
1.0 1.0 1.0 1.0 1.0 1.0 1.0 1.0
1.0 1.0 1.0 1.0 1.0 1.0 1.0 1.0
1.0 1.0 1.0 1.0 1.0 1.0 1.0 1.0
1.0 1.0 1.0 1.0 1.0 1.0 1.0 1.0
1.0 1.0
