models/deepvesselnet_mra_final_no_pretrain.model (torch_old, 243978 bytes, 26 tensors)

weight f4 [5, 1, 3, 3, 3]
0	0x3e3eb1c8	0.18622506
1	0xbda7959b	-0.08182832
2	0x3e038fb6	0.1284779
3	0x3d781530	0.06056708
4	0x3e37ef6f	0.1796243
5	0xbd519220	-0.051164746
6	0x3d36c2ce	0.044619374
7	0x3da1d2f4	0.07901564
8	0xbd7f46ba	-0.06232331
9	0xbbda8984	-0.006669225
10	0xbbf1600e	-0.007366187
11	0xbdd3f480	-0.10349369
12	0xbdfcb8a9	-0.12339909
13	0x3d86d304	0.06583217
14	0x3e09ac8e	0.1344473
15	0x3bd402d7	0.006470065
16	0x3d95bff6	0.07312004
17	0x3dbaea08	0.09126669
18	0x3cdcbac2	0.026944522
19	0xbe18401a	-0.14868203
20	0xbe082b0c	-0.13297671
21	0x3d9ce318	0.07660502
22	0x3d57b8b9	0.0526664
23	0x3e1c84cb	0.15285031
24	0xbe30d861	-0.17270042
25	0xbd40aa53	-0.047037434
26	0xbe1c81da	-0.1528391
27	0x3e3b9777	0.18319498
28	0xbd83731c	-0.0641844
29	0x3d35c4fd	0.044377316
30	0x3e3e1336	0.18562016
31	0x3e0b9bd1	0.13633658
32	0xbdc5cefe	-0.09658621
33	0xbdd68566	-0.104746625
34	0xba9f5a51	-0.0012157654
35	0xbda881bd	-0.082278706
36	0x3d63d451	0.055622403
37	0x3d8a95d1	0.067668565
38	0xbdda8709	-0.10670287
39	0xbe12aabb	-0.14322941
40	0x3e13c43c	0.14430326
41	0xbe102133	-0.14075164
42	0x3e294851	0.16531493
43	0x3e111052	0.14166382
44	0xbd88f17a	-0.06686683
45	0x3e19c0d0	0.15014958
46	0xbdee7243	-0.116428874
47	0x3dc14a09	0.09437949
48	0x3d7370ce	0.05943375
49	0xbd9fcece	-0.07803117
50	0x3e0731cc	0.1320259
51	0x3de9ffb9	0.11425728
52	0xbd931544	-0.071817905
53	0x3db4a966	0.08821373
54	0xbd627135	-0.055283744
55	0xbe5f0692	-0.2177985
56	0xbe1adbeb	-0.15122955
57	0x3ddc54f7	0.10758393
58	0xbcbae301	-0.022813322
59	0xbd38d638	-0.04512617
60	0xbe3f5e9d	-0.18688436
61	0x3dfc0355	0.12305323
62	0xbe4d63d7	-0.20057617
63	0xbe7809ba	-0.2422246
64	0xbd284d7b	-0.041089516
65	0xbe6845b9	-0.22682847
66	0x3d80ac3c	0.06282851
67	0x3e390ef6	0.18072113
68	0xbe2a1838	-0.16610801
69	0xbc999b37	-0.01875077
70	0x3dfd85bd	0.12379024
71	0xbe4caa00	-0.19986725
72	0xbbba5872	-0.005686813
73	0x3cba112a	0.022713263
74	0xbd58f193	-0.052964758
75	0xbd8d5cc8	-0.06902462
76	0xbc7b6646	-0.015344208
77	0xbe0c3c4d	-0.13694878
78	0x3da7a31b	0.08185407
79	0x3d5f87cd	0.05457287
80	0xbda6594e	-0.08122502
81	0x3db8b85b	0.09019538
82	0xbdf1311c	-0.11776945
83	0xbd71f8eb	-0.059075277
84	0x3df03d1d	0.117304064
85	0xbd1907a1	-0.03736079
86	0xbc8fd4c6	-0.017557513
87	0xbe4b25b8	-0.19838607
88	0xbcb63c6d	-0.02224561
89	0xbd349c9b	-0.044094663
90	0x3d5fd7ed	0.054649282
91	0xbc1a86df	-0.00943157
92	0xbd5c35f8	-0.053762406
93	0xbc143ba7	-0.009047425
94	0x3e1a0e10	0.15044427
95	0xbe01f5d4	-0.12691432
96	0x3cd9d287	0.026589645
97	0xbdb25b43	-0.08708813
98	0xbe1d0d3d	-0.15337081
99	0x3d036ac5	0.032084245
100	0x3d40f3da	0.047107555
101	0x3df4b518	0.119486034
102	0x3ddfc678	0.10926527
103	0x3de8bdc1	0.11364318
104	0x3d7c24ff	0.06155872
105	0x3dd3a888	0.10334879
106	0xbccabee7	-0.024749232
107	0x3bc09fc6	0.0058784215
108	0xbe54dfdf	-0.20788525
109	0x3c9495c4	0.01813782
110	0xbd9575d7	-0.07297867
111	0x3c36eef2	0.011165367
112	0x3cd339b7	0.025784357
113	0x3dff9da5	0.1248124
114	0xbe20bd8f	-0.15697311
115	0x3e01fc0f	0.12693809
116	0x3dcdad79	0.10042853
117	0xbcb5aac7	-0.02217616
118	0xbde68340	-0.11255503
119	0xbc0ca1d0	-0.008583501
120	0xbe14dca6	-0.14537296
121	0xbe304d4c	-0.17216986
122	0xbd6ebc90	-0.058285296
123	0x3c4fb24d	0.012676788
124	0xbe12e079	-0.14343442
125	0xbd10c675	-0.035345513
126	0x3c7c2cc4	0.015391532
127	0x3cbb5579	0.022867905
128	0xbdd82dc9	-0.10555608
129	0xbe621c6b	-0.22081153
130	0x3def60cb	0.11688384
131	0x3e0e1fdc	0.13879341
132	0xbdffdda9	-0.1249345
133	0x3dbb7636	0.09153406
134	0xbd9f16ea	-0.077680424

bias f4 [5]
0	0xbdd0daed	-0.10198007
1	0xbd80badd	-0.06285641
2	0xbe27f1e9	-0.16400875
3	0xbe0cde04	-0.13756567
4	0x3deedaa3	0.116627954

weight f4 [10, 5, 5, 5, 5]
0	0x3d538e04	0.05164911
1	0x3d813163	0.06308248
2	0x3ca3439e	0.019929703
3	0x3cbc96e0	0.023021162
4	0x3bd3c96f	0.0064632217
5	0xbd72e801	-0.059303287
6	0xbd171f59	-0.03689513
7	0x3d1c6640	0.03818345
8	0xbd46660c	-0.048437163
9	0x3c8944f5	0.016756514
10	0x3d5eb8ca	0.054375447
11	0x3bff8106	0.007797363
12	0xbcf5f146	-0.030022275
13	0x3d2f11ec	0.0427417
14	0xbd68130a	-0.056658782
15	0xbc8511c8	-0.01624383
16	0x3d700880	0.058601856
17	0x3d8da4ad	0.06916175
18	0xbb6e3e7d	-0.0036353164
19	0xbd4b3a7a	-0.049616314
20	0xbd0678de	-0.03283011
21	0xbd05c68b	-0.03266005
22	0x3d94f966	0.072741315
23	0xbd35c939	-0.044381354
24	0xba179180	-0.0005781874
25	0xbda9e7ea	-0.08296187
26	0xbdaa2d55	-0.08309428
27	0x3d9c684e	0.07637082
28	0xbd902692	-0.07038607
29	0xbcad524b	-0.021157404
30	0x3d1104ae	0.035404854
31	0x3d37c579	0.04486606
32	0xbc4b36a8	-0.012403168
33	0x3d816385	0.0631781
34	0xbda0ac89	-0.078454085
35	0x3c36f6dc	0.011167254
36	0x3d53bfdd	0.051696647
37	0x3d5ac0e8	0.053406626
38	0xbdabb979	-0.083849855
39	0x3b68dffd	0.0035533898
40	0x3d3874cc	0.04503326
41	0xbd8e352f	-0.06943738
42	0x3d2b1a47	0.041773107
43	0x3ca3c135	0.01998959
44	0x3d83aafe	0.064290985
45	0xbd89d262	-0.067295805
46	0x3bfdaec1	0.0077417796
47	0xbd978e76	-0.07400219
48	0x3d6e52a4	0.05818428
49	0xbd861fe6	-0.06549053
50	0x3c88a187	0.016678585
51	0xbd8c30e1	-0.068452604
52	0xbd152d26	-0.03642001
53	0xbd484173	-0.048890542
54	0xb85c85cc	-5.2576695e-05
55	0x3d17f28c	0.037096545
56	0x3d3d8115	0.04626568
57	0xbd3b149c	-0.04567395
58	0x3d84a3c7	0.064765505
59	0x3d84adb0	0.06478441
60	0xbd1c1565	-0.03810634
61	0x3cd8bf3c	0.026458375
62	0xbc544654	-0.012956221
63	0x3d2d6a65	0.042337794
64	0x3d03e3cf	0.032199677
65	0x3ca219d5	0.019787708
66	0x3d3b0d3b	0.045666914
67	0xbd54f490	-0.051991045
68	0x3d1c78ea	0.03820125
69	0x3c59f10c	0.013302099
70	0x3d5345ad	0.05158012
71	0x3c8a59f8	0.016888604
72	0x3d820ba3	0.06349876
73	0xbd079259	-0.033098552
74	0x3d4fc90e	0.05072885
75	0xbd90f0dc	-0.0707719
76	0xbd8ed908	-0.06974989
77	0x3d2ebedf	0.042662498
78	0xbdb5bbda	-0.088737205
79	0xbd44c370	-0.048037946
80	0xbd54a205	-0.051912326
81	0xbd8c1011	-0.06839002
82	0x3d6655bb	0.056234103
83	0x3d8395bb	0.06425043
84	0xbd3e5778	-0.046470135
85	0xbcf6d31a	-0.030129958
86	0x3ce3d4f0	0.027811497
87	0x3cbe40d1	0.023224266
88	0x3cbf2b04	0.023335941
89	0x3d3816f4	0.044943765
90	0x3d42cf0e	0.047560744
91	0xbda94b42	-0.082663074
92	0xbd38a0ae	-0.04507511
93	0x3c4f56ec	0.012655001
94	0x3d2b0331	0.04175109
95	0x3d997b04	0.074941665
96	0xbd97d5ad	-0.07413802
97	0x3c870e47	0.0164863
98	0x3d9a79a8	0.07542735
99	0x3d4c6f24	0.04991068
100	0x3d9469ab	0.07246717
101	0xbd938d91	-0.07204736
102	0xbdb3693d	-0.08760307
103	0xbcd073ec	-0.0254459
104	0xbc1cd016	-0.009571096
105	0x3c1771c6	0.009243434
106	0x3d7995ef	0.060934003
107	0x3cf97f88	0.03045632
108	0xbd49ea25	-0.049295563
109	0xbc81f168	-0.015862182
110	0xbdb61464	-0.08890608
111	0xbc664e45	-0.014056747
112	0x3cc8ba08	0.02450277
113	0xbcdb463d	-0.02676689
114	0x3d8c3ed5	0.06847922
115	0xbdab2af0	-0.08357799
116	0xbd946c98	-0.07247275
117	0xbd0d77db	-0.03453813
118	0xbd7317b1	-0.059348766
119	0x3bb6a95d	0.005574389
120	0x3c94f4c4	0.01818312
121	0xbd822397	-0.063544445
122	0x3d98c2e9	0.07459051
123	0xbd3ce305	-0.04611494
124	0xbd2f3699	-0.042776678
125	0x3d07d209	0.03315929
126	0x3d7dd074	0.061966375
127	0xbd82ab2b	-0.06380304
128	0x3c7e0f43	0.015506568
129	0xbd93ca7f	-0.072163574
130	0xbd12275c	-0.035682067
131	0x3d71ea5d	0.059061397
132	0x3cdc625f	0.026902376
133	0x3d357927	0.044304993
134	0x3d380814	0.04492958
135	0xbc8c4d2c	-0.017126642
136	0xbd30e4f6	-0.043187104
137	0x3d8b8a70	0.06813514
138	0x3d728051	0.059204403
139	0xbd873b6b	-0.0660313
140	0xbda3d179	-0.07998938
141	0xbd7d3fc9	-0.06182841
142	0x3d5e3346	0.054248117
143	0xbd55cea9	-0.05219904
144	0xbd5d9133	-0.05409355
145	0x3c03b87a	0.008039588
146	0xbd058151	-0.03259403
147	0x3d04ed89	0.032453094
148	0x3d6a15d8	0.057149738
149	0xbd80198c	-0.06254873
150	0xbd8876dc	-0.066632956
151	0xbc953b1d	-0.018216664
152	0x3d0558b5	0.0325553
153	0xbd4aab39	-0.049479697
154	0x3d829933	0.06376877
155	0x3d846816	0.06465165
156	0xbd151f19	-0.03640661
157	0xbd7d58c7	-0.061852243
158	0x3d9be738	0.07612461
159	0x3cc5595b	0.02409046
160	0x3cc1888d	0.023624683
161	0xbd96edf3	-0.07369604
162	0x3cd6e40e	0.026231792
163	0xbd1a6fa7	-0.037704136
164	0xbd9ffc89	-0.07811839
165	0xbc5c7f0a	-0.013458023
166	0xbd56fd4e	-0.052487664
167	0x3c85b79c	0.016322903
168	0x3d7c95a0	0.06166613
169	0x3ccdc57e	0.025118586
170	0xbcb13850	-0.021633297
171	0xbd680402	-0.056644447
172	0xbc4f7208	-0.0126614645
173	0x3cf0dc56	0.02940194
174	0xbdac7b1a	-0.08421917
175	0x3d0f2f37	0.034957137
176	0xbdac937d	-0.08426569
177	0x3c17e691	0.00927128
178	0xbd6b050d	-0.057377864
179	0xbcd4a379	-0.025956856
180	0xbc8d0c46	-0.017217766
181	0xbd7e536f	-0.062091287
182	0xbce308b5	-0.027714113
183	0xbdb100f2	-0.086427584
184	0xbcca608a	-0.024704237
185	0xbbb83c6e	-0.005622438
186	0xbda87cd7	-0.08226936
187	0x3d8d2844	0.06892446
188	0x3d301538	0.042988986
189	0xbda84420	-0.08216119
190	0x3c288b67	0.010287142
191	0xbc76893e	-0.0150473695
192	0xbd920b9f	-0.07131123
193	0x3d8331bf	0.06405973
194	0x3d220880	0.039558887
195	0xbc3765d6	-0.011193713
196	0xbd4803c6	-0.048831724
197	0xbd9d7731	-0.076887496
198	0x3ca57ae9	0.02020021
199	0xbc33db05	-0.010977511
200	0xbd817988	-0.06322008
201	0xbce5dfb3	-0.02806077
202	0x3d9ed87c	0.07756135
203	0xbd57c3fc	-0.05267714
204	0x3cfe9cd7	0.031080646
205	0x3d78e6c2	0.060766943
206	0x3d95f9f5	0.07323066
207	0x3ce6dba2	0.028180901
208	0xbd092bed	-0.033489157
209	0xbc0cb94f	-0.008589103
210	0xbb0eb563	-0.0021775595
211	0xbd796499	-0.060886953
212	0x3d99d3b6	0.07511084
213	0xbd95fe4a	-0.073238924
214	0xbd813166	-0.0630825
215	0xbd21e46d	-0.039524484
216	0x3d320520	0.04346192
217	0xbd7cd78b	-0.061728995
218	0xbd678485	-0.056522865
219	0x3cafcb24	0.02145917
220	0xbd0b4981	-0.034005646
221	0x3d29af34	0.041426852
222	0x3cc90fc5	0.024543652
223	0xbcbb510b	-0.022865793
224	0x3cd51b9c	0.026014142
225	0x3ca6f47e	0.020380255
226	0xbd95fcdc	-0.0732362
227	0xbba10f76	-0.004915173
228	0xbd56190d	-0.052269984
229	0xbd84c134	-0.06482163
230	0xbcbd82fe	-0.023133751
231	0xbd84f405	-0.064918555
232	0xbd7b1cd7	-0.0613068
233	0x3d9468d6	0.07246558
234	0xbcb09232	-0.021554086
235	0x3c024be7	0.007952667
236	0xbce35652	-0.027751122
237	0x3c89cc8d	0.01682117
238	0x3cb2c2df	0.021821437
239	0xbd8abd8e	-0.06774436
240	0xbd193960	-0.037408233
241	0xbc024f35	-0.007953455
242	0x3d907880	0.070542336
243	0xbce61adc	-0.02808898
244	0x3d4db09a	0.05021725
245	0xbd502e47	-0.050825384
246	0xbd91dbd5	-0.07122008
247	0x3d4e0711	0.050299708
248	0xbcb70899	-0.022342967
249	0x3d64acd3	0.05582888
250	0xb9d382d1	-0.00040342522
251	0xbc923817	-0.017849011
252	0xbd41ad92	-0.04728467
253	0xbd1e5e7f	-0.038664337
254	0xbd51b346	-0.05119636
255	0xb9e22f38	-0.0004314126

bias f4 [10]
0	0xb79b5eba	-1.852155e-05
1	0x3c88de24	0.016707487
2	0xbd0219ae	-0.03176277
3	0xbca29815	-0.019847909
4	0xbc189830	-0.009313628
5	0x3cba68fe	0.022755142
6	0xbc0a48a1	-0.008440168
7	0x3d0685aa	0.032842316
8	0x3b3505a0	0.002762176
9	0xbd114a05	-0.03547098

weight f4 [20, 10, 5, 5, 5]
0	0x3d5bc9e4	0.053659335
1	0x3cd087f1	0.025455447
2	0xbd914369	-0.070929356
3	0xbd159758	-0.036521286
4	0x3d867327	0.06564932
5	0x3d6d0dc8	0.05787447
6	0xbd0570a7	-0.032578137
7	0xbcad4789	-0.021152275
8	0xbd88b2d5	-0.066747345
9	0xbc01a32d	-0.007912439
10	0xbcee5d78	-0.029097304
11	0xbd2fa18b	-0.04287867
12	0xbc62163f	-0.013799249
13	0x3c8329d8	0.016011164
14	0x3d8c3c37	0.068474226
15	0xbb91e795	-0.0044526556
16	0xbccb9bbb	-0.024854532
17	0xbc646c5e	-0.013941852
18	0x3ca51eb0	0.020156235
19	0x3d95617a	0.07293983
20	0xbd96714f	-0.07345831
21	0x3d67e90f	0.056618746
22	0xbd1887a0	-0.037238717
23	0xbbb7454c	-0.0055929776
24	0x3d7c47de	0.061591975
25	0x3ad53e3b	0.0016269156
26	0xbaf71244	-0.0018850048
27	0x3daec71b	0.0853407
28	0xbcc2007b	-0.02368187
29	0x3cb60c04	0.022222526
30	0xbd4a3514	-0.049367025
31	0xbd4a1c28	-0.04934326
32	0x3b6abba1	0.0035817402
33	0x3d4b0da1	0.049573544
34	0xbcde11d1	-0.027108105
35	0xbd87be31	-0.06628073
36	0x3dae5439	0.08512158
37	0xbbee3fa2	-0.007270769
38	0xbd6c8d7b	-0.057752114
39	0xbda4e885	-0.08052162
40	0xbd07da05	-0.033166904
41	0x3ada5852	0.0016658402
42	0x3d8c8914	0.06862083
43	0x3d65ff7a	0.056151845
44	0xbd90e0b9	-0.070741124
45	0xbc65b863	-0.014021012
46	0xbc9d9939	-0.019238101
47	0xbd9907ff	-0.07472228
48	0xbd92aac7	-0.071614794
49	0x3cb9a2ea	0.022660691
50	0xbd88a113	-0.066713475
51	0xbd9c327e	-0.07626818
52	0xbd8c7b24	-0.06859425
53	0xbcb66b55	-0.022267977
54	0x3c978646	0.018496644
55	0x3d0bab3e	0.034098856
56	0x3d3799fe	0.044824593
57	0x3cfacd4e	0.030615475
58	0x3d5dad72	0.05412049
59	0xbd9a4d77	-0.075343065
60	0x3d320973	0.043466043
61	0xbd326fb5	-0.043563563
62	0xbce0ae06	-0.02742673
63	0xbd517e0a	-0.05114559
64	0xbb5bf577	-0.0033563056
65	0xbd011889	-0.03151754
66	0xbd79248f	-0.06082588
67	0xbd1d1bda	-0.03835664
68	0x3c954340	0.018220544
69	0x3d2b295e	0.041787498
70	0x3d9f9aad	0.07793174
71	0x3d5804de	0.052739017
72	0xb9275098	-0.00015956385
73	0xbd279a98	-0.040918916
74	0xbc4ee696	-0.012628218
75	0xbc75ce1c	-0.015002754
76	0x3c5d5581	0.013509155
77	0x3d2aff0d	0.04174714
78	0xbd07376a	-0.03301183
79	0x3d97eff2	0.07418813
80	0xbd168177	-0.03674456
81	0x3c232285	0.009956961
82	0xbd4e1400	-0.050312042
83	0xbd54b22b	-0.051927727
84	0x3bd76617	0.0065734494
85	0x3d8f851e	0.07007812
86	0xbda7c706	-0.081922576
87	0xbc4dbeb8	-0.012557678
88	0x3d996e00	0.07491684
89	0x3c0bd2fa	0.008534187
90	0x3d59657e	0.053075306
91	0xbd242124	-0.040070668
92	0x3c8508b6	0.016239505
93	0xbda006df	-0.078138106
94	0xbcfcbb98	-0.03085117
95	0xbda77ebb	-0.08178469
96	0xbca26b25	-0.019826481
97	0x3c3ad996	0.011404416
98	0xbd4c0449	-0.049808774
99	0x3d11c276	0.035585843
100	0x3da4510b	0.0802327
101	0xbd705652	-0.05867607
102	0xbb5b9751	-0.003350694
103	0xbbd8bedc	-0.006614549
104	0x3ce4061b	0.027834943
105	0xbcc5b357	-0.024133367
106	0x3d73c721	0.059516076
107	0xbd9f02a2	-0.07764174
108	0x3bb26b06	0.005444887
109	0xbd25c24a	-0.04046849
110	0xbd22cea7	-0.03974786
111	0xbd626ac6	-0.05527761
112	0x3c9cd656	0.019145172
113	0x3c14ca1e	0.009081392
114	0x3da67ab3	0.08128872
115	0x3cb7ee34	0.022452451
116	0x3d99d344	0.07510999
117	0x3ae6294e	0.0017559917
118	0xbbcd3c26	-0.006263274
119	0x3cf60b4b	0.030034682
120	0x3ce9ff85	0.028564224
121	0x3da4a272	0.080387965
122	0xbd5c4358	-0.05377516
123	0x3c7b2c0e	0.015330328
124	0x3da4fb66	0.08055763
125	0x3c5ebdd0	0.0135950595
126	0x3d97dca0	0.07415128
127	0x3d5ac3f2	0.053409524
128	0xbd5767ef	-0.052589353
129	0x3cff7391	0.031183036
130	0xbd6fc209	-0.058534656
131	0xbc993245	-0.018700728
132	0xbd566d80	-0.05235052
133	0x3cfe33b2	0.03103051
134	0x3bd56ff3	0.0065135895
135	0xbd859e86	-0.065243766
136	0x3c0f2889	0.008737692
137	0xbd822944	-0.06355527
138	0x3d7a4dec	0.06110947
139	0xbd82acc4	-0.06380609
140	0x3b561b66	0.003267014
141	0x3d8390f8	0.06424135
142	0x3cd9ffc9	0.026611226
143	0xbb888357	-0.0041660476
144	0xbcf131f1	-0.02944276
145	0xbd078306	-0.033083938
146	0x3d87aebe	0.06625126
147	0x3d4fc0f0	0.05072111
148	0xbd42378b	-0.04741625
149	0x3c90ac8e	0.017660405
150	0x3c382e3e	0.011241494
151	0xbda59d6e	-0.08086668
152	0x3d75741b	0.05992518
153	0xbc9bea77	-0.0190327
154	0xbcf2a287	-0.029618515
155	0x3d719ecb	0.058989327
156	0xbd8c5b83	-0.06853392
157	0xbd6f3bdc	-0.058406696
158	0xbd94f2b3	-0.07272854
159	0xbd064018	-0.03277597
160	0x3c917e94	0.017760552
161	0x3cf82d42	0.030295018
162	0xbba744fe	-0.00510466
163	0x3d78eaa4	0.060770646
164	0xbd84c1bc	-0.064822644
165	0xbcac1c1c	-0.021009497
166	0x3d107792	0.03527028
167	0x3d875faa	0.06610043
168	0x3d1f4fd6	0.038894497
169	0xbd829967	-0.063769154
170	0xbc3c3de8	-0.011489369
171	0x3d281ee1	0.041045073
172	0xbd0bd894	-0.034142092
173	0x3d646a8d	0.055765677
174	0xbd606092	-0.054779597
175	0xbd5e06aa	-0.054205574
176	0xbd849e2e	-0.06475483
177	0xbd2489ab	-0.040170353
178	0x3b243a18	0.002505904
179	0x3c0a0b7f	0.008425592
180	0xbc209c50	-0.009802893
181	0xbd9675f5	-0.07346717
182	0x3d92525b	0.07144614
183	0xbdbccf2b	-0.09219202
184	0xbd7de0ec	-0.06198208
185	0xbd9bd87a	-0.07609649
186	0xbd6d5fd0	-0.057952702
187	0x3b55e091	0.0032635073
188	0xbdb665ea	-0.08906157
189	0xbd5ab968	-0.053399473
190	0x3cdd6461	0.027025403
191	0x3cbdb86f	0.023159234
192	0xbd32c3cf	-0.04364377
193	0xbbb5bd55	-0.005546252
194	0xbc046509	-0.008080729
195	0x3d183363	0.03715838
196	0xbc9c9c58	-0.01911752
197	0xbd9f46d0	-0.07777178
198	0x3d65ff56	0.05615171
199	0xbd598d61	-0.053113345
200	0x3ca8d1a2	0.020607773
201	0xbbabb2af	-0.0052398066
202	0x3d197699	0.03746662
203	0x3d9d3b16	0.076772854
204	0xbd06f0cd	-0.03294449
205	0xbd150917	-0.036385622
206	0xbd9f7cfc	-0.07787511
207	0xbbcd80f3	-0.0062714755
208	0xbd8dab41	-0.0691743
209	0x3cd8190b	0.026379129
210	0xbcdff015	-0.02733616
211	0xbbc13485	-0.0058961534
212	0x3d81c511	0.063364156
213	0xbd5c937d	-0.053851593
214	0x3d56cef2	0.052443452
215	0xbd4d7050	-0.050155938
216	0xbd4d66c3	-0.05014683
217	0x3cedc9dc	0.029026918
218	0xbd5f66fd	-0.054541577
219	0xbda65a3f	-0.08122682
220	0x3d3af325	0.045642037
221	0x3ce40db6	0.02783857
222	0x3d428824	0.047493115
223	0xbd82e945	-0.06392149
224	0xbd981b81	-0.07427121
225	0x3c91ddf9	0.01780604
226	0x3d7059b3	0.058679294
227	0x3c33c8dc	0.010973182
228	0x3d587c8d	0.052853156
229	0x3d94a5ef	0.07258212
230	0xbd3787e5	-0.044807333
231	0xbd235069	-0.039871607
232	0x3cfc0303	0.030763155
233	0xba099e4e	-0.00052497245
234	0x3d42d3d3	0.047565293
235	0x3d371ff7	0.04470822
236	0x3c7e1f99	0.015510463
237	0x3ca19f29	0.019729214
238	0x3d9e9f21	0.07745195
239	0x3c0b90cb	0.008518408
240	0xbc41821b	-0.011810805
241	0x3ca4f92d	0.020138348
242	0xbd8b4286	-0.06799798
243	0x3d954226	0.072880074
244	0xbc1f7694	-0.009732861
245	0x3baa3d12	0.0051952684
246	0xbd202dbd	-0.03910612
247	0x3bd62e42	0.006536276
248	0xbd935c72	-0.07195367
249	0xbca58583	-0.020205265
250	0xbd21e24d	-0.039522458
251	0xbd85ec84	-0.065392524
252	0xbda0c2f4	-0.07849684
253	0x3b0224fe	0.0019858475
254	0xbcdde6d8	-0.027087614
255	0xbcd0c682	-0.02548528

bias f4 [20]
0	0x3ca69423	0.020334309
1	0xbbf999ca	-0.00761721
2	0xbbdf75e7	-0.006819475
3	0x3cc8d001	0.024513246
4	0xbcab588f	-0.020916251
5	0x3cafb582	0.021448854
6	0xbbbba0f1	-0.005725973
7	0xbbdd02e8	-0.006744731
8	0xbbfe1314	-0.007753739
9	0xbac22021	-0.00148106
10	0x3bba97b0	0.005694352
11	0xbbcba74c	-0.0062150117
12	0x3c8db17e	0.017296549
13	0x3ba25467	0.004953909
14	0xbcd198d0	-0.025585562
15	0x3c370824	0.0111713745
16	0xbc2f18a9	-0.010687032
17	0x3c8cea96	0.017201703
18	0xbca8bfff	-0.020599363
19	0xbc78c723	-0.015184197

weight f4 [50, 20, 3, 3, 3]
0	0xbdd8deaa	-0.10589345
1	0x3dd8ae62	0.10580136
2	0x3dffa99e	0.12483524
3	0xbe1decd4	-0.15422374
4	0x3e218eb6	0.15777096
5	0xbe072195	-0.13196404
6	0x3d898546	0.06714873
7	0xbdb1a8b7	-0.08674758
8	0xbc86b709	-0.0164447
9	0x3d2d0087	0.04223683
10	0x3d8a3c1c	0.06749746
11	0xbdadb813	-0.08482375
12	0x3d934b13	0.07192054
13	0x3e056fb3	0.13030891
14	0x3de85f75	0.11346332
15	0xbe21dd68	-0.15807116
16	0x3d05581c	0.03255473
17	0xbc3fc9d1	-0.011705832
18	0xbe1ca82b	-0.15298526
19	0xbd253701	-0.04033566
20	0xbe25ab81	-0.16178705
21	0xbcea672a	-0.028613646
22	0xbda5a3dd	-0.08087895
23	0x3dd60c35	0.10451547
24	0xbd9c9d27	-0.07647162
25	0xbd2ea776	-0.042640172
26	0x3e1909de	0.1494517
27	0x3dfd19d4	0.12358442
28	0xbd41cd6b	-0.047315042
29	0x3dab2f0e	0.08358584
30	0xbe3b1ab5	-0.18271907
31	0xbdf936dd	-0.121686675
32	0xbe28fedc	-0.16503471
33	0x3d6ddeb0	0.0580737
34	0x3dbce894	0.09224048
35	0x3e27003c	0.16308683
36	0xbe0a2a51	-0.13492705
37	0xbdab5348	-0.08365494
38	0xbdc54807	-0.09632879
39	0xbc75e5f2	-0.0150084365
40	0xbdefc953	-0.117083214
41	0x3e0373f1	0.12837197
42	0x3d9988d8	0.07496804
43	0x3d065b50	0.032801926
44	0xbd8b5a4c	-0.06804332
45	0x3e1740e9	0.14770855
46	0xbe00ae69	-0.12566532
47	0xbd57c934	-0.052682117
48	0x3d856b6e	0.06514631
49	0xbdaada1c	-0.08342382
50	0xbd5ac3b8	-0.05340931
51	0xbe1fda7c	-0.15610689
52	0xbd06c804	-0.032905594
53	0xbd20b8a5	-0.03923859
54	0x3dddc058	0.10827702
55	0x3de843c5	0.11341051
56	0x3d77f32d	0.060534645
57	0xbd872988	-0.06599718
58	0x3db81ec8	0.08990246
59	0xbe04bd8a	-0.12962928
60	0xbdea4fcb	-0.114410006
61	0xbe0b049d	-0.13575979
62	0x3ded3f23	0.11584308
63	0x3da305f2	0.07960118
64	0xbe333982	-0.17502406
65	0x3e10de5e	0.14147326
66	0xbc89620b	-0.016770383
67	0x3cb5d95f	0.022198377
68	0x3db50d93	0.0884048
69	0xbde77323	-0.113012575
70	0xbe1efe6c	-0.15526742
71	0xbcc1c0d0	-0.02365151
72	0xbd48a02e	-0.048980884
73	0xbd9f6670	-0.0778321
74	0x3e28f25e	0.16498706
75	0xbddee69c	-0.10883829
76	0x3ba7a7cc	0.0051164385
77	0xbdcfe61f	-0.10151314
78	0x3e117349	0.14204134
79	0x3e232a91	0.15934207
80	0xbdf30fae	-0.11868225
81	0xbdf5e473	-0.12006464
82	0xbdc6ef7f	-0.09713649
83	0xbd3163bd	-0.04330801
84	0xbdb934f0	-0.090433
85	0xbd94eb12	-0.072713986
86	0x3e1e5d55	0.15465291
87	0xbd9d4469	-0.07679064
88	0x3cbbeb55	0.022939363
89	0xbe1385d2	-0.14406517
90	0xbe13801b	-0.14404337
91	0xbe1acf83	-0.15118222
92	0x3df002ea	0.11719306
93	0x3daeb139	0.08529896
94	0x3df9f4a6	0.12204866
95	0xbd9870cb	-0.074433886
96	0xbd45ca09	-0.04828838
97	0xbdaca500	-0.08429909
98	0x3de4e968	0.11177331
99	0x3e03599c	0.12827152
100	0xbd77573c	-0.060385928
101	0x3d29efaa	0.041488327
102	0xbde2b79c	-0.11070177
103	0x3ca7bf4e	0.020476963
104	0xbe12e91e	-0.1434674
105	0x3e14a2e5	0.14515264
106	0x3d40aeb2	0.047041602
107	0xbe012ba2	-0.12614301
108	0x3d8e46aa	0.06947072
109	0x3d525c85	0.051357765
110	0xbdfa39e1	-0.12218071
111	0xbdb65918	-0.08903712
112	0xbe0933db	-0.13398688
113	0xbe25bda9	-0.16185631
114	0x3e16901d	0.14703412
115	0x3e00ab23	0.12565283
116	0x3d50b1ff	0.050951
117	0xbe30feb6	-0.17284665
118	0xbd3ea782	-0.046546467
119	0x3cc4507e	0.023964163
120	0xbde42501	-0.111398704
121	0x3d7f0975	0.06226488
122	0x3e1162d6	0.14197859
123	0x3dd37b6b	0.103262745
124	0x3cc9c257	0.024628801
125	0xbe1a82e8	-0.15089
126	0xbd8950bc	-0.06704852
127	0x3db790c9	0.089631625
128	0xbe407b47	-0.18797027
129	0x3dcb0218	0.09912509
130	0xbe40af8d	-0.18816967
131	0xbdaf23ef	-0.08551776
132	0x3e25e767	0.16201554
133	0xbc354a41	-0.011065067
134	0x3e02227c	0.12708467
135	0x3d957d17	0.072992496
136	0x3e1c122c	0.15241307
137	0xbe3d0488	-0.1845876
138	0xbda7e89f	-0.08198666
139	0x3db299df	0.08720755
140	0x3d5e8002	0.054321297
141	0x3da378ba	0.07982011
142	0x3a81310d	0.0009856537
143	0xbe1d526a	-0.1536347
144	0xbdc2191c	-0.094774455
145	0xbd91c5cd	-0.07117806
146	0xbdd22ba4	-0.1026223
147	0x3d4accc8	0.0495117
148	0xbc428c0e	-0.011874212
149	0x3d7318ed	0.059349943
150	0x3d7a4f89	0.061111007
151	0xba487e07	-0.0007648174
152	0xbd30301a	-0.043014623
153	0xbd037449	-0.03209332
154	0xbe167851	-0.14694335
155	0x3bc1023f	0.0058901603
156	0x3e24d8dd	0.16098352
157	0x3d8486f9	0.064710565
158	0xbdeb5100	-0.11490059
159	0xbda610cf	-0.08108675
160	0x3e120447	0.14259444
161	0xbde969d8	-0.11397141
162	0x3e11196a	0.14169851
163	0xbd9de823	-0.07710292
164	0xbd0c1920	-0.03420365
165	0x3dd731f6	0.10507576
166	0x3bef4dcd	0.0073029757
167	0xbdb9a69c	-0.09064981
168	0x3cb458b7	0.022014959
169	0xbdbd8f46	-0.09255843
170	0xbe3b3a84	-0.1828404
171	0xbcb4dd2c	-0.02207812
172	0x3e2946a0	0.16530848
173	0xbdb36fb0	-0.08761537
174	0x3dd598d5	0.10429541
175	0x3da77ff6	0.081787035
176	0x3cb44e30	0.022009939
177	0x3daef687	0.08543115
178	0x3e09ae3f	0.13445376
179	0xbe1661c4	-0.14685732
180	0x3dbf6347	0.093451075
181	0x3d8cec4c	0.068810076
182	0x3df59442	0.119911686
183	0xbdae32af	-0.08505761
184	0xbcbd4bc2	-0.023107413
185	0x3d8cf24f	0.06882154
186	0xbbf498c8	-0.007464502
187	0x3dfa0b67	0.12209206
188	0xbd1b2155	-0.037873585
189	0xbd82f808	-0.063949645
190	0x3c6b7e2b	0.0143733425
191	0x3ddec398	0.1087715
192	0x3e1ec243	0.15503792
193	0xbe23d037	-0.15997396
194	0x3d05bbbc	0.03264974
195	0xbc84a04f	-0.016189722
196	0x3e0fd284	0.14045149
197	0xbb75accd	-0.003748703
198	0xbe09a029	-0.13440003
199	0x3d0f3cfc	0.03497027
200	0xbd018ac2	-0.03162647
201	0xbde1ffc0	-0.110351086
202	0xbd27fd2d	-0.04101293
203	0x3e0166b9	0.12636842
204	0xbe136c9e	-0.14396903
205	0xbe0508b8	-0.12991607
206	0xbe1306cc	-0.14358062
207	0x3df24c92	0.11831011
208	0x3cb47134	0.022026636
209	0x3d68d301	0.056841854
210	0x3e147f45	0.14501674
211	0x3d0f80ed	0.035035063
212	0xbb3123a0	-0.002702929
213	0xbde1856f	-0.110117786
214	0x3e09e080	0.13464546
215	0x3dae5f01	0.08514214
216	0x3dc8d842	0.09806873
217	0x3e1116b1	0.14168812
218	0x3d557d1a	0.05212126
219	0xbc26dc17	-0.010184309
220	0x3d9b57f0	0.07585132
221	0xbe15ede7	-0.14641534
222	0x3caf0b7a	0.021367777
223	0xbde8ed27	-0.11373358
224	0xbd5e41f0	-0.0542621
225	0x3d59e17c	0.053193554
226	0x3dd5f5d2	0.10447277
227	0xbda928be	-0.08259724
228	0xbe282efb	-0.16424172
229	0xbd97a594	-0.074046284
230	0xbda8e746	-0.08247237
231	0xbe0a30a2	-0.13495114
232	0x3a997951	0.0011709129
233	0x3a72c2d6	0.00092606
234	0xbe39c48c	-0.18141383
235	0x3b8ac4d0	0.0042348877
236	0x3d887395	0.066626705
237	0x3e2acf06	0.16680536
238	0x3df4ef58	0.11959714
239	0x3cd89f3b	0.026443115
240	0x3dbf4b51	0.09340537
241	0x3db5b54f	0.088724725
242	0xbca26a21	-0.019825997
243	0x3dd40bcd	0.10353813
244	0xbdb58643	-0.08863499
245	0xbdbfa50f	-0.09357654
246	0xbd589ca6	-0.052883767
247	0x3a9ce8e4	0.0011971262
248	0xbd231be3	-0.039821517
249	0xbd16db55	-0.036830265
250	0xbc8624c8	-0.01637496
251	0xbe11f9de	-0.14255473
252	0xbdea2c0c	-0.114341825
253	0x3d4a48ca	0.049385823
254	0x3ce4e837	0.02794276
255	0x3dc84aa2	0.0977986

bias f4 [50]
0	0xbce17174	-0.027519919
1	0xbcaed7b1	-0.021343084
2	0xbcf05cba	-0.02934109
3	0xbd62e98a	-0.0553985
4	0x3d45b872	0.048271604
5	0xbd86ac6c	-0.065758556
6	0xbd774c7d	-0.06037568
7	0x3cdbc92f	0.02682933
8	0x3dfcd59a	0.12345429
9	0x3c7568b7	0.014978579
10	0xbc979b9b	-0.018506816
11	0x3d594f30	0.053054035
12	0x3cf7c003	0.030242926
13	0x3cb7b130	0.022423357
14	0xbcb4b780	-0.022060156
15	0xbd864060	-0.06555247
16	0xbd3d7313	-0.04625232
17	0x3a08d315	0.0005219442
18	0xbc547e6f	-0.012969597
19	0xbd69a70c	-0.057044074
20	0x3d43228c	0.04764037
21	0xbd5651b1	-0.052324
22	0xbd7673b3	-0.060168933
23	0x3bace089	0.00527579
24	0xbd42d821	-0.047569398
25	0x3b02faf9	0.0019986017
26	0x3c6b3b05	0.014357333
27	0x3d43c1eb	0.047792356
28	0x3d357566	0.044301413
29	0xbbd838a5	-0.0065985494
30	0xbd35bc86	-0.044369243
31	0x3d9fc0e8	0.07800466
32	0xbd12a77a	-0.03580425
33	0xbcf1cb8c	-0.029516004
34	0xbaa630dc	-0.0012679356
35	0xbcb21831	-0.021740051
36	0x3c68bdce	0.014205409
37	0xbcc051bb	-0.023476472
38	0x3c8852a9	0.016640978
39	0xbc94c31f	-0.018159447
40	0xbce7e9ae	-0.02830967
41	0x3ae57b16	0.0017507996
42	0x3b16395d	0.0022922375
43	0x3b012b81	0.0019709768
44	0xbcb3a600	-0.02192974
45	0xbd210b41	-0.039317373
46	0x3ca86fa8	0.020561054
47	0x3daef820	0.0854342
48	0xbb91ed22	-0.0044533173
49	0x3912d5bd	0.00014003269

weight f4 [2, 50, 1, 1, 1]
0	0xbe08f38e	-0.13374159
1	0x3e6629a6	0.22476825
2	0xbf253f6a	-0.6454989
3	0xbe66e72c	-0.22549123
4	0x3f4d1d57	0.80122894
5	0xbf270965	-0.6524871
6	0xbf339d9b	-0.7016236
7	0x3dcc2f09	0.09969909
8	0x3f2e649a	0.68122256
9	0x3f266d7a	0.650108
10	0x3e1c62d3	0.15272073
11	0x3e9df85e	0.30853552
12	0x3e8e184c	0.27752912
13	0xbf037793	-0.5135433
14	0xbe84ee5c	-0.25963104
15	0xbdd43191	-0.103610165
16	0xbf1fb9fe	-0.62393177
17	0x3f2b5b80	0.6693649
18	0xbec1415f	-0.37745187
19	0xbf005f59	-0.5014549
20	0x3f09ab02	0.5377656
21	0xbf24489f	-0.6417331
22	0xbf63fa51	-0.8905383
23	0xbefaf798	-0.49017024
24	0xbed0a063	-0.40747365
25	0x3f68ed64	0.9098723
26	0xbd2aadb5	-0.041669566
27	0x3e887d15	0.2665793
28	0xbdc55a9b	-0.09636422
29	0xbe2d4579	-0.16921033
30	0xbf61bb63	-0.88176554
31	0x3f202bda	0.6256691
32	0xbed07edc	-0.40721786
33	0x3e27e4b4	0.16395837
34	0xbee21c89	-0.44162396
35	0x3f03d640	0.51498795
36	0x399e7756	0.0003022502
37	0xbf580dad	-0.8439587
38	0x3dc9c7bf	0.09852552
39	0x3f5f2be9	0.87176377
40	0xbe8627d1	-0.26202253
41	0xbf28a4eb	-0.65876645
42	0xbea4ff03	-0.32225809
43	0xbe1f4abb	-0.15555851
44	0x3ecfc2da	0.40578347
45	0xbea0ebc5	-0.31429878
46	0xbf02a499	-0.51032406
47	0x3f3e15f9	0.7425228
48	0x3ecbc9a1	0.39802268
49	0x3f2ec630	0.6827116
50	0x3f49fc7a	0.78900874
51	0x3ed0a621	0.40751746
52	0x3f4408ff	0.76576227
53	0x3e3abee2	0.18236879
54	0x3dca6d1f	0.098840944
55	0x3f499f3e	0.7875861
56	0x3f288747	0.65831417
57	0x3ddb3127	0.107027344
58	0xbf4824f8	-0.7818141
59	0xbe980fd3	-0.29699573
60	0x3f0b7003	0.5446779
61	0x3dc90ca0	0.09816861
62	0xbf5920a1	-0.8481541
63	0xbe85e352	-0.26149994
64	0xbf472623	-0.77792567
65	0x3f1c15bf	0.6097068
66	0xbe6c53bc	-0.23078817
67	0xbe3275d6	-0.17427763
68	0xbeaf4d4a	-0.34238654
69	0x3f50d1ae	0.81569946
70	0xbd72789e	-0.05919706
71	0x3d8a9dcc	0.067683786
72	0x3d41e2b3	0.047335338
73	0xbf4b7f8c	-0.79491496
74	0x3dda40cd	0.10656891
75	0x3eeb5b48	0.4596808
76	0xbf5cc4ac	-0.862376
77	0xbf663cd7	-0.89936584
78	0xbf2d7051	-0.67749506
79	0x3e7133cc	0.23554915
80	0xbf403ed5	-0.75095874
81	0xbee05802	-0.43817145
82	0x3e87a7f2	0.2649532
83	0x3d0591c3	0.032609712
84	0xbf26d5c9	-0.6516996
85	0xbf3460fc	-0.70460486
86	0xbf60d1aa	-0.8781992
87	0x3ebc7665	0.36809078
88	0x3dc04150	0.09387457
89	0xbe704a8c	-0.23465937
90	0x3f2b97ed	0.67028695
91	0xbf3c81d0	-0.7363558
92	0xbe423012	-0.1896365
93	0x3f4a27bc	0.7896688
94	0x3ef98968	0.48737645
95	0x3f4beeee	0.7966145
96	0xbf677b03	-0.90422076
97	0xbe478376	-0.19483742
98	0x3f19d7ca	0.6009489
99	0x3e7aaf51	0.2448094

bias f4 [2]
0	0x3dec55be	0.115397915
1	0xbd71d632	-0.059042163

weight f4 [5]
0	0x3f6b90a8	0.920176
1	0x3f6e382c	0.9305446
2	0x3f593cc9	0.84858376
3	0x3f688f8d	0.9084404
4	0x3f6f2b83	0.9342577

bias f4 [5]
0	0xbd0899de	-0.033349864
1	0x3c72f1ca	0.014828155
2	0xbee35d00	-0.4440689
3	0xbc9db2e5	-0.019250343
4	0xbc8e2abb	-0.01735436

running_mean f4 [5]
0	0x423376e8	44.86612
1	0x42eaa8e0	117.329834
2	0xc367aa95	-231.66634
3	0x4183d50e	16.47903
4	0xc313c45a	-147.767

running_var f4 [5]
0	0x4329861c	169.52386
1	0x4407db3e	543.42566
2	0x4503c630	2108.3867
3	0x43592a3e	217.16501
4	0x4449a649	806.5982

weight f4 [10]
0	0x3f6d1bf9	0.9262081
1	0x3f7397d7	0.95153564
2	0x3f70d8fb	0.94081086
3	0x3f616ea3	0.88059443
4	0x3f71ae38	0.9440646
5	0x3f60036f	0.8750524
6	0x3f5f4e64	0.8722899
7	0x3f73731b	0.9509751
8	0x3f71d244	0.94461465
9	0x3f71d6e2	0.9446851

bias f4 [10]
0	0x3c29c1a1	0.010361106
1	0x3c29a9e3	0.010355446
2	0x3dfe0484	0.12403205
3	0xbe89f6f6	-0.2694623
4	0x3d6f07c1	0.058357004
5	0xbd418353	-0.04724438
6	0xbdc11397	-0.094275646
7	0x3b3361af	0.0027371456
8	0xbc2601ae	-0.010132236
9	0x3d71ed57	0.059064236

running_mean f4 [10]
0	0xbf1be5e4	-0.6089766
1	0x3ed9830d	0.42482796
2	0xbed95741	-0.42449382
3	0x3f68b154	0.9089558
4	0xbf627584	-0.88460565
5	0x3f918022	1.1367228
6	0xbd50d310	-0.050982535
7	0x3e5d02e7	0.21583138
8	0x3f7e7dd3	0.9941074
9	0x3d94d437	0.07267039

running_var f4 [10]
0	0x3ed3651e	0.41288084
1	0x3ecba262	0.39772326
2	0x3f8cdb12	1.1004355
3	0x4052f733	3.2963378
4	0x3f34bded	0.70602304
5	0x3fe744f6	1.806792
6	0x3f543c14	0.8290417
7	0x3eadecc8	0.33969712
8	0x3f522c98	0.82099295
9	0x3f4e9f77	0.80712074

weight f4 [20]
0	0x3f708ce4	0.9396498
1	0x3f6d630a	0.92729247
2	0x3f6e56c0	0.9310112
3	0x3f7a4968	0.9776826
4	0x3f654dc2	0.89571774
5	0x3f725f8c	0.9467704
6	0x3f71e26a	0.94486105
7	0x3f709f90	0.93993473
8	0x3f763f2c	0.9619014
9	0x3f6d0c85	0.9259723
10	0x3f64a367	0.8931183
11	0x3f6b331e	0.91874874
12	0x3f643a02	0.8915101
13	0x3f704b6a	0.9386507
14	0x3f768313	0.96293753
15	0x3f67a450	0.90485096
16	0x3f636276	0.88822114
17	0x3f72c264	0.94827867
18	0x3f661712	0.8987895
19	0x3f70a055	0.9399465

bias f4 [20]
0	0x3dd02ed1	0.101651795
1	0x3ced3d13	0.028959787
2	0x3d1b454a	0.037907876
3	0x3e2eaa39	0.17057122
4	0xbd389ee3	-0.0450734
5	0x3d5c58a3	0.053795468
6	0x3d8b8231	0.068119414
7	0x3dd211ae	0.102572784
8	0x3e26c148	0.16284668
9	0x3d2c3b9d	0.04204904
10	0xbcb057b9	-0.021526204
11	0xbbf73434	-0.007544065
12	0xbdb25f4f	-0.08709585
13	0x3d131b8b	0.03591494
14	0xbe4f6200	-0.20252228
15	0xbdb2710d	-0.08712969
16	0xbb735571	-0.0037129784
17	0x3d93be00	0.07213974
18	0xbab22774	-0.001359208
19	0x3d83cd2a	0.06435616

running_mean f4 [20]
0	0xbfd9188d	-1.6960617
1	0xbf5da46b	-0.86579007
2	0xbe0ce778	-0.13760173
3	0xbf5ebd97	-0.8700804
4	0xbe7e721d	-0.24848218
5	0x3e66067e	0.22463414
6	0xbf6d3e5a	-0.92673266
7	0xbfed3cca	-1.8534176
8	0xc00c457c	-2.191741
9	0xc005accd	-2.088672
10	0x3e4ef55a	0.20210782
11	0x3ee1e0fd	0.44116965
12	0x3fa66b3f	1.3001479
13	0x3f3614c1	0.7112542
14	0x40312d0d	2.7683747
15	0x3fe01b57	1.7508343
16	0x3f681ffc	0.90673804
17	0xbe9afc00	-0.30270386
18	0x3deae8b6	0.11470167
19	0xbfa50d43	-1.2894672

running_var f4 [20]
0	0x4021d285	2.528474
1	0x3fc77af4	1.5584397
2	0x3fb62de3	1.4232754
3	0x40057194	2.0850573
4	0x3fd61605	1.672547
5	0x3f8f513f	1.1196669
6	0x3fcf705d	1.6206166
7	0x404c39b0	3.191021
8	0x4011595b	2.2710788
9	0x3fb5b01a	1.4194367
10	0x3f90be9f	1.1308173
11	0x40146fc7	2.3193223
12	0x3ff58202	1.91803
13	0x3fd37fab	1.6523336
14	0x404f7e3b	3.2420795
15	0x40247791	2.5697978
16	0x400ed066	2.2314696
17	0x3f9f1496	1.2428157
18	0x3fadb8a9	1.3571979
19	0x3f88cd52	1.0687659

weight f4 [50]
0	0x3f800000	1.0
1	0x3f800000	1.0
2	0x3f800000	1.0
3	0x3f800000	1.0
4	0x3f800000	1.0
5	0x3f800000	1.0
6	0x3f800000	1.0
7	0x3f800000	1.0
8	0x3f800000	1.0
9	0x3f800000	1.0
10	0x3f800000	1.0
11	0x3f800000	1.0
12	0x3f800000	1.0
13	0x3f800000	1.0
14	0x3f800000	1.0
15	0x3f800000	1.0
16	0x3f800000	1.0
17	0x3f800000	1.0
18	0x3f800000	1.0
19	0x3f800000	1.0
20	0x3f800000	1.0
21	0x3f800000	1.0
22	0x3f800000	1.0
23	0x3f800000	1.0
24	0x3f800000	1.0
25	0x3f800000	1.0
26	0x3f800000	1.0
27	0x3f800000	1.0
28	0x3f800000	1.0
29	0x3f800000	1.0
30	0x3f800000	1.0
31	0x3f800000	1.0
32	0x3f800000	1.0
33	0x3f800000	1.0
34	0x3f800000	1.0
35	0x3f800000	1.0
36	0x3f800000	1.0
37	0x3f800000	1.0
38	0x3f800000	1.0
39	0x3f800000	1.0
40	0x3f800000	1.0
41	0x3f800000	1.0
42	0x3f800000	1.0
43	0x3f800000	1.0
44	0x3f800000	1.0
45	0x3f800000	1.0
46	0x3f800000	1.0
47	0x3f800000	1.0
48	0x3f800000	1.0
49	0x3f800000	1.0

bias f4 [50]
0	0x00000000	0.0
1	0x00000000	0.0
2	0x00000000	0.0
3	0x00000000	0.0
4	0x00000000	0.0
5	0x00000000	0.0
6	0x00000000	0.0
7	0x00000000	0.0
8	0x00000000	0.0
9	0x00000000	0.0
10	0x00000000	0.0
11	0x00000000	0.0
12	0x00000000	0.0
13	0x00000000	0.0
14	0x00000000	0.0
15	0x00000000	0.0
16	0x00000000	0.0
17	0x00000000	0.0
18	0x00000000	0.0
19	0x00000000	0.0
20	0x00000000	0.0
21	0x00000000	0.0
22	0x00000000	0.0
23	0x00000000	0.0
24	0x00000000	0.0
25	0x00000000	0.0
26	0x00000000	0.0
27	0x00000000	0.0
28	0x00000000	0.0
29	0x00000000	0.0
30	0x00000000	0.0
31	0x00000000	0.0
32	0x00000000	0.0
33	0x00000000	0.0
34	0x00000000	0.0
35	0x00000000	0.0
36	0x00000000	0.0
37	0x00000000	0.0
38	0x00000000	0.0
39	0x00000000	0.0
40	0x00000000	0.0
41	0x00000000	0.0
42	0x00000000	0.0
43	0x00000000	0.0
44	0x00000000	0.0
45	0x00000000	0.0
46	0x00000000	0.0
47	0x00000000	0.0
48	0x00000000	0.0
49	0x00000000	0.0

running_mean f4 [50]
0	0x00000000	0.0
1	0x00000000	0.0
2	0x00000000	0.0
3	0x00000000	0.0
4	0x00000000	0.0
5	0x00000000	0.0
6	0x00000000	0.0
7	0x00000000	0.0
8	0x00000000	0.0
9	0x00000000	0.0
10	0x00000000	0.0
11	0x00000000	0.0
12	0x00000000	0.0
13	0x00000000	0.0
14	0x00000000	0.0
15	0x00000000	0.0
16	0x00000000	0.0
17	0x00000000	0.0
18	0x00000000	0.0
19	0x00000000	0.0
20	0x00000000	0.0
21	0x00000000	0.0
22	0x00000000	0.0
23	0x00000000	0.0
24	0x00000000	0.0
25	0x00000000	0.0
26	0x00000000	0.0
27	0x00000000	0.0
28	0x00000000	0.0
29	0x00000000	0.0
30	0x00000000	0.0
31	0x00000000	0.0
32	0x00000000	0.0
33	0x00000000	0.0
34	0x00000000	0.0
35	0x00000000	0.0
36	0x00000000	0.0
37	0x00000000	0.0
38	0x00000000	0.0
39	0x00000000	0.0
40	0x00000000	0.0
41	0x00000000	0.0
42	0x00000000	0.0
43	0x00000000	0.0
44	0x00000000	0.0
45	0x00000000	0.0
46	0x00000000	0.0
47	0x00000000	0.0
48	0x00000000	0.0
49	0x00000000	0.0

running_var f4 [50]
0	0x3f800000	1.0
1	0x3f800000	1.0
2	0x3f800000	1.0
3	0x3f800000	1.0
4	0x3f800000	1.0
5	0x3f800000	1.0
6	0x3f800000	1.0
7	0x3f800000	1.0
8	0x3f800000	1.0
9	0x3f800000	1.0
10	0x3f800000	1.0
11	0x3f800000	1.0
12	0x3f800000	1.0
13	0x3f800000	1.0
14	0x3f800000	1.0
15	0x3f800000	1.0
16	0x3f800000	1.0
17	0x3f800000	1.0
18	0x3f800000	1.0
19	0x3f800000	1.0
20	0x3f800000	1.0
21	0x3f800000	1.0
22	0x3f800000	1.0
23	0x3f800000	1.0
24	0x3f800000	1.0
25	0x3f800000	1.0
26	0x3f800000	1.0
27	0x3f800000	1.0
28	0x3f800000	1.0
29	0x3f800000	1.0
30	0x3f800000	1.0
31	0x3f800000	1.0
32	0x3f800000	1.0
33	0x3f800000	1.0
34	0x3f800000	1.0
35	0x3f800000	1.0
36	0x3f800000	1.0
37	0x3f800000	1.0
38	0x3f800000	1.0
39	0x3f800000	1.0
40	0x3f800000	1.0
41	0x3f800000	1.0
42	0x3f800000	1.0
43	0x3f800000	1.0
44	0x3f800000	1.0
45	0x3f800000	1.0
46	0x3f800000	1.0
47	0x3f800000	1.0
48	0x3f800000	1.0
49	0x3f800000	1.0
