models/deepvesselnet2.model (torch_old, 243978 bytes, 26 tensors)

weight f4 [5, 1, 3, 3, 3]
00000000: d21a 8dbd 9c31 9b3d e3e5 93bd f89f 733d
00000010: ce5e 23be c94d 83bd 5f71 2bbd 465c 2fbe
00000020: b1cf bbbd 6f8b 043e 2ea9 28be d4b9 0ebe
00000030: 8ba8 a03d abcf 00be 1182 e23d 5b9f 46bc
00000040: 3560 e0bd 664e 123e c634 13be 9ddc afbd
00000050: 365a 37be 1715 0a3e 0d12 1e3e 4115 1b3e
00000060: 3d5d 41bd 5354 1dbe ca34 cfbb 9109 a0bc
00000070: 6176 8abc c22e 1ebe 721e 16be b267 e1bd
00000080: 1af8 d6bd 534e a43c 2def b13d 3941 39bd
00000090: 7e54 1dbe 5b0a 0dbe ddb6 12be 5b01 ab3d
000000a0: 70ce 073e 3f37 83bc 9415 f4bd f306 733e
000000b0: 6ae2 14bd 3dc2 073e 7b53 f1bd acb6 223e
000000c0: d3e1 15be 0610 f63b 201c b33d c1df 333e
000000d0: 5d0b 713e 5b65 63bc c1ab 79bc 3332 bdbd
000000e0: 0d4a f73c 9dde f3bd 4349 0e3d 4f71 013d
000000f0: 36ee 4fbd 0082 b73c a1ed 99bd 6d1c 29be
00000100: b3f9 14be 5ed9 c2bd 91f3 d03d e527 d9bd
00000110: 6998 5eba 0ce4 7a3d 994b c1bd 81c7 39bd
00000120: d566 103d 11ab 5abc 8f82 033c b167 17be
00000130: 4725 1ebe ca5b edbd 4109 183e 3f9c 1a3c
00000140: 837a 1bbe 9968 cdbd 1cd7 8dbd cc47 8dbd
00000150: 8630 0a3c 6398 dcbd 4f39 9abd d91f 95bc
00000160: baa2 483d b0b7 86bd 2db8 113e 2a53 363e
00000170: 1268 2b3d acd5 05be 643a 253e 4eaa 25be
00000180: 3012 a43d 61a0 9cbd b539 1cbe c107 d03d
00000190: 19e0 0b3e 1eec af3c 9f31 a03d e38a e73d
000001a0: d15b 963c 9d56 22bd 201e 863c 04a4 1fbe
000001b0: d769 36be 203b cd3c 1ced abbd 91d2 993d
000001c0: 4011 853e 7c0c 403d d035 5fbd 4189 fb3c
000001d0: b0de f43a 9660 863d e6ae 433e 8f61 9d3d
000001e0: 70b1 1db9 81fa 023e cccf 863e f03b 0b3d
000001f0: 0bf2 673e 6323 543e 5f9b 32be 488a a33d
00000200: e64a 3cbe 2cc9 c23d 09cc 25bd e0c1 1f3b
00000210: c1b1 6bbd 01db cd3d fa37 93b9
-0.06889881 0.075778216 -0.07221582 0.05947873 -0.15954134 -0.06411321 -0.041856166 -0.17125043
-0.09170473 0.12943815 -0.16470787 -0.13938075 0.07844647 -0.12579219 0.110599644 -0.012122954
-0.1095585 0.14287719 -0.143756 -0.085870005 -0.17905506 0.13484608 0.15436573 0.15144826
-0.04720806 -0.15364198 -0.0063234316 -0.019535812 -0.01690215 -0.15447524 -0.14660051 -0.110061064
-0.1049654 0.02005688 0.08688197 -0.045228217 -0.15364262 -0.13773482 -0.1432757 0.08349868
0.13262343 -0.016017554 -0.11918178 0.2373312 -0.036348738 0.1325769 -0.11783501 0.15889996
-0.14636926 0.0075092344 0.08745599 0.17565824 0.23539491 -0.0138791455 -0.015238703 -0.0923809
0.030186677 -0.119076945 0.034737837 0.0316022 -0.050764285 0.022400856 -0.07516027 -0.1651475
-0.14548378 -0.09514116 0.102027066 -0.106033124 -0.0008491339 0.06125264 -0.09438247 -0.045356277
0.03525432 -0.0133464495 0.008026733 -0.14785649 -0.15443908 -0.11589773 0.1484728 0.009436666
-0.15183453 -0.10029716 -0.069257945 -0.0689846 0.00843442 -0.10771253 -0.07530462 -0.018203663
0.048983313 -0.06578004 0.14230414 0.17805162 0.041847296 -0.1306979 0.16135556 -0.16178247
0.080112815 -0.07647777 -0.15256388 0.10157729 0.13659705 0.021474894 0.078219645 0.113057874
0.018354328 -0.039633382 0.016371787 -0.15589911 -0.17813812 0.025052607 -0.083948344 0.075108655
0.25989723 0.046886906 -0.05449468 0.030705096 0.0018682089 0.06561391 0.19109687 0.076846235
-0.00015038787 0.12790872 0.2633041 0.033992708 0.22650926 0.20716624 -0.17442082 0.079853594
-0.18387946 0.09511027 -0.040477786 0.0024377033 -0.057542566 0.10051537 -0.0002807973

bias f4 [5]
00000000: dab3 0abe 4a04 a83d 5a3e 163d f4be ad3d
00000010: 5612 c9bd
-0.1354517 0.08203943 0.036680557 0.08483687 -0.098179504

weight f4 [10, 5, 5, 5, 5]
00000000: 4791 083d a0a4 90bd f03b 123d 50e8 02bd
00000010: a0a5 82bd eef9 f93c 39cf 513d b428 e2bb
00000020: 6994 fe3c 672d 933c 6b0f 98bd 597e 3d3d
00000030: 7df0 8ebd afeb a0bb 501c c0bb d6ce 773d
00000040: 3e43 72bc c22e 833d 21b6 e13c ce11 82bb
00000050: 350e 29bd 2d57 f6bc d8b0 033d a550 9e3d
00000060: e3b0 a03d 09ca 8cbb 0c97 08bd 41fc 483c
00000070: 9c64 923d 65a7 f1bc 65e7 773d b0b7 9c3d
00000080: 08a9 883c 3802 2dbd e4ab 303d 53c2 58bd
00000090: f458 4ebd 8772 913d 927c a33d 6bd4 8bbc
000000a0: ea5b 8f3d 667e 8ebc 73a0 bdbc 05ce 71bc
000000b0: 1813 aebb 72aa 2f3d e595 18bd e45c 9c3d
000000c0: fbbc 4a3d f983 2c3d 2bfb 963d e434 b33b
000000d0: 5ec8 603d 4a55 4cbc 1345 3fbc a1e5 04bd
000000e0: 375f 65bd 3efa e43c b5c5 e7bc 007a 47bc
000000f0: fa4a 65bc 45c8 75bd c9d0 ad3d b530 9fbb
00000100: c92b 483d 414d a4bd d7b3 9a3d 2dda a9bc
00000110: 5d55 293d 72c8 9dbd 4be3 11bd 15bd 3d3c
00000120: ae16 8c3b 6baf 0b3a f09a 423d a609 5b3c
00000130: f6a1 443d 415b 343c 0208 97bd 15d2 673b
00000140: 00d2 033d 7761 b63c 3894 853d 63fa a8bd
00000150: 8b73 94bd 4f64 813c acd8 6a3d a8eb 1cbd
00000160: 0743 6d3d fd42 2f3b f239 6bbd 322e cfbc
00000170: b190 1abd 7ebc 99bd 0c52 7cbd bd9b 4e3d
00000180: c704 233d 1da3 b33c e892 16bd ce5b 863d
00000190: 4912 f2bc 62d0 cc3b da38 81bd 7d95 843d
000001a0: 432c c33c 275c e23c 39b8 5a3d 272d 9dba
000001b0: f610 8c3d f579 4f3d a2e6 45bd e6d5 273d
000001c0: c593 86bd c4f3 74bd 0b89 30bd 86ad 6fbd
000001d0: 963e 6fbd 8c05 8c3d 87cf 243d c622 813c
000001e0: 073b 5fbd e1a7 73bd 3c54 9b3c e78f a7bc
000001f0: 69aa 8e3b 90d4 1a3d bcb3 a33d 63fb 953d
00000200: 3e4e 66bd 574d c7bb 21ed c63c 8c9d bc3c
00000210: 3742 29bc 8e08 64bd 5b77 e1b9 d609 5abd
00000220: 8ed5 293d acd8 5ebd a41f 8cbd 4967 423d
00000230: c51c 3fbd 5920 7bbb c5c4 d5bc f3d1 90bc
00000240: 1905 95bd 9ee0 d8bb 46e8 5d3d 719e 213d
00000250: 4b77 6e3b bd55 99bd 3005 3abd 74ff 06bd
00000260: d980 8bbb 31c6 f43b 1724 603d 581c 383c
00000270: 57cc 47bb c7ae ba3d 2f36 653d ff6a 873d
00000280: 015f a73d e6b7 833d 6bd2 10bc dd1a e03c
00000290: 519e 76ba 41ff 2ebd 5635 763d 6c5f e13c
000002a0: 15a3 8f3d 98a1 ae3d e24a e63b 396e 933d
000002b0: ae4d a73d 31e8 7abd 8e63 843d 9d9e 493d
000002c0: 07e0 8d3d 88d3 a43c a7d6 81bd 75dd b1bc
000002d0: 3166 f63c 985d 8abc 0da0 543d aad8 6dbd
000002e0: 693b 823d fd69 ccbc 2a6a 3fbd 2765 c93d
000002f0: 6c44 603d 6021 6cbc d0de ff3c a14b 27bd
00000300: 6b97 6d3c 08a3 b0bb 7a29 6d3c 5823 84bc
00000310: d88b 283d e300 1dbc 91c4 a03d ef13 8bbd
00000320: 7a6a 80bd d1ab 8a3d 7655 11bd 81de 42bd
00000330: 4563 d6bb 753a 69bc e048 f23c 9f29 febc
00000340: 9478 9ebd fd8f f43c b137 53bc e020 763d
00000350: 02a0 88bd 1144 4b3c b8ae e13b a1d1 543c
00000360: 9d0c 6f3d c574 72bc 1a3b 7e3d 0fd0 1fbc
00000370: 9f03 f5bc 0ef3 a23b 75a7 01bd f50c 09bd
00000380: 8491 31bc 9c13 a03d 1ec4 863b a81b 403d
00000390: 95db fa3c ece0 a93c 179e 98bd 7243 b7bb
000003a0: bd0f 4dbd b56a 843d d3df eb3c caf1 973d
000003b0: 7532 6abd f1bc 683d 6fee 2b3c 86fe 163d
000003c0: 353a 893d 97e4 8ebb 25a5 aa3d 4b47 ef3c
000003d0: 09e8 983d 5015 6fbd 2bce 20bd 5112 1ebd
000003e0: 6322 5a3c e605 a73d c000 a6bb 5fb3 a63d
000003f0: 86a8 28bd 6cc6 63bd f094 45bd 5720 fcbc
0.033341672 -0.0706265 0.035701692 -0.03195983 -0.06379247 0.030514684 0.051223014 -0.006901825
0.031076627 0.017965985 -0.07424816 0.046263073 -0.06979463 -0.004910908 -0.00586275 0.06049999
-0.01478654 0.06405403 0.027552666 -0.0039694076 -0.041273315 -0.030070866 0.032151073 0.077302255
0.078462385 -0.0042965454 -0.033347175 0.012267173 0.07148096 -0.029498765 0.06052341 0.07652223
0.016682163 -0.042238444 0.043132678 -0.052919697 -0.0503778 0.071019225 0.07982744 -0.017069062
0.06999953 -0.017394256 -0.023147797 -0.014758592 -0.0053123347 0.04288716 -0.037252326 0.07634905
0.049496632 0.042118046 0.07372125 0.0054689515 0.054878585 -0.012471506 -0.011674183 -0.032445554
-0.055999007 0.027951356 -0.028292516 -0.012175083 -0.013994927 -0.060005445 0.08487088 -0.0048581013
0.04886988 -0.080225475 0.07553833 -0.020733917 0.041341174 -0.077042475 -0.035617154 0.011580725
0.0042751646 0.00053285685 0.04751104 0.013369 0.04800602 0.011008085 -0.07374574 0.0035373021
0.032182693 0.022263272 0.06522411 -0.082508825 -0.072486006 0.015794901 0.05733554 -0.038310677
0.05792525 0.002674281 -0.057428308 -0.025290582 -0.037735645 -0.07506655 -0.061601683 0.050441492
0.039799478 0.021928364 -0.036761194 0.06560479 -0.029549735 0.006250427 -0.06309672 0.06473825
0.023824817 0.027631832 0.053398345 -0.0011991606 0.068391725 0.050653417 -0.04831565 0.040975474
-0.065711536 -0.059802786 -0.043099444 -0.058515094 -0.058409296 0.068369955 0.040236976 0.015763652
-0.054499652 -0.059486274 0.018961065 -0.02045436 0.0043538106 0.03780037 0.07993266 0.07323339
-0.05622696 -0.0060822177 0.024282994 0.023024343 -0.010330728 -0.05567222 -0.0004300427 -0.053232037
0.041463427 -0.054405853 -0.068419725 0.04746178 -0.046658296 -0.0038318841 -0.026094804 -0.017678237
-0.07276363 -0.0066185733 0.05417659 0.039457742 0.0036387022 -0.074870564 -0.045415103 -0.032958463
-0.004257303 0.0074699153 0.054721918 0.011237226 -0.0030486786 0.091153674 0.055959877 0.06612205
0.081724174 0.0643156 -0.00883923 0.02735656 -0.0009407746 -0.042723898 0.06010946 0.027511321
0.07013527 0.08526915 0.0070279697 0.07198758 0.08169113 -0.06125659 0.06464301 0.04922353
0.069274954 0.020120397 -0.0633977 -0.021712044 0.030078026 -0.016890332 0.05191045 -0.058067955
0.06358988 -0.024952883 -0.046732105 0.098337464 0.054752752 -0.014412254 0.031234175 -0.04084361
0.014501433 -0.0053905286 0.014475221 -0.016130134 0.04114899 -0.009582731 0.07849992 -0.067909114
-0.06270309 0.06771053 -0.035481893 -0.047575478 -0.0065425956 -0.014235129 0.029575765 -0.031025706
-0.07737842 0.029853815 -0.012891696 0.060089946 -0.06671144 0.012406365 0.006887283 0.012989433
0.05836164 -0.014798348 0.062068082 -0.009754195 -0.029908953 0.004972822 -0.03165384 -0.033459622
-0.010837916 0.0781624 0.0041127345 0.046901375 0.030622283 0.020737134 -0.07452028 -0.005592757
-0.050063837 0.06465665 0.028793251 0.074191645 -0.057177026 0.056820814 0.010493859 0.036863826
0.06700555 -0.004360746 0.0833228 0.0292088 0.07466132 -0.058369935 -0.039259117 -0.038591687
0.0133138625 0.08155422 -0.0050660074 0.08139681 -0.04117634 -0.05560915 -0.04823774 -0.03077714

bias f4 [10]
00000000: 5b74 62b9 f7fd 92bb 6e52 97bc 5e4a f5bc
00000010: 7724 12bd 39f3 223c a50f b03c 14dd 79b9
00000020: 2631 7fbc b2d0 e93c
-0.00021596385 -0.0044858414 -0.018471923 -0.029942688 -0.035679307 0.009945684 0.021491835 -0.00023828848
-0.015575683 0.028541896

weight f4 [20, 10, 5, 5, 5]
00000000: f0cc e1bc ac03 8b3c 2297 9e3d f3a4 3c3d
00000010: 8d78 afbc c58e db3c 14b1 78ba e115 c03c
00000020: d626 1bbd 378c 953d c22c 7e3d 2b2a 88bb
00000030: 47c7 a5bd 72b5 80bd 2232 b63b 1ee0 a3bd
00000040: f70a 90bd 6b93 163d 531a 443d 9b7b 19bd
00000050: fd83 77bb 80ff 903b 3999 32bd ccf2 793d
00000060: 82dc 47bc 06ce 9bbc 560c dfbc 2743 663d
00000070: 4116 0abd 5b51 603c 1dac 23bd 91fb 8c3c
00000080: 8498 86bd b542 8d3d d848 a6bc a814 11bd
00000090: 403a 74bd b0ac 9e3d f9f9 3d3d bb60 453d
000000a0: bc24 22bc f747 973d fe99 603d dc33 a53d
000000b0: 7ccd 803d d32b 8b3d 56c8 103d 5382 11bc
000000c0: 1542 483d 1eaf 923b 20c4 833d e58c 923d
000000d0: bd05 2fbd 5142 60bd c48c 2dbd f308 34bd
000000e0: ebab da3c a28d 82bd 3479 4dbd e949 f63c
000000f0: bd93 9b3d 7b93 5f3d 4b53 61bd 03f8 f33b
00000100: 5c48 d8bc dd39 5b3d 666f 37bd c0d9 1ebd
00000110: 19fd 4ebd 0494 883d 02c6 57bd 6b19 41bd
00000120: b867 923d 03f0 a93d 9121 133d 7096 63bd
00000130: babd ed3c 5eec cc3c 0474 8e3d b1d2 dbbc
00000140: 9564 90bd 9f7e 6bbb 0128 e73b cee9 4abd
00000150: c5b4 b1bc 0aa7 883d 38d2 e0bc 4cc4 9b3d
00000160: 92e6 8abd 42d5 8ebd e7b8 5cbd 2573 763d
00000170: 2c5a 493c 8db6 833d 9ca9 e03b e6b2 6039
00000180: 85ef e73c 9b0e 643c 32f4 373c 21e1 483d
00000190: a4a0 32bd ecb8 1fbd 2f8c a5bd 814c 203d
000001a0: 9304 683c a718 e2bc f510 a1bd 2d64 d9bc
000001b0: c7cf d83c 8b19 3dbd c3b0 67bc 2529 babb
000001c0: ab6e 673a 0ea1 903d 596b a1bc c9ca 7c3d
000001d0: 7b20 8b3c f3e5 833c 69ba b8bc f9d1 033d
000001e0: 3066 1dbd c7a8 8e3d 4694 87bd 71b2 893d
000001f0: 1145 3dbd 0b74 8fbd 5902 2dbd 5a70 753d
00000200: 83e0 943a a7ec 893d 2003 673d 343f 95bd
00000210: 9cef 04bd c7ed dabb edd5 c8bc 9a7e 51bc
00000220: 11fe 873d 9aa6 003d 51ef 7fbd 1efe 3cbd
00000230: 276b 7a3d 7e76 473b fe6a 033d 19eb a3bd
00000240: 30d4 d73c 51c6 4b3c 62e8 a5bd 6eb0 2dbd
00000250: 5ab8 57bd cc40 7fbd e5a9 173d 6f26 933c
00000260: 19c3 53bd f681 2ebd d9c0 7cbc 8a87 2ebb
00000270: f42c 9dbb 22c5 7e3d fab7 273d 12c1 d8bc
00000280: c889 803c fabd 07bd 3a30 d7bc a3fb b0bc
00000290: 8a66 99bd 018d 9cbd 3623 a63c e2d7 803b
000002a0: 79ff cb3c 9f99 c33b 6018 58bd 3481 c83c
000002b0: c7ac 30bd 3d49 9f3d f9f8 dcbc 9f20 373d
000002c0: 5728 7dbd ef1d 9abd 6c51 253d f087 9b3d
000002d0: 4223 1d3d c4ab ddbc 099b 8abd d7f3 f1bb
000002e0: e620 5fbd 0782 6b3d 83f5 6ebd 3847 6bbd
000002f0: 4756 86b8 b572 003d 26c6 2e38 065b 893d
00000300: edd6 86bc b227 17bd 10ab 73bd 1118 8d3d
00000310: eada 1ebd 54d3 363d e1d0 91bd c395 3cbd
00000320: 5bbb 733d 352c 3cbd 08dc 2cbd c35b 81bd
00000330: 331a a13d 1d98 953c ce3c 21bd 2f10 9cbd
00000340: 67a3 60bd 3775 d93c e3a9 42bd 9f05 48bc
00000350: 9428 3dba cf69 b7bc 071a 613d 5cc3 69bd
00000360: eb66 41bd 6c6f 88bc a9be 043d e622 dfbb
00000370: 16f4 9c3d 42c5 023d 0d52 02bb 71ae a33d
00000380: ec66 61bd 442f 503b 6a82 e7bc 8516 803d
00000390: 4334 803c a05a f3bc 0788 d23c 1c1a 4b3c
000003a0: 23d1 733c e742 803a f6c9 49bd adad b7bc
000003b0: bb66 263d 0600 123c a0f4 ebbb 4006 9cbd
000003c0: 6ad9 093d eb85 143b e7bb 973b 28e7 8cbd
000003d0: 758a 3b3d 4ab6 dfbc 3fd6 22bd 475d a5bd
000003e0: 07b1 6d3d b995 67bd d487 4dbc f3ab edbc
000003f0: 3996 893d 58df 3cbd d0be 5a3d ff06 48bd
-0.027563542 0.016969524 0.0774367 0.046055745 -0.021419788 0.026801476 -0.0009486836 0.023447933
-0.037878834 0.073021345 0.062054403 -0.0041554174 -0.0809465 -0.06284608 0.0055601755 -0.08001731
-0.070333414 0.036761682 0.047876667 -0.037471395 -0.003776788 0.004424989 -0.043603156 0.061022565
-0.012198569 -0.019019138 -0.027227562 0.056216385 -0.03371263 0.013691272 -0.039959062 0.0172098
-0.06572059 0.06897489 -0.020298406 -0.03542009 -0.059625864 0.07747781 0.04638097 0.048187952
-0.0098964535 0.07386773 0.05483436 0.08066532 0.06289193 0.06795468 0.035347305 -0.008881169
0.048891146 0.004476442 0.06433892 0.0715578 -0.04273008 -0.054750744 -0.042370573 -0.043953847
0.026693305 -0.063746706 -0.050164416 0.03006454 0.07596538 0.054584008 -0.055011075 0.007445337
-0.026401691 0.05352198 -0.044783972 -0.03878188 -0.05053434 0.06668857 -0.05267907 -0.04714338
0.07148689 0.08297732 0.035920683 -0.05556339 0.029021133 0.025015052 0.06955722 -0.026833864
-0.070504345 -0.0035933626 0.0070543294 -0.04953938 -0.021692643 0.06672485 -0.02744399 0.076058
-0.06782259 -0.069742694 -0.053887274 0.060168404 0.012289565 0.06431303 0.0068561565 0.0002142895
0.028312454 0.013919498 0.011227654 0.049042825 -0.04361023 -0.038994715 -0.080833785 0.03913546
0.014161247 -0.027599646 -0.078645624 -0.026537025 0.026466263 -0.046166938 -0.014141264 -0.0056811743
0.00088284415 0.07061969 -0.019704508 0.06171683 0.016983261 0.01610086 -0.022549825 0.032182667
-0.03842753 0.069657855 -0.06620078 0.06723488 -0.046208445 -0.07004555 -0.042238567 0.0599216
0.0011358414 0.06734591 0.056399465 -0.07287446 -0.03245507 -0.0066811773 -0.02451607 -0.012786532
0.06640256 0.031408884 -0.06248409 -0.046140783 0.061137345 0.0030435617 0.032084458 -0.08003826
0.026346296 0.012437419 -0.08100964 -0.042404585 -0.052666046 -0.062317654 0.03702726 0.017962663
-0.05169973 -0.04260441 -0.015426838 -0.002663108 -0.0047966186 0.06219972 0.040946938 -0.02645925
0.0156907 -0.03314016 -0.026268113 -0.021604365 -0.07490261 -0.07644082 0.020280462 0.0039319852
0.024902092 0.005969241 -0.05275762 0.024475671 -0.043133523 0.07777641 -0.026974188 0.044708844
-0.06180605 -0.07525241 0.040360853 0.075942874 0.038363703 -0.027059443 -0.06767852 -0.0073838043
-0.054474734 0.05749705 -0.058339607 -0.057440966 -6.405688e-05 0.031359393 4.1669373e-05 0.067068145
-0.016459906 -0.03690309 -0.05948931 0.06889356 -0.03878299 0.044635132 -0.071199186 -0.04604126
0.059504848 -0.045940597 -0.042202026 -0.0631633 0.07866325 0.01826101 -0.03936463 -0.07620274
-0.054843333 0.02654515 -0.047525298 -0.012208371 -0.00072158244 -0.02238932 0.054956462 -0.057071075
-0.04721729 -0.016654693 0.03240839 -0.00680958 0.07663743 0.0319264 -0.0019885332 0.079922564
-0.055029795 0.0031766454 -0.028260428 0.06254295 0.01564992 -0.0297063 0.025699629 0.012396362
0.014881405 0.0009785563 -0.04926487 -0.022421682 0.040625315 0.008911138 -0.0072007924 -0.076183796
0.033654608 0.002266283 0.004630554 -0.06880027 0.04578634 -0.027308602 -0.039755102 -0.08074432
0.058030155 -0.05653927 -0.012544591 -0.029012656 0.06718106 -0.046111435 0.05340463 -0.048834797

bias f4 [20]
00000000: 87b4 9d3c 3d59 993c 3312 6ebc de22 9c3b
00000010: bf61 c73c 1c2d 40bc 2172 adbc 2ba3 60bc
00000020: b26e f23b 28e5 bc3c cfea 70bc a823 bdbc
00000030: 6929 b83c d2c4 bb3c 412b 51bc 73c3 31bc
00000040: e5d4 9cbc 68ff 0ebc 5ddf b2bc 73ee b4bb
0.019251121 0.01871931 -0.014530706 0.0047648987 0.024338601 -0.011729505 -0.021172585 -0.013710777
0.00739845 0.023058489 -0.01470442 -0.023088291 0.022480683 0.022921 -0.01276666 -0.010849821
-0.019144485 -0.008727886 -0.021835024 -0.0055215894

weight f4 [50, 20, 3, 3, 3]
00000000: 6864 0cbe 2ad5 e83c 716a f63d 9cbb 03be
00000010: dda1 6bbd a677 123e 5af2 9fbd 370b c7bd
00000020: 7ef5 ecbc d8f1 813d 2706 3b3d 9da1 4e3b
00000030: b3a8 82bd ed02 dcbd 9b6f 62bd 5707 263d
00000040: f10f 9cbd 3daa c63d 631d 7c3c 31e2 9c3c
00000050: 38df a13d b56f f9bd 19a1 c6bd 1a53 9abd
00000060: 7af2 0bbd aded 113d 7a29 053c df6e 14be
00000070: 41a9 113d 31ae 003d 6098 90bd c4a7 ecbd
00000080: 68af 5b3d 9fde f33b b21a 5dbc 1a38 5dbc
00000090: 3e77 ad3d 52f8 8bbd 9043 e7bd edab 0d3e
000000a0: e926 2abe 4d16 16be 0760 2ebd 5202 5d3b
000000b0: c691 a23d 4b03 c5bd 13ce c1bd 59fb 0ebe
000000c0: 1a8c 27bd 868e 24be b781 263d 7142 1e3e
000000d0: e298 de3d 6792 553d af20 8cbd 2ffc 63bd
000000e0: 352a fd3d b234 be3d 617b b83d 71b4 8c3d
000000f0: 6db2 cb3c c0d6 11bd fe4d 653d 859a b9bc
00000100: a3e6 04be 50f7 ca3d 74f4 adbd 44f5 f0bd
00000110: 47b5 92ba 5078 e73d 13e6 f83d e3c5 d63d
00000120: 1f45 2ebe 6f48 e83c 7940 12bd 0e3c 863a
00000130: b502 ae3d 0917 69bb 9eea e03d bf31 183e
00000140: d678 94bd 15e1 c73d c7b9 ca3d f616 91bd
00000150: 630c 14be 701d 86bc 49c6 543c 6981 c93d
00000160: 7c36 6bbd 437d ccbd e300 e1bd e63a 8c3c
00000170: dc4c 1a3d 59f0 8a3c f170 10be 433d 9fbd
00000180: 75f3 c23d d1c5 b6bd 4a5e 023d fa23 42be
00000190: e77e 1dbe 660b 8ebd ef7d 7a3d 225d 01be
000001a0: ab08 d4bd 0bd9 a93d 84a7 fb3d 1585 3d3d
000001b0: fde7 7b3d 0e27 38be eed4 863c ae60 c23d
000001c0: 8b1f 6c3d 7a69 3ebe 12bd 383d cc33 fcbd
000001d0: a384 84bc 3cb1 c03d ad07 8bbd e9fb a5bd
000001e0: 7c2e 09be e0ed 3e3c c996 2ebe efcd 83bd
000001f0: 019f eabd feda bc3d 5317 ddbb 9156 06be
00000200: 5f5a 15be 887c 3fbb 8647 c93d d044 55bc
00000210: fba5 11be 0ea0 bfbd 11cb b13d 8431 5c3c
00000220: 3149 a8bd 3d9b 94bd 5e17 e9bd 14a5 8dbb
00000230: 8678 fd3d eda1 bc3c 11c0 543c 7ebb fc3d
00000240: b12d d1bd dace 1ebe 0839 bcbd b53e 023e
00000250: 76ab 27bd 7704 053e 7b88 ecbd 9626 0fbe
00000260: 3a40 2abe 0ed1 cb3c 118b 8c3c 31d3 40be
00000270: b13d 38bd 7437 b2bc 8ca3 ff3d 5771 75bd
00000280: 70f2 d2bd b432 ebbc 97e2 84bd 0ffb 4a3d
00000290: 8ac7 1cbe 154e 93bc a21a b33d b9f9 f33d
000002a0: cade 1e3e 0d89 ff3d ea18 47bd 189c 053d
000002b0: 346f 8bbd 6afd c9bd 0cb6 94bd 2e03 813c
000002c0: 1f30 d7bd 0c48 8f3c 2604 813d d506 8b3d
000002d0: b39d 5ebd a850 09bd 9592 27be cab6 8abd
000002e0: 9274 39be 044c 06be 7f75 b1bd b1cb c93c
000002f0: 5d03 0c3d 0044 1bbd 9b39 92bd ab24 44bd
00000300: e714 813c bf1c e1bd 26d6 673c c1c4 db3d
00000310: f8ce 163e 695d 713d c416 db3d 9608 c7bd
00000320: 8bff c83d 713d dabd 27a1 0bbe c27c 903d
00000330: 2c4f 33bd 6d69 c33d 6108 c53d dcee 5cbd
00000340: 4c94 10bd 60d2 74bc a9cf 1cbc 5da4 91bc
00000350: 7fb5 e03d 3f7c 3dbe 913e 753d 1b9c 3abe
00000360: 49f9 da3b bb18 c73d 1c48 f83c 256e c3bc
00000370: 68b8 02be 34b6 b9bd 7ba0 a9bd 721c 19be
00000380: 430d ea3c 8d5e 28bd 5661 dfbd f7cc 9fbd
00000390: 0373 403d b0a9 05be c9ca 86bd 527c 71bd
000003a0: c758 d13d 8e41 91bd 3e75 f63c 9b74 ae3c
000003b0: c6d0 33be f52e 033e 6a57 e53d 226f b53d
000003c0: dfa5 98bd 8f42 27be d885 cdbc df07 f03d
000003d0: 668f e13d 8ad6 173b 9a01 c63d 662f dbbd
000003e0: 1220 a3bc 4179 953d 5f85 31be 75ba 34bd
000003f0: 485c 4f3c fbd4 053e 495d 113e a975 c6bd
-0.13710177 0.028421957 0.12032021 -0.12864536 -0.05752741 0.14303455 -0.07809897 -0.09718936
-0.028925654 0.06344956 0.045660164 0.0031529434 -0.06379833 -0.107427455 -0.055282217 0.040534344
-0.07620228 0.09700439 0.015387866 0.019150825 0.07903904 -0.121795096 -0.09698696 -0.075353816
-0.03416679 0.035627056 0.008127565 -0.14495419 0.035561804 0.031416122 -0.07060313 -0.11555436
0.053634077 0.00744231 -0.013495134 -0.013502145 0.08470009 -0.06834473 -0.112921834 0.13835116
-0.16616406 -0.14656945 -0.042572048 0.0033723307 0.0793796 -0.09619769 -0.09463134 -0.13963069
-0.040905096 -0.16069993 0.04065105 0.15455033 0.10869004 0.052141573 -0.068421714 -0.055660423
0.12361566 0.092873946 0.09007908 0.06870354 0.024865353 -0.035605192 0.055982582 -0.022656688
-0.12978606 0.09910452 -0.08493891 -0.11765531 -0.0011192941 0.11302245 0.12153258 0.10486963
-0.17018555 0.028354852 -0.035706017 0.0010241286 0.0849661 -0.0035566709 0.1098225 0.14862727
-0.0724961 0.09759728 0.098987155 -0.070844576 -0.1445785 -0.016371459 0.012986728 0.09839136
-0.057425007 -0.09984829 -0.10986497 0.017117929 0.037670955 0.01696031 -0.14105584 -0.077753566
0.09519092 -0.08924449 0.031828202 -0.18959036 -0.1538044 -0.06935768 0.061155256 -0.12633184
-0.10353216 0.08293351 0.122878104 0.046269495 0.06150054 -0.17983648 0.016458955 0.094910964
0.05764727 -0.18594924 0.045102187 -0.12314567 -0.016176527 0.09408805 -0.067885734 -0.08104689
-0.13396639 0.0116533935 -0.17049707 -0.06435763 -0.11456109 0.09221457 -0.006747165 -0.1311896
-0.14585255 -0.0029218514 0.09828095 -0.013016894 -0.14223473 -0.093567 0.0868131 0.01343954
-0.08217085 -0.07256172 -0.1138141 -0.0043226574 0.12376504 0.023026431 0.012985245 0.12340449
-0.10213793 -0.15508595 -0.09190565 0.12719233 -0.040935002 0.12989984 -0.11549469 -0.13979563
-0.16626063 0.024879958 0.017156156 -0.18830563 -0.04498071 -0.021754958 0.12482366 -0.059922542
-0.103001475 -0.0287107 -0.06488531 0.049555834 -0.15310493 -0.017981568 0.08745314 0.11912865
0.15514675 0.12477312 -0.048607744 0.032619566 -0.0680832 -0.09862788 -0.07261285 0.015748587
-0.10507225 0.01749041 0.062996194 0.067884125 -0.054349612 -0.033524185 -0.1636451 -0.067731455
-0.18110874 -0.13114935 -0.08664989 0.02463326 0.034182895 -0.037906647 -0.071398936 -0.04788653
0.015757037 -0.10991811 0.014150178 0.10730887 0.1472739 0.058926973 0.106977016 -0.097184345
0.09814366 -0.1065625 -0.13635693 0.07055046 -0.043776676 0.09541593 0.09620739 -0.05393873
-0.035297677 -0.014942735 -0.009570994 -0.01777857 0.10972118 -0.18504427 0.05987412 -0.18223612
0.006682549 0.09721514 0.030307822 -0.023856232 -0.12765658 -0.090679556 -0.08282562 -0.14952257
0.028570777 -0.041105796 -0.10907237 -0.07802766 0.046984684 -0.13053012 -0.06581647 -0.05895645
0.10222011 -0.07092582 0.030085202 0.021295836 -0.1756011 0.12810881 0.111983135 0.088590875
-0.074535124 -0.16333984 -0.025088236 0.11720251 0.11013679 0.0023168647 0.09668274 -0.107024
-0.019912753 0.07298518 -0.17336033 -0.04412313 0.012656279 0.13069527 0.14195742 -0.09690411

bias f4 [50]
00000000: e8d8 c8bd 4732 03bd a62d 423d 1e25 0cbc
00000010: 208f 4d3d 2a73 b63d c8f0 06b8 88ed 923c
00000020: beab ca3b 4107 223c dc90 adbc 050f 83bd
00000030: eada 2fbd cf54 0c3d 4d40 4e3d ea32 1f3d
00000040: 144d cc3c e3e7 4ebc 5260 ce3c 0420 dfbb
00000050: 5392 59bc ac37 cc3c de06 f4bc 3dac 07bd
00000060: 9f65 b83c 2369 bf3b 5f7c 013d cc00 25bd
00000070: 9080 833d 2145 7a3d e536 ba3b 50e3 babb
00000080: 3612 a1bb 70c0 32bd 4e63 2639 f9b4 4f3c
00000090: ccf9 433d bc8b 59bd acc5 e13c 41c3 4fbb
000000a0: a841 09bd f742 593d 9a2c 01bd 7986 02bd
000000b0: 7885 c83c adcb babb 9d89 713a 864f e6bc
000000c0: 8ae1 1dbd dd04 17bd
-0.098069966 -0.03203037 0.047406815 -0.008553771 0.050185323 0.089086846 -3.2172335e-05 0.01793553
0.006185024 0.009889425 -0.021187238 -0.06399349 -0.042933382 0.034260567 0.05035429 0.038866915
0.024939097 -0.012628528 0.025192413 -0.0068092365 -0.013279515 0.02492889 -0.02978843 -0.033123244
0.022509394 0.0058413907 0.03161275 -0.040283963 0.06421006 0.061101083 0.0056828135 -0.0057033673
-0.004915501 -0.043640554 0.00015867988 0.012677425 0.047845647 -0.053111777 0.027560078 -0.0031702074
-0.03350988 0.05304238 -0.031536676 -0.031866524 0.024477705 -0.0057005496 0.00092139264 -0.028114092
-0.03854517 -0.036869872

weight f4 [2, 50, 1, 1, 1]
00000000: 980a 5abf d124 43bf c27c 5d3f 10ca 78be
00000010: 976f 153f 843d 653f d4d2 e8be 059a 1e3f
00000020: a847 8f3d ac73 bfbd e542 91be b014 38bf
00000030: de10 1dbf 1b52 5abc b227 cf3e 6f02 3abf
00000040: 0edb de3e dde8 d23e deb8 473f 8611 46bf
00000050: 1d85 a7be 5eef 0d3f 0780 6ebc ea11 313e
00000060: 251f e53e ca50 be3e 376a cabd 6fa6 613f
00000070: 4bed 743f 27ee e3be 35db 47bf e6fe 3dbf
00000080: cd09 b23e 7704 30bf 46fd 2b3f 1c21 1cbe
00000090: fa88 5f3f 5500 4d3f fe05 613f 7f72 0f3f
000000a0: beff 15be 7d11 4e3f a117 edbe ea58 2a3f
000000b0: 8ab7 b03d 0a8b 9e3d 216a b8be 7ef6 3bbf
000000c0: 8979 263f 378e 993e dee1 383f 1bc6 cbbe
000000d0: 4c77 e1bc 1275 a33e 3a2a 00be 7cfe f4be
000000e0: 5ff3 03bf 02ae d63d 79c1 1cbf 358b 92be
000000f0: de42 d43e f010 493f 0aaa 2e3f 9a1e aebe
00000100: 6684 3ebf 6df2 00bf 0ee6 a3be df2e ad3e
00000110: c99d d1bc 5ba3 233f 673d e5bd 030e 34be
00000120: c587 563f a4f4 003e 6832 69bf 63a6 943e
00000130: 37eb 27bf a746 a83e e102 f8be 2833 57bf
00000140: 7488 ce3e bbfc 44bf 88a4 c0bd 85f0 55be
00000150: b0c2 c93e 4eb1 8b3d f801 e6be c34d cb3e
00000160: 41c6 1fbe 529f 473f d70b 2bbe 0e6c 76bf
00000170: d1cf 403f 51d7 2f3f dad8 16be 99c3 83be
00000180: ed36 5f3f f0e2 70bd 81ee 2f3f 1547 0e3f
-0.85172415 -0.7622805 0.8651849 -0.2429583 0.583734 0.8954699 -0.4547335 0.61953765
0.06996089 -0.093482345 -0.2837135 -0.71906567 -0.6135386 -0.0133252395 0.40459973 -0.72659963
0.435265 0.41193286 0.7801646 -0.7737049 -0.32718745 0.5544337 -0.014556891 0.1729199
0.44750324 0.37171012 -0.0988354 0.8814458 0.9567458 -0.44517633 -0.7806886 -0.7421707
0.34773102 -0.6875681 0.6718334 -0.15247005 0.87318385 0.8007863 0.8789977 0.5603408
-0.14648339 0.80495435 -0.4630709 0.6654192 0.08628757 0.07741363 -0.3601847 -0.7342299
0.650292 0.29991314 0.72219646 -0.3979958 -0.027522705 0.31925255 -0.12516108 -0.47850406
-0.5154323 0.10482408 -0.61232716 -0.28621832 0.41457266 0.7854147 0.6822821 -0.34007722
-0.74420774 -0.5036991 -0.32011455 0.33824822 -0.025587933 0.63921136 -0.11193352 -0.1758347
0.8380092 0.12593323 -0.9109254 0.29033193 -0.65593284 0.32866403 -0.48439696 -0.84062433
0.4033848 -0.76948136 -0.09406382 -0.20892532 0.39406347 0.068209276 -0.44923377 0.39707765
-0.15602972 0.7797748 -0.16703735 -0.9625863 0.753171 0.6868792 -0.1473116 -0.25735167
0.87193185 -0.058810174 0.68723303 0.5557721

bias f4 [2]
00000000: a925 bf3d b53a 29be
0.09333355 -0.16526301

weight f4 [5]
00000000: 26f0 623f d7b1 6a3f 6bef 603f db47 6c3f
00000010: 7452 693f
0.8864769 0.9167761 0.8786532 0.9229714 0.9114144

bias f4 [5]
00000000: 02ad 86bc 8820 86bb 5dca b23a fcd9 9ebb
00000010: fe40 0fbd
-0.016439918 -0.0040932335 0.0013640631 -0.004847763 -0.03497409

running_mean f4 [5]
00000000: 5f8c a2c2 7890 5ec1 dcea e0c2 12ed f3c0
00000010: 77d1 ef42
-81.27416 -13.910271 -112.45871 -7.6226892 119.90911

running_var f4 [5]
00000000: 3aed e643 b1e5 d843 f785 e543 a2d2 a743
00000010: ca9a 1d44
461.85333 433.79446 459.0466 335.64557 630.4186

weight f4 [10]
00000000: 02fc 643f 1874 673f 946d 6d3f 28fc 643f
00000010: b8c4 653f fc1a 703f ea8d 573f 55df 673f
00000020: 0aff 653f 99da 6d3f
0.89447033 0.9041152 0.9274533 0.8944726 0.89753294 0.93791175 0.8420092 0.9057515
0.89842284 0.9291168

bias f4 [10]
00000000: 02a6 9bbc b19d a13b 46ce 57bb 08bf 2cbb
00000010: 3193 7dba 2ae3 c9bc a114 f8bc bef1 a43c
00000020: ea25 d23b e40a bcbb
-0.019000057 0.0049321284 -0.0032929345 -0.002635898 -0.00096731173 -0.024644453 -0.030283274 0.020134803
0.006413211 -0.005738603

running_mean f4 [10]
00000000: bcda b73e 910c 9abe fd77 c8bc e066 91be
00000010: 81dc 203f c1fb 5f3f cfa2 563f cfd1 1fbf
00000020: 3d61 7ebe f0f4 153f
0.3590907 -0.30087712 -0.024471277 -0.283988 0.6283646 0.8749352 0.83842176 -0.6242952
-0.24841781 0.5857687

running_var f4 [10]
00000000: 9872 613f 220d 093f e282 1f3f 6ea2 2f3f
00000010: 208b 233f 4a5a 8e40 a57d e33f e882 0f40
00000020: 4f5f d83f 69c9 8d3f
0.8806548 0.53535664 0.62309086 0.68607223 0.6388416 4.4485216 1.7772719 2.242365
1.6904086 1.107709

weight f4 [20]
00000000: eb6b 603f 87fd 623f 6208 603f a524 763f
00000010: 5372 643f af0b 623f d824 5c3f fe97 643f
00000020: 544f 723f 2e33 6f3f 3290 683f 867a 763f
00000030: 50ec 593f c29f 653f 9203 613f 32d8 813f
00000040: 9221 753f 569c 623f 764f 753f a3d6 623f
0.8766467 0.886681 0.8751279 0.96149665 0.89236945 0.8829908 0.8599372 0.8929442
0.94652295 0.9343747 0.90845025 0.96280706 0.8512621 0.89696896 0.8789607 1.0144103
0.9575435 0.885198 0.9582437 0.8860876

bias f4 [20]
00000000: 7167 a8bc 4c00 2e3b d938 72bc 52a7 0b3e
00000010: a138 abbd 638f 3dbb 93a4 afb9 4472 de3b
00000020: 7a9c cf3d 4b48 6b3d 68b5 4fbd 8c02 0a3e
00000030: 2f02 1abd 0be6 9cbd 713a 9f39 e6d5 5c3e
00000040: 87e2 de3d 3890 e23b d1dc d93d 20d4 73bc
-0.020557137 0.002655047 -0.014784061 0.13638046 -0.083604105 -0.0028924576 -0.00033501218 0.006788524
0.101372674 0.05744199 -0.05071011 0.13477534 -0.03759974 -0.07661065 0.00030370386 0.21565971
0.108830504 0.006914165 0.106378205 -0.0148821175

running_mean f4 [20]
00000000: 31b5 8bbe 1119 53be 965a a3bd 8f06 253f
00000010: cef6 853f e4fd 61bf 47ea 54bf 10e6 bcbe
00000020: 647b 28be d919 5e3e 85e8 e33f 0829 a4bf
00000030: 587b 3cbf 344c da3f 0356 9abf 1254 06bf
00000040: 1c84 28bf ab2c bbbf 71a8 21be 960c 4d3f
-0.27286676 -0.20615031 -0.07976262 0.6446313 1.0465944 -0.8827803 -0.8316998 -0.36894274
-0.1645332 0.21689548 1.7805334 -1.2825022 -0.7362571 1.7054505 -1.2057499 -0.5247203
-0.6582658 -1.4623007 -0.15786912 0.8009733

running_var f4 [20]
00000000: 4219 1940 1128 ee3f 6efa ca3f 114d 3b40
00000010: 0cea be41 0daa 993f 0032 9040 66e9 7640
00000020: 7bbb 0040 3ce0 f73f f660 8141 3433 6140
00000030: e497 3040 616c 0142 f67c e140 2d89 6b40
00000040: cf2e 2d40 7f77 bb40 04e3 d33f b245 b540
2.3921666 1.8605977 1.5857675 2.9265788 23.86428 1.200502 4.5061035 3.8579955
2.011443 1.9365306 16.172344 3.5187502 2.7592707 32.35584 7.046504 3.6802475
2.705982 5.858337 1.6553655 5.6647577

weight f4 [50]
00000000: 0000 803f 0000 803f 0000 803f 0000 803f
00000010: 0000 803f 0000 803f 0000 803f 0000 803f
00000020: 0000 803f 0000 803f 0000 803f 0000 803f
00000030: 0000 803f 0000 803f 0000 803f 0000 803f
00000040: 0000 803f 0000 803f 0000 803f 0000 803f
00000050: 0000 803f 0000 803f 0000 803f 0000 803f
00000060: 0000 803f 0000 803f 0000 803f 0000 803f
00000070: 0000 803f 0000 803f 0000 803f 0000 803f
00000080: 0000 803f 0000 803f 0000 803f 0000 803f
00000090: 0000 803f 0000 803f 0000 803f 0000 803f
000000a0: 0000 803f 0000 803f 0000 803f 0000 803f
000000b0: 0000 803f 0000 803f 0000 803f 0000 803f
000000c0: 0000 803f 0000 803f
1.0 1.0 1.0 1.0 1.0 1.0 1.0 1.0
1.0 1.0 1.0 1.0 1.0 1.0 1.0 1.0
1.0 1.0 1.0 1.0 1.0 1.0 1.0 1.0
1.0 1.0 1.0 1.0 1.0 1.0 1.0 1.0
1.0 1.0 1.0 1.0 1.0 1.0 1.0 1.0
1.0 1.0 1.0 1.0 1.0 1.0 1.0 1.0
1.0 1.0

bias f4 [50]
00000000: 0000 0000 0000 0000 0000 0000 0000 0000
00000010: 0000 0000 0000 0000 0000 0000 0000 0000
00000020: 0000 0000 0000 0000 0000 0000 0000 0000
00000030: 0000 0000 0000 0000 0000 0000 0000 0000
00000040: 0000 0000 0000 0000 0000 0000 0000 0000
00000050: 0000 0000 0000 0000 0000 0000 0000 0000
00000060: 0000 0000 0000 0000 0000 0000 0000 0000
00000070: 0000 0000 0000 0000 0000 0000 0000 0000
00000080: 0000 0000 0000 0000 0000 0000 0000 0000
00000090: 0000 0000 0000 0000 0000 0000 0000 0000
000000a0: 0000 0000 0000 0000 0000 0000 0000 0000
000000b0: 0000 0000 0000 0000 0000 0000 0000 0000
000000c0: 0000 0000 0000 0000
0.0 0.0 0.0 0.0 0.0 0.0 0.0 0.0
0.0 0.0 0.0 0.0 0.0 0.0 0.0 0.0
0.0 0.0 0.0 0.0 0.0 0.0 0.0 0.0
0.0 0.0 0.0 0.0 0.0 0.0 0.0 0.0
0.0 0.0 0.0 0.0 0.0 0.0 0.0 0.0
0.0 0.0 0.0 0.0 0.0 0.0 0.0 0.0
0.0 0.0

running_mean f4 [50]
00000000: 0000 0000 0000 0000 0000 0000 0000 0000
00000010: 0000 0000 0000 0000 0000 0000 0000 0000
00000020: 0000 0000 0000 0000 0000 0000 0000 0000
00000030: 0000 0000 0000 0000 0000 0000 0000 0000
00000040: 0000 0000 0000 0000 0000 0000 0000 0000
00000050: 0000 0000 0000 0000 0000 0000 0000 0000
00000060: 0000 0000 0000 0000 0000 0000 0000 0000
00000070: 0000 0000 0000 0000 0000 0000 0000 0000
00000080: 0000 0000 0000 0000 0000 0000 0000 0000
00000090: 0000 0000 0000 0000 0000 0000 0000 0000
000000a0: 0000 0000 0000 0000 0000 0000 0000 0000
000000b0: 0000 0000 0000 0000 0000 0000 0000 0000
000000c0: 0000 0000 0000 0000
0.0 0.0 0.0 0.0 0.0 0.0 0.0 0.0
0.0 0.0 0.0 0.0 0.0 0.0 0.0 0.0
0.0 0.0 0.0 0.0 0.0 0.0 0.0 0.0
0.0 0.0 0.0 0.0 0.0 0.0 0.0 0.0
0.0 0.0 0.0 0.0 0.0 0.0 0.0 0.0
0.0 0.0 0.0 0.0 0.0 0.0 0.0 0.0
0.0 0.0

running_var f4 [50]
00000000: 0000 803f 0000 803f 0000 803f 0000 803f
00000010: 0000 803f 0000 803f 0000 803f 0000 803f
00000020: 0000 803f 0000 803f 0000 803f 0000 803f
00000030: 0000 803f 0000 803f 0000 803f 0000 803f
00000040: 0000 803f 0000 803f 0000 803f 0000 803f
00000050: 0000 803f 0000 803f 0000 803f 0000 803f
00000060: 0000 803f 0000 803f 0000 803f 0000 803f
00000070: 0000 803f 0000 803f 0000 803f 0000 803f
00000080: 0000 803f 0000 803f 0000 803f 0000 803f
00000090: 0000 803f 0000 803f 0000 803f 0000 803f
000000a0: 0000 803f 0000 803f 0000 803f 0000 803f
000000b0: 0000 803f 0000 803f 0000 803f 0000 803f
000000c0: 0000 803f 0000 803f
1.0 1.0 1.0 1.0 1.0 1.0 1.0 1.0
1.0 1.0 1.0 1.0 1.0 1.0 1.0 1.0
1.0 1.0 1.0 1.0 1.0 1.0 1.0 1.0
1.0 1.0 1.0 1.0 1.0 1.0 1.0 1.0
1.0 1.0 1.0 1.0 1.0 1.0 1.0 1.0
1.0 1.0 1.0 1.0 1.0 1.0 1.0 1.0
1.0 1.0
