models/deepvesselnet_noisy2.model (torch_old, 243978 bytes, 26 tensors)

weight f4 [5, 1, 3, 3, 3]
000000 b8 27 eb bd 57 05 cf bd 8d 4f 0c 3e da 0f 78 3d
       -0.11482185 -0.1010844 0.13702221 0.060561992
000010 55 80 19 be ae b5 4d 3d f2 cf 70 3d 9b 38 f7 3b
       -0.14990361 0.05022209 0.058792062 0.0075445897
000020 04 bb 5e bd 3d e1 4b bd 4a 51 40 bd 64 4c 19 3e
       -0.05437757 -0.04977535 -0.046952523 0.14970547
000030 8f 02 66 be 26 72 87 be ec 37 6b 3d f4 27 1f be
       -0.22461914 -0.26454276 0.057426378 -0.15542585
000040 ef f9 d1 3c 6e 67 60 3d b7 0e 53 3e 19 1a 0a be
       0.025631873 0.05478614 0.20611082 -0.13486518
000050 f4 63 0e bd 5d b8 88 bd 8c 87 6d 3c 44 32 d5 bc
       -0.03476329 -0.066757895 0.014497649 -0.026024945
000060 b4 49 f8 3d 93 8e 59 be 5f 9b 52 3a 7f d4 28 be
       0.12123433 -0.21245794 0.00080340164 -0.16487311
000070 9f b2 b6 bd 86 db 88 bc c1 5c dd 3d d2 a2 61 3e
       -0.08920788 -0.01670624 0.10808707 0.22034767
000080 49 8c 63 3d 9e 13 3f be 64 43 11 3e bb 3c 48 be
       0.05555371 -0.18659827 0.14185864 -0.19554417
000090 65 35 2f be 0f aa 04 3d c9 61 5f 3e cb d9 9f 3e
       -0.17110212 0.032388743 0.21814646 0.3122085
0000a0 0b 13 9f 3e 40 61 f4 3d 8e 5a 24 bd 2f 93 4e 3d
       0.31069216 0.119326115 -0.040125422 0.050433334
0000b0 cb b9 46 3e 40 61 a9 bd 5c ff 7e 3d b6 b2 16 be
       0.19406812 -0.08270502 0.06225525 -0.1471661
0000c0 a5 90 33 bb eb ef 42 3e 4e b4 e8 bd fb 41 9e bd
       -0.0027399447 0.19036834 -0.113625154 -0.077274285
0000d0 2f d6 f5 3d 73 8f f5 bd a1 e1 f1 3c 95 60 92 3c
       0.12003743 -0.119902514 0.029526534 0.01786832
0000e0 bb 51 a8 bd c3 8d 09 3e cf 87 42 be a3 6a 10 be
       -0.08218714 0.13432984 -0.1899712 -0.14103179
0000f0 27 48 4f bd 14 8b 52 3e 01 ac 84 bd 96 70 41 be
       -0.05060592 0.20560867 -0.0647812 -0.18890604
000100 4c 77 98 bd 8c b9 08 3d 3a a3 09 be ac d3 4b be
       -0.07444629 0.033380076 -0.13441172 -0.19904965
000110 6c b3 b2 3c 9b d9 db 3d e1 d5 43 be f2 0d 85 3d
       0.02181407 0.10734864 -0.19124557 0.064968005
000120 4b d4 0b 3d 88 b7 c8 3c 52 1c 87 3d 08 a3 90 3c
       0.034138005 0.024501577 0.065971985 0.017655864
000130 df 5a 01 be f9 70 b1 bd a4 0b a5 3d 11 2b 2a 3e
       -0.12632321 -0.08664126 0.08058861 0.16617991
000140 7c ba cb 3d 28 ef 61 3e 38 02 36 3e 2f 6f 8f 3e
       0.099476784 0.22063887 0.17774284 0.28014514
000150 ce 5c 99 bd 65 23 1c be 1a dd cb bc 9d f8 59 3c
       -0.07488404 -0.15247877 -0.024885703 0.013303903
000160 cb 57 c2 3d cc 2a 40 3d 9f f3 d9 3b 3f 26 21 bd
       0.094894014 0.046915814 0.0066513564 -0.039343115
000170 1f b0 f7 bd b5 8c 14 be 3e c6 7c be 8e 47 2e be
       -0.12094139 -0.145068 -0.24684998 -0.17019483
000180 2b b7 f2 bd 28 88 67 3b 5e bb 30 be d1 84 42 3e
       -0.11851343 0.0035328958 -0.17258975 0.18995978
000190 54 42 3d 3d 5b 28 19 3d d9 85 ab bd 1c 77 21 be
       0.046205834 0.037392 -0.08375139 -0.15768093
0001a0 35 4d b3 bd bb 0d 17 3e 07 7e 58 be d2 ad f0 3d
       -0.087549604 0.14751332 -0.21141826 0.117519036
0001b0 6b bf 80 3d 30 dc ff bc d6 5c 5b 3d cc e0 8e 3e
       0.0628651 -0.031232923 0.053555332 0.2790588
0001c0 b9 37 f6 bd 5d e2 ef bd 1a 88 da 3e fa 3d 22 3e
       -0.12022347 -0.11713097 0.42681962 0.15843955
0001d0 72 42 9d bd 02 c9 91 bc b9 96 1a be f9 95 20 3c
       -0.07678689 -0.017796043 -0.15096559 0.009801381
0001e0 a4 6b 0b 3d bb fd 33 bd 43 3d 4d be 5a a7 b6 3e
       0.0340382 -0.043943148 -0.200429 0.35674554
0001f0 e0 92 ee 3d 5a 71 9b bd ef 68 1d be 23 97 ad bd
       0.11649108 -0.075899795 -0.1537206 -0.08476093
000200 77 dd 9b bd 78 37 c9 3d a9 f4 3c be 27 dd bf bd
       -0.076106004 0.09825033 -0.18452705 -0.09368353
000210 29 70 93 3e 44 9a 34 bd 89 34 3f 3d
       0.2879651 -0.04409243 0.04668096

bias f4 [5]
000000 0c 03 3d bd 5c c1 71 3d 41 3d a9 bd 19 36 1a be
       -0.046145484 0.059022292 -0.082636364 -0.15059699
000010 72 14 9f 3d
       0.077675715

weight f4 [10, 5, 5, 5, 5]
000000 79 54 14 3d ff 24 80 bc 64 b7 88 3d 7d 8c 50 bd
       0.036213372 -0.015642641 0.06675604 -0.05091523
000010 7c 23 42 bc c4 ab d6 bc 63 63 89 3c e6 8c 7d bd
       -0.01184928 -0.026204951 0.016771024 -0.06190195
000020 63 74 b8 bd 75 25 a9 3d 91 e1 69 3c 62 ad 7a bc
       -0.09006574 0.082590975 0.014274971 -0.015300127
000030 61 97 ce bd 61 74 ed 3c 9b d9 a0 3c c9 9a 81 3d
       -0.10087467 0.028986158 0.019635012 0.06328351
000040 6b d2 9f bd d4 3b 98 3d e5 d4 e5 ba 40 14 a5 3d
       -0.07803806 0.07433286 -0.0017534761 0.08060503
000050 5d fd 69 3c 66 1a 85 3d 1a c3 90 3d b5 13 94 3d
       0.014281598 0.06499176 0.07068463 0.07230321
000060 9c af 3f 3d 12 15 4a 3b 21 59 be bd 97 8c 98 bd
       0.046798334 0.0030835313 -0.09294344 -0.074486904
000070 15 fa 39 3d 1b 4f 66 3d f6 ca 74 3d c2 20 c7 bc
       0.045404512 0.056227785 0.05976387 -0.024307612
000080 84 80 28 3c 48 12 0e 3d c1 c7 9d 3c 78 b1 bd bd
       0.010284547 0.034685403 0.01926029 -0.09262365
000090 e5 39 fd bd 95 d4 cc bb 4f 69 22 3c 36 49 86 3d
       -0.12364558 -0.0062509277 0.009912803 0.06556933
0000a0 a0 56 24 bd f3 7d 31 bc 81 04 44 bd ea ad 48 bd
       -0.040121675 -0.010833251 -0.047855858 -0.048993982
0000b0 9e fd 1d bd de 05 43 bd 8d 94 92 bd 1e 34 44 3c
       -0.038571946 -0.047613017 -0.0715724 0.011975316
0000c0 52 e2 bf 3d 6e 76 8c 3d c6 64 06 3d 85 0d 19 bd
       0.09369339 0.06858526 0.03281095 -0.03736641
0000d0 a6 3e 91 3d 26 ba b4 3d 3f dc ce 3c 6c b8 cf bc
       0.07092027 0.088245675 0.025251506 -0.025356494
0000e0 66 52 aa 3c fc 1b a6 bd ed aa 32 bc 26 19 25 3d
       0.020791244 -0.08110806 -0.01090501 0.040307187
0000f0 e7 dc fd 3c 9d 40 f4 bd d5 b4 f5 bd 02 df 67 3d
       0.030989124 -0.119263865 -0.119973816 0.05660916
000100 84 72 1c 3d 27 c4 f0 3c 64 8d fc bc f0 a9 27 bd
       0.038195148 0.029390408 -0.030829139 -0.04093355
000110 7b 7f ab 3c 7f c1 a8 3d 5c f5 a8 3d f7 e8 4d bd
       0.02093481 0.082400315 0.082499236 -0.050271
000120 0e 23 b7 3d 24 19 73 3d 63 02 0f 3e 28 e5 a2 bd
       0.08942233 0.059350148 0.13965754 -0.07953864
000130 16 1e a4 bc 7e c3 8a 3d ea 68 24 3d 36 b3 e1 3d
       -0.020033877 0.067755684 0.040139116 0.1102051
000140 e5 47 88 3d d4 2d 35 bd f9 e8 d8 bd f0 d0 4e 3d
       0.06654338 -0.04423316 -0.10591311 0.050492227
000150 77 7e 53 3d 31 62 64 3d a8 5b 1b 3d a4 53 94 bc
       0.05163428 0.055757705 0.037929207 -0.01810629
000160 55 a9 5c bd 3f c0 90 ba cf 38 6f 3d 2e 72 60 3d
       -0.053872425 -0.0011043622 0.058403786 0.05479639
000170 36 64 00 3b 8c d2 8c bc 43 b9 ab 3c ab 53 6d bc
       0.001959098 -0.01719024 0.020962363 -0.01448528
000180 3b c1 b1 bd 6c de 1c bd 13 92 ae 3d db 16 2b 3d
       -0.08679434 -0.038298056 0.08523955 0.041769844
000190 a5 95 cf bb 9e 66 77 3d 11 c0 36 3d 2a 36 93 3d
       -0.0063349777 0.060400598 0.044616763 0.07188065
0001a0 e4 6f 70 3d e0 ef 85 3d d2 5e 8d 3b 41 17 c8 3c
       0.058700457 0.06539893 0.004314282 0.02442515
0001b0 f6 89 80 bd db f3 ad 3c aa 1b a2 3c 0a 9f 44 3d
       -0.06276314 0.021234443 0.019788582 0.048003234
0001c0 9e 3b 13 bd 0b 4e 44 3d 25 9a 12 3d fb 12 3e bd
       -0.035945527 0.04792599 0.035791535 -0.04640482
0001d0 8d 0e 8b bd b6 e7 9f 3c 16 85 95 bd 8b 34 2e bc
       -0.06789885 0.019519668 -0.07300775 -0.010632644
0001e0 6f a9 ad bc 4a 5d 2b bc be 71 8c 3c 9a cc b7 3d
       -0.021198956 -0.010459254 0.01714408 0.089745715
0001f0 3b 6a 0d 3d e5 50 8d bd 53 6a ff bd c3 22 96 bc
       0.034525137 -0.06900195 -0.124714516 -0.018327123
000200 5c 68 6f 3c 58 d5 13 bd db 5e ac 3b 1b 4b 93 bd
       0.014612284 -0.036092132 0.005260331 -0.071920596
000210 7b 40 6e bd d4 47 5d 3c aa f2 ef bd f8 c5 7e bd
       -0.058166962 0.013505895 -0.11716206 -0.062200516
000220 47 bb 45 bd 40 a3 ef 3c b6 f7 cb bd 72 f1 f0 bd
       -0.048274305 0.029252648 -0.099593565 -0.11764802
000230 07 9d 9e 3c 5b 31 16 bd 43 7e 5a bd f1 e0 a1 bd
       0.019361986 -0.036668163 -0.05334307 -0.07904232
000240 2f 1b 0e be 40 05 7b 3a 77 6e e6 bc b7 19 d5 bd
       -0.13877557 0.00095756724 -0.028128846 -0.10405295
000250 8a c0 ff bc cf eb 0c be 0a cb b6 bd 81 47 83 bc
       -0.03121974 -0.13761829 -0.089254454 -0.016025307
000260 53 b2 59 3d 36 eb af bd 85 cd e1 3c 72 ad d3 bc
       0.05314858 -0.08589785 0.02756382 -0.025839541
000270 e2 30 da 3d 23 39 7d 3d c6 3a d8 3d 7d 23 fe bb
       0.10653855 0.061822068 0.10558085 -0.0077556954
000280 70 03 52 3d 05 9c 10 3e 06 54 c0 3d b1 19 bd bc
       0.05127281 0.14122017 0.09391026 -0.02308354
000290 70 66 1b 3c 80 50 c0 3d 19 af 0b 3c f8 1e 91 bb
       0.009484872 0.09390354 0.008525633 -0.0044287406
0002a0 71 ee 64 bd 54 2d 71 bd c7 f6 82 bc 58 53 8a bd
       -0.055891458 -0.05888112 -0.015986813 -0.06754178
0002b0 6f 99 9f bc 67 a5 7a bc d1 fb 0f bd 4c 50 9a 3c
       -0.019482343 -0.015298224 -0.03515226 0.018837117
0002c0 7e 13 8a 3d 1b 6d 09 3c 6f 48 e7 bc 3c e8 55 3d
       0.06741999 0.008387829 -0.028232781 0.05222343
0002d0 e0 38 39 3d b3 4b bb 3c 30 76 05 3e 2b 3d ef 3d
       0.045220256 0.022863245 0.13033366 0.11681589
0002e0 23 69 ce 3c d1 2f b7 3d 08 67 0f 3e 9b 3a 2a 3d
       0.025196617 0.08944667 0.14004147 0.041559797
0002f0 90 9f d8 3c 5d 4e 7f 3c 0e f6 3f bc 2b 6c 9b 3d
       0.026443273 0.015582648 -0.011716379 0.07588991
000300 62 7d 5d 3c 0d b6 5b 3d 96 77 e0 bd c9 b7 92 3d
       0.013518663 0.053640414 -0.10960309 0.071639605
000310 8f b5 f5 3c 4c 11 e2 bc ff d4 d6 bd a5 4c af bd
       0.0299938 -0.027596138 -0.104898445 -0.08559541
000320 7a c8 ba bd b6 42 b3 3c 38 8e 75 3b a8 0c f1 3c
       -0.09120269 0.021882396 0.0037468802 0.02942498
000330 15 0c 8e bc d3 02 aa bd 0e 84 9a 3d 7d 97 1a bd
       -0.017339746 -0.0830132 0.07544719 -0.037742127
000340 5e 5b 6e bd 89 a7 08 bd 7d 80 b4 3d e6 be 89 3d
       -0.058192603 -0.0333629 0.0881357 0.06725864
000350 c3 e6 dc 3d 80 60 fa 3b 4e c8 f3 bc 28 b2 5a bc
       0.10786202 0.007640898 -0.029758599 -0.01334814
000360 3d 17 0f bd c7 b0 78 3d 74 68 13 3c dc 2b 68 3d
       -0.03493427 0.060715463 0.008997072 0.056682453
000370 00 ee a6 bd f9 47 72 3c e1 90 3a 3d d6 6b 8f 3c
       -0.08150864 0.014787667 0.045548324 0.017507475
000380 8e 49 61 bd d6 4b 0b be b8 6f 5e bd c7 d4 e7 bd
       -0.055001788 -0.13603148 -0.054305762 -0.11319881
000390 54 7d 6c bd 7f 2b 44 bd 8e ee eb bd b0 d4 39 bd
       -0.05773671 -0.047893044 -0.1152011 -0.04536885
0003a0 37 a5 1d bd 3e 06 53 3d a7 c1 2d bd c8 44 21 bd
       -0.03848764 0.051519625 -0.04242101 -0.039372236
0003b0 ae 00 4f bd 5f 3e 93 3d 58 be 99 bd 56 4f b2 bd
       -0.050537758 0.07189631 -0.07507008 -0.087065384
0003c0 73 5a 5c bd a3 83 86 bd c1 69 84 3c 75 ed a6 bc
       -0.053797197 -0.065680765 0.016163709 -0.0203769
0003d0 4c 7c 73 bd 9c 28 41 3d be 2c 12 bc 4c 55 3a 3d
       -0.05944471 0.04715787 -0.0089218 0.0454915
0003e0 be 9b 97 bd 5b bf 71 3d 2a a1 89 3d a2 07 ec 3c
       -0.07402752 0.05902038 0.06720193 0.028812233
0003f0 10 5d 95 3d 21 74 5b bd 9d 42 20 3d fa 47 bb bc
       0.07293141 -0.053577546 0.039126027 -0.02286147

bias f4 [10]
000000 d2 9a e8 3c ab a0 20 bd 4c 42 1d 3d fc 1a 06 3d
       0.028394137 -0.039215725 0.038393304 0.032740578
000010 9d 87 cb bc 83 c9 f4 bc c3 39 6f bb 36 85 73 3c
       -0.024844939 -0.029881245 -0.0036502935 0.014863303
000020 a4 1d d1 bc 59 37 29 bc
       -0.025526829 -0.010328137

weight f4 [20, 10, 5, 5, 5]
000000 44 8b 44 bd 7c 70 bc 3c 84 dd 7c 3d cf 86 62 bd
       -0.047984377 0.023002855 0.06173469 -0.055304345
000010 34 84 94 bd f6 07 83 3d 9f 82 34 ba 5f f8 31 bd
       -0.07251778 0.06398003 -0.0006885919 -0.043449756
000020 17 8b 40 ba cf bb 87 bc 20 67 5e bc 71 e2 11 3b
       -0.0007344945 -0.016569046 -0.013574392 0.0022260214
000030 87 4f 82 3d 64 60 44 bd af b4 e2 3c e3 d0 44 3d
       0.06362825 -0.047943488 0.027674047 0.048050772
000040 04 3b 19 bd 0d 19 75 3d 10 4c 7d bd c2 5a a4 bd
       -0.037409797 0.059838343 -0.061840117 -0.08025123
000050 29 73 3f 3d ed 5e 5f 3c df 32 55 3c 34 9d 68 3d
       0.046740685 0.013633472 0.013012617 0.056790546
000060 bc 6f 38 3d 22 08 a0 bd 24 9c 89 3d 71 be 71 bc
       0.045028433 -0.07814051 0.067192346 -0.014754877
000070 9a 8d e0 3c 67 95 ce bc 23 e1 82 3d d9 4b f0 bc
       0.02741127 -0.025217725 0.06390598 -0.029333042
000080 2c 75 7f 3d 85 5a 9f 3d c6 01 c3 bc c1 09 8a bd
       0.062367603 0.07780937 -0.023804557 -0.06740142
000090 9e 93 b2 bd ac 85 b8 bd 7f 05 b2 bd 2a 3b 84 bd
       -0.08719562 -0.09009871 -0.086924545 -0.06456597
0000a0 2d 23 86 3c df bb 6a bd a9 b4 5e bd 5a a9 45 3d
       0.016374195 -0.057308074 -0.05437151 0.04825721
0000b0 3d 82 cb bd c9 7c 87 bd 7d 54 0e bd 76 b8 3c 3d
       -0.0993695 -0.06615598 -0.034748543 0.046074353
0000c0 b1 3d 2f 3d 63 e4 c8 bd ed 5b 20 bd ad 05 eb ba
       0.042783443 -0.09809186 -0.039150167 -0.0017930769
0000d0 9e 14 85 3c af 3c 3f 3d fb ca 06 3d 34 6d b6 3c
       0.016245183 0.04668873 0.03290842 0.022268869
0000e0 dc da 1d bd de 82 87 bd e8 52 55 bc 80 ab 61 bd
       -0.0385388 -0.06616758 -0.013020255 -0.055095196
0000f0 d5 28 16 3d 05 8b 08 bd 56 9a 25 3d fe 81 0b 3d
       0.036660034 -0.033335704 0.04043039 0.034059517
000100 55 23 00 bd c6 28 75 bb 24 b7 b4 bc ca 69 c0 bd
       -0.031283695 -0.0037408336 -0.022059985 -0.09395178
000110 44 b7 c0 bd 2e 88 16 bc 46 2a 34 3d 0e cb 07 3d
       -0.09409955 -0.009187741 0.043985628 0.033152632
000120 53 70 a7 bd b2 83 08 3c f7 65 7b 3c 19 51 8a 3c
       -0.08175721 0.00833218 0.0153441345 0.016884374
000130 02 ca f7 3c a5 c7 45 bd 5d b6 a9 bd 54 87 29 bd
       0.030247692 -0.0482861 -0.08286736 -0.041388825
000140 8e 16 a8 bd 8f 16 e1 bc f3 37 6c 3d c7 8b a7 bd
       -0.08207427 -0.027476577 0.057670545 -0.08180957
000150 f3 b9 5a bd 80 70 e7 bc 5d 64 81 bd 85 f4 d4 bd
       -0.05339999 -0.028251886 -0.06317971 -0.10398201
000160 b2 72 6f 3d 21 c7 e0 bd be f5 b3 bd ea 27 0f bd
       0.05845899 -0.10975481 -0.08787106 -0.034950174
000170 d5 b5 57 3d 10 c9 d3 bd 6e 26 92 bc b0 08 71 bd
       0.052663643 -0.10341084 -0.01784059 -0.058846176
000180 cf 41 07 3d b2 e7 00 bd 5f f0 41 bd d3 7c 4a 3d
       0.033021744 -0.031470962 -0.047348376 0.049435448
000190 4e 67 ca 3d 18 79 84 bd c2 cd a2 bc ed df 7d 3d
       0.09882985 -0.06468409 -0.019873504 0.06198113
0001a0 87 3e 44 bc d9 78 26 b9 1a 4f 3b bc a7 0e 74 bd
       -0.011977798 -0.00015876013 -0.0114324335 -0.059584286
0001b0 32 70 03 3d 01 39 3e bd 35 7d 08 3c c7 b4 3e 3d
       0.03208942 -0.046441082 0.008330633 0.04655912
0001c0 ce 12 f9 3b 59 55 05 bd e8 9e 4b bd b9 ae 27 bd
       0.0076011186 -0.032552097 -0.04971209 -0.040938113
0001d0 ba 94 3b bd 1c 51 93 bd 6e f7 45 3d 22 54 65 3c
       -0.045796134 -0.07193205 0.04833167 0.01399711
0001e0 35 25 7a 3d 12 95 f3 3c 5d 05 01 3d f3 e8 88 3c
       0.06107064 0.029734168 0.031499255 0.016712641
0001f0 5b 4b 90 bd 17 ec be 3d 62 2e 9c 3c 59 ee 68 3b
       -0.07045623 0.09322374 0.019065086 0.0035542457
000200 4e 04 89 3d f5 f8 91 bd e2 26 7a bd 98 6f 94 3d
       0.06690274 -0.07127563 -0.061072238 0.07247847
000210 d1 0b 3f bd 39 fc 81 bd ac d0 1e 3c ca 86 b1 bc
       -0.04664213 -0.06346936 0.009693306 -0.021670718
000220 07 16 6f bd f7 ab 81 3c 0a 5c 8b 3d a7 b7 bd bc
       -0.058370616 0.01582907 0.068046644 -0.023158861
000230 38 43 aa 3d 53 a1 6c bd de e5 40 3d e9 b5 41 bc
       0.08313602 -0.05777104 0.04709422 -0.011823156
000240 bc 56 c7 3d 67 f7 4e bd 71 d5 10 bd a8 7a f1 3c
       0.0973334 -0.05052891 -0.035359804 0.029477432
000250 fe b9 72 bc 5a 8a 4b bd f1 2b 33 3d 0e 7e 60 3d
       -0.014814852 -0.04969249 0.043743078 0.054807715
000260 dc ce 4b bd 11 ba 6a bc 46 88 44 bc 0c b8 88 bc
       -0.049757823 -0.014326588 -0.011995381 -0.016689323
000270 e7 7c a4 bd dc 00 c3 3d 74 1f 31 ba f5 70 01 bd
       -0.08031636 0.09521648 -0.0006756701 -0.031601865
000280 22 ff 39 bd 78 29 85 3d aa 95 00 bd 35 df a4 bd
       -0.04540933 0.0650205 -0.03139273 -0.08050386
000290 a5 dd 27 bc 2a 16 42 bd 36 7a 5d 3d c2 30 8f 3d
       -0.010245715 -0.04738442 0.054071628 0.06991722
0002a0 2a 52 ae 3c f8 2f a3 3d 88 dc ac 3d 82 37 97 bd
       0.021279413 0.07968134 0.084405005 -0.07383634
0002b0 15 ae 2a bb e4 4b 89 bd 48 42 37 3d e7 0c 01 3c
       -0.0026043702 -0.06703928 0.044740945 0.007876611
0002c0 a2 54 0c 3d d3 b0 14 bc 3b 1a 7e 3d 83 8e 10 3c
       0.0342604 -0.009075361 0.062036734 0.00882304
0002d0 72 06 8e 3d 7b 8f ad 3d 1e df e7 bc c6 d1 ac bc
       0.06934823 0.08474632 -0.028304633 -0.021096122
0002e0 fc e7 1e 3d af c6 a2 3d bc 91 9d bc b5 47 da bc
       0.038795456 0.07948052 -0.01923453 -0.02664552
0002f0 56 4e aa bd c0 35 66 bd 7e b3 4d bd cc 96 9a bd
       -0.08315723 -0.056203604 -0.050220005 -0.075482935
000300 65 71 5b bc c2 95 b4 3d 17 0c 7f 3d e2 a1 21 bd
       -0.013393735 0.088176265 0.06226739 -0.039461024
000310 62 f7 9a bc 5f 0a 8d bd cd 24 81 bd bb f6 e4 bb
       -0.01891679 -0.06886744 -0.06305847 -0.0069874204
000320 e9 ff 72 bd b2 c3 0a 3d 2f 7c 87 bc 0c bf 05 bc
       -0.059326086 0.033878036 -0.016538708 -0.008163225
000330 92 5e 8e bb b1 be 95 bb 3f 6b d6 b9 eb 9b 85 3d
       -0.0043447698 -0.0045698513 -0.00040897165 0.065238796
000340 4c 8a c7 3d ea 77 d2 3c ce 53 57 bd 8f a1 73 bd
       0.09743175 0.025691945 -0.052570157 -0.059480246
000350 ae 79 68 bd ce 31 3c bd fa eb d1 bc e2 cb 18 3b
       -0.056756668 -0.045945935 -0.025625218 0.0023314883
000360 dc 89 aa 3d 69 9e eb 3c 3c 13 2b 3d ac b6 c5 3d
       0.08327076 0.02876206 0.04176639 0.096539825
000370 2e 95 97 3d 61 43 3a 3c 95 95 c2 3d fc a4 92 bd
       0.07401501 0.011368603 0.09501187 -0.071603745
000380 ec d6 95 3d 20 66 c6 3c e9 4c 8c bd 35 57 75 3d
       0.07316384 0.024218619 -0.06850607 0.05989762
000390 3b 30 9d 3d a4 af 88 bd 43 0c 90 bb 4a 87 73 bd
       0.07675215 -0.06674126 -0.004395993 -0.059455194
0003a0 6a c7 71 3d 31 6d 81 3d 0f e8 75 bc 43 f7 9e 3b
       0.059028067 0.06319655 -0.01500894 0.0048512532
0003b0 60 bc 8a bd 3d c9 97 3d 1f 22 50 bd 8c 95 e2 3c
       -0.06774211 0.0741143 -0.05081379 0.0276592
0003c0 54 88 9b 3c bf d5 6b 3c bf 29 9a 3d 2f ef 89 bd
       0.018985905 0.014394223 0.07527494 -0.06735074
0003d0 c5 a7 83 3d 83 47 c2 3d 89 f1 94 bd 11 51 6f bd
       0.06428484 0.09486296 -0.07272632 -0.05842692
0003e0 d9 e6 4f 3d b0 17 3e 3d ae 5a 40 3d 95 29 9d bd
       0.050757263 0.04640931 0.04696148 -0.07673947
0003f0 f1 d6 65 bd 8a 99 9d bd 4a 8f a6 bc 38 27 46 bd
       -0.056113187 -0.07695301 -0.020331997 -0.048377246

bias f4 [20]
000000 79 8f 37 3c 26 b4 53 3b 7e c7 a5 bc 91 a5 a9 3c
       0.01120364 0.0032303422 -0.020236727 0.020708831
000010 45 c3 43 bb 81 23 1d 3b b3 15 79 3c 13 de d0 bc
       -0.0029871028 0.002397746 0.015202927 -0.025496518
000020 36 e1 ac 3c fc 17 db bc 64 4d d8 3c fc 9b c4 3c
       0.021103483 -0.026744835 0.02640409 0.02400016
000030 9b 1d 1b 3c 94 81 3c bc 58 4d 3f 3c 6c 6e 72 bc
       0.009467508 -0.011505503 0.011676155 -0.014796834
000040 92 74 86 bc 1f 94 8f bc 85 6f e8 3b 6a 6d 75 3c
       -0.016413007 -0.017526684 0.0070933723 0.0149797

weight f4 [50, 20, 3, 3, 3]
000000 f0 7e a0 3d 63 1c 9b 3d 06 d1 2b be 40 75 44 be
       0.078367114 0.07573774 -0.16778955 -0.19185352
000010 3e 28 a6 3c ea 6a 71 3d b8 a6 fa bd 3c 4f 5f bd
       0.02028286 0.05893985 -0.1223883 -0.054518923
000020 f3 34 b0 bd 22 36 ca bc 37 9c cf bc aa 2d 96 bd
       -0.08603849 -0.024684016 -0.025343044 -0.073329285
000030 d4 dc 6a 3d 5b 0a 96 bd 67 44 44 be bb 39 1a bc
       0.057339504 -0.07326194 -0.19166718 -0.009413178
000040 66 b2 ff bd 14 fb 07 be fd 79 fd bd 97 5e 33 3e
       -0.12485199 -0.13279372 -0.12376783 0.17516552
000050 47 fe 95 3d 32 f8 2e be 69 61 17 3d 30 a4 40 3e
       0.0732389 -0.17086866 0.036958132 0.18812633
000060 09 14 12 3e 86 2b 45 bd 7d 86 8e bd 36 a3 27 3a
       0.14265455 -0.04813721 -0.06959245 0.0006394865
000070 62 5a 72 bd a1 25 a1 3d fe 1f 0e be 50 5c c1 3c
       -0.059168227 0.07868505 -0.13879392 0.023603588
000080 4d fa 11 be fd b2 87 3d de c3 00 3e 96 1f 21 3d
       -0.14255638 0.06625936 0.12574717 0.039336763
000090 81 3c cc bd 6f 2d 36 bd 61 e1 16 be 3d f3 9f bd
       -0.09972478 -0.044476923 -0.14734413 -0.07810066
0000a0 09 7b 23 bd 46 2c 53 3d 7b bb 52 3c 2d 29 39 bd
       -0.039912257 0.051555894 0.012862082 -0.045205284
0000b0 99 c0 30 3e 6e f4 2d be 2a 2e 2b bc 22 95 cd bd
       0.1726097 -0.16987774 -0.010448018 -0.100382105
0000c0 0a 4e 0d 3c af 49 31 3d dc 7f 12 3e 19 87 0a 3d
       0.008624563 0.04328316 0.14306587 0.033820245
0000d0 e8 94 1f 3e 48 22 8e bd 48 36 1b 3d d7 17 cc bd
       0.15584147 -0.069401324 0.037893564 -0.099654846
0000e0 21 75 20 be 47 38 83 bd df 20 03 bd e7 51 7d bd
       -0.15669681 -0.064072184 -0.03201377 -0.061845686
0000f0 61 e0 96 3d 7e c7 1e 3e 74 e3 10 bd 69 d3 27 bd
       0.07367016 0.15505788 -0.035373166 -0.0409731
000100 e2 82 ab 3d 8b 3e 08 be 2b 07 0b bd b8 fa 2b be
       0.08374573 -0.13305108 -0.033942383 -0.1679486
000110 30 85 c5 bd 0b d8 3e 3d f7 cf a9 3d 25 b6 7e 3d
       -0.09644544 0.046592753 0.08291619 0.062185425
000120 2a 56 ce bd ae b7 03 3e e9 8d ee bd 75 ab 19 3e
       -0.10075028 0.12863037 -0.11648161 0.15006812
000130 c7 79 38 3d a8 76 9f 3d 60 7e 0c be e3 5d 59 bd
       0.04503801 0.07786304 -0.13720083 -0.053068053
000140 a1 92 5d bc 4b f5 fa 3d 5c 89 25 3e e1 ac ec 3d
       -0.013523729 0.12253817 0.1616568 0.115564115
000150 66 5d 1f 3e e8 4c 08 be 27 9f 02 3e 54 74 12 3e
       0.15562972 -0.13310587 0.12756024 0.14302188
000160 55 60 85 bd de 33 dd bd c3 8e 2a 3e 6d 81 35 bd
       -0.065125145 -0.108009085 0.16656022 -0.044312883
000170 af 1f 3a be 30 05 3d bc 47 2c f8 3d 69 48 8a bc
       -0.18176149 -0.011536881 0.1211782 -0.016880231
000180 62 7c 61 3c 2c a8 27 3c 46 0b e2 3c b8 6d 27 be
       0.013762565 0.010232966 0.027593266 -0.16350448
000190 ce e3 b6 3d d6 52 fb bc 62 c6 12 be a2 46 ab bd
       0.08930169 -0.030679148 -0.1433349 -0.083630815
0001a0 b9 57 c5 bd ef 03 fe bd cb 94 af 3d b7 f7 79 3d
       -0.096358724 -0.12403094 0.08573302 0.061027255
0001b0 a3 0a 6c bd b6 e8 a3 bc 96 09 16 be 0a 5a 2b 3e
       -0.05762733 -0.020008426 -0.14652094 0.16733566
0001c0 47 dc a5 bb b1 2b b5 3c 2a 31 86 bd 24 37 f5 3d
       -0.0050616595 0.02211556 -0.06552346 0.11973408
0001d0 dc ae a2 bd b4 0d 46 be 0c d9 1c be a2 f4 9f 3d
       -0.07943508 -0.19341165 -0.15317172 0.07810332
0001e0 aa aa f1 3d 88 e6 22 3e d5 37 f5 3d 9b 4a 30 be
       0.1180013 0.15908253 0.1197354 -0.1721596
0001f0 30 b4 a8 3d d8 81 c4 3d 23 30 c1 bd 6a 2b 00 be
       0.08237493 0.09595078 -0.094330095 -0.12516561
000200 94 4d e3 3d 74 6f 1a 3e 8e 51 18 be a3 29 c6 bd
       0.11098781 0.15081578 -0.1487486 -0.0967591
000210 64 7c 3f bd 0b bc 44 3c 20 c2 3d 3d 6a 67 bf 3d
       -0.046749488 0.012007724 0.04632771 0.093458965
000220 9d 67 95 3d 3e 9f 58 3b ea 08 16 3e 19 30 e8 bd
       0.07295153 0.00330539 0.14651838 -0.11337299
000230 a5 9a 04 3d 0c 16 40 be bb 7c 02 3e 22 7f 71 ba
       0.032374043 -0.1875841 0.12742893 -0.00092123647
000240 05 3b cb 3c 1b 84 0e 3e 5b 21 ec 3d 71 3b c6 3d
       0.024808416 0.13917582 0.115297996 0.09679306
000250 d1 09 0a 3e 2c 5f 90 bd bd 36 4f bd de 75 c0 3c
       0.13480307 -0.070494026 -0.050589312 0.023493703
000260 7e 12 1e be d6 bf 10 3e bb 20 9a 3d 20 f7 c8 bd
       -0.15436742 0.1413568 0.07525774 -0.0981276
000270 8d 04 b6 3d ea 78 e3 3c 6e 45 a7 bd 20 a3 2e 3e
       0.08887587 0.027767617 -0.081675395 0.17054415
000280 5d 04 fc 3d da a5 ef bb 69 47 31 be 05 b4 75 bd
       0.1230552 -0.007313472 -0.17312397 -0.059986133
000290 3c b1 12 be 6c 95 82 39 e6 5f f8 bc 74 fc 36 be
       -0.14325422 0.0002490686 -0.030319165 -0.1786974
0002a0 fc f6 f2 3d 89 ca 3a 3d bd be 2a be 91 3c 58 3d
       0.11863515 0.04560331 -0.16674323 0.052792136
0002b0 a9 8e ba 3c 57 44 b0 3c 54 3a 08 3e 63 5b 1a 3e
       0.022773104 0.021516962 0.133035 0.15073924
0002c0 32 be 32 be 77 47 af bd b3 3a d7 3c 0e 6c 85 bd
       -0.17455366 -0.08558553 0.026273107 -0.065147504
0002d0 05 90 3c be 5a 73 18 be 89 ec a2 3d 89 bb 46 bd
       -0.18414314 -0.14887753 0.07955272 -0.04851869
0002e0 03 d2 d5 bd c9 e7 32 3e df 8b 1e 3e 04 a7 1a be
       -0.10440447 0.17471232 0.15483044 -0.15102774
0002f0 ac da 09 be 6d ed 89 3d bb ca 00 3e c8 df e3 3d
       -0.13462323 0.067347385 0.12577336 0.11126667
000300 fa ba 31 3e a0 d1 33 bd a2 79 a1 ba b8 2e 3d be
       0.17356482 -0.043901086 -0.0012319575 -0.18474853
000310 54 3a 28 be d9 17 f0 bd a2 0b 8e bd 4f c2 8f bd
       -0.164285 -0.117232986 -0.069358125 -0.07019483
000320 fd 2c 9f bc 32 b7 40 be 82 66 21 3d 86 19 17 be
       -0.019430632 -0.18819883 0.0394044 -0.1475583
000330 aa d2 84 bd 8e 58 2d 3e 89 fc d8 bd 42 e6 47 3c
       -0.064854935 0.16928312 -0.10595042 0.012200894
000340 d9 ef 5b bd 5d d9 8f 3c 0c 77 b9 bd 6a 69 f0 3d
       -0.053695533 0.017559702 -0.090559095 0.11738856
000350 eb d1 b6 3d fd c6 90 3c 4c a6 d4 3d 2f b8 39 be
       0.089267574 0.01767301 0.10383281 -0.18136667
000360 71 b1 32 3e 2c 7a 10 be 88 40 3e be a6 30 72 bd
       0.17450501 -0.14109105 -0.18579304 -0.059128426
000370 bf ea b9 3c 98 1a ed 3c 65 41 bc 3d 62 c9 2f 3c
       0.022694943 0.028943345 0.091921605 0.010729166
000380 8e b1 39 3e 37 04 b4 bd 0a 4f 0d 3e 17 42 32 be
       0.18134138 -0.087898664 0.13799682 -0.17408024
000390 05 68 0c 3d 3d f0 a1 3c 48 80 a6 bd d1 3a 0d be
       0.03427889 0.019767875 -0.081299365 -0.13791968
0003a0 18 af 61 3d 50 c8 a7 bd 0f ff 06 be db e2 2d 3e
       0.055098623 -0.081925035 -0.13183235 0.1698107
0003b0 89 84 1a 3d 23 69 55 3d ce 31 19 3e 0b a4 0c 3d
       0.03772405 0.05210222 0.14960405 0.03433613
0003c0 28 ef 57 bc 5b c5 46 be cb 5b 41 3d d2 9e 11 3d
       -0.013179578 -0.19411223 0.04720668 0.035551853
0003d0 0b ef 8e bc 5a a7 26 3e e4 28 dc 3c 7a de 42 be
       -0.017447969 0.16274777 0.026874967 -0.1903018
0003e0 8e 14 da bd 2e 1b b4 bd 96 4e 23 be 0a c4 13 be
       -0.10648452 -0.087942466 -0.15947947 -0.14430252
0003f0 d4 d2 79 bc a9 89 bc 3c 07 c5 38 be 46 3e 1a be
       -0.015248019 0.02301486 -0.1804391 -0.15062818

bias f4 [50]
000000 3f 41 f8 3c 90 06 67 3c 00 eb 38 bb de f5 53 bd
       0.03030455 0.014100686 -0.0028216243 -0.05174815
000010 4b ea 18 bd 7e 3b 0d 3d ac 90 ec 3d 6a df cd 3d
       -0.037332814 0.034480564 0.115510315 0.100523785
000020 1e df 13 3d 72 95 ba 3c 10 ba 28 bd 60 1e b1 bc
       0.036101453 0.02277634 -0.041193068 -0.02162093
000030 e5 ad 25 bd 71 51 a6 3b 81 84 05 3d e9 f0 a6 3c
       -0.040449042 0.0050756265 0.03259707 0.020378547
000040 c1 bd de 3c 37 bc 69 bd fc ae 10 3c 9b e6 f5 3c
       0.027190091 -0.05706426 0.008830782 0.030017188
000050 63 f7 60 bd cd 21 f3 bc 03 48 9c 3d bf 27 b3 3c
       -0.054923426 -0.029679203 0.07630923 0.021869538
000060 20 c1 e2 bc ac 75 a4 bc 48 cf 94 bd dd 93 c2 3c
       -0.02767998 -0.020075642 -0.07266098 0.023752147
000070 19 3b 94 bc 2d 95 21 bd 6a 0e 1a bd 26 ba af bc
       -0.018094586 -0.039448906 -0.037611403 -0.021451067
000080 3d 32 f5 bc 70 de 43 bd 39 39 c4 3c 43 0c 3a bc
       -0.029931182 -0.047819555 0.023953067 -0.0113554625
000090 eb aa 6f 3d cc f1 06 3c c1 bc 07 bd 0c df 89 3d
       0.05851261 0.00823636 -0.033138994 0.06731996
0000a0 3b 82 b9 3c 31 ce 86 3d f0 80 5a bd 7b ce b2 bc
       0.022645107 0.06582297 -0.05334562 -0.021826973
0000b0 f8 16 00 3d 6f d2 13 bd 9b 9f 73 bc 39 83 dd 3a
       0.031271905 -0.036089357 -0.014869596 0.0016900069
0000c0 ae 18 23 bc 60 5d a5 3c
       -0.009954615 0.020186126

weight f4 [2, 50, 1, 1, 1]
000000 f5 31 47 bf c9 4e 95 be f9 b8 47 3e 79 fd a3 be
       -0.77810603 -0.2916167 0.19504155 -0.32029322
000010 9a 70 b9 3e 9b 57 86 3f 4e e6 1c 3f 20 ff 61 3f
       0.3621872 1.0495485 0.6128892 0.88279915
000020 22 10 cf 3c e3 74 18 3f ad e4 2d 3f 54 2c 10 bf
       0.025276247 0.59553355 0.67927057 -0.5631764
000030 3e 32 51 bf 3c 6d 0f bf 7a 65 34 3f f9 67 2f be
       -0.8171729 -0.56026053 0.7046734 -0.17129506
000040 d2 3c 00 be 5b b4 cc 3e d3 32 ad bd b8 76 6f 3f
       -0.12523201 0.3998135 -0.084569596 0.93540525
000050 b3 ec 6a bd 45 e9 10 bf d2 c9 18 3f 03 54 c0 be
       -0.05735464 -0.5660594 0.59682953 -0.37564096
000060 d2 0c 09 bf b4 b1 1b bf e6 fe 30 3e 0b 24 3c 3e
       -0.5353519 -0.6081803 0.17284736 0.18373124
000070 ec 5e 80 3e 82 c8 45 bf 61 b0 13 bf ae de 44 3f
       0.2507242 -0.77259076 -0.5769101 0.7690228
000080 ad 34 5e 3f 32 72 01 bf 21 80 42 3f 16 c7 75 bf
       0.86799127 -0.50564873 0.7597676 -0.96006906
000090 32 18 48 3f 85 f9 46 bf 6e 68 67 bf 91 d4 d7 3e
       0.7816192 -0.77724487 -0.9039372 0.42154363
0000a0 d3 a0 00 be cb a9 17 3f 74 0d 80 bf ec b7 50 3f
       -0.1256135 0.5924346 -1.0004106 0.8153064
0000b0 5c 40 2d 3f 59 90 57 bf 87 8f 0f bf e4 ae 1c bf
       0.6767633 -0.8420463 -0.5607838 -0.6120436
0000c0 26 99 f8 be 7a 5d f2 be 4b 46 0e bf 18 21 04 3f
       -0.48554343 -0.47336942 -0.5557601 0.51613
0000d0 dc f4 9c be e7 05 d5 3e ae d6 47 3f 2e 59 2a 3d
       -0.30655563 0.41606066 0.7806195 0.041588955
0000e0 39 7e 55 bf d5 34 80 bf d9 49 41 3e d3 b2 10 bf
       -0.83395725 -1.0016123 0.18875827 -0.56522864
0000f0 c5 2a 38 3f a6 14 bd be 5e 25 44 3f 06 46 c2 3e
       0.7194026 -0.36929816 0.7661952 0.3794405
000100 80 b9 ac 3d 1e 45 3e bd 40 11 62 be 3b a8 69 3f
       0.08433819 -0.046452634 -0.22076893 0.91272324
000110 a3 50 01 3f 40 4b 9b 3e b9 21 36 3f 45 2b 73 3e
       0.50513667 0.3033085 0.71145207 0.23746975
000120 bc 61 22 bf 98 3f 00 be 96 09 03 3f d1 a8 07 bf
       -0.6343038 -0.12524259 0.511865 -0.5299197
000130 f0 85 51 3f df 84 48 bf f6 7e d7 3d ce e7 fd bd
       0.81845 -0.78327745 0.10522263 -0.12397729
000140 24 fd e5 3d 15 1c 1f 3e d3 60 51 3f 75 dc 26 3d
       0.11229923 0.15538056 0.8178837 0.040737588
000150 8e e1 46 bd 72 26 14 3f e1 c1 01 bd 98 bf c5 3e
       -0.04855495 0.5787116 -0.031679038 0.38622737
000160 dd cd 57 bf 11 c7 53 bf 9b 41 4b bf 9a 9b 4e be
       -0.842985 -0.82725626 -0.7939698 -0.20176545
000170 39 28 b7 3e d8 0b a8 3e b7 ef d2 3c b9 67 e1 bd
       0.35772875 0.32821536 0.02574907 -0.11006112
000180 3d 62 b1 3e 7d ea f2 3e b1 e4 6c bf 71 5d a8 be
       0.34645262 0.47444525 -0.92536455 -0.3288379

bias f4 [2]
000000 0f de 2c bd 8e da 38 bd
       -0.04220396 -0.045130305

weight f4 [5]
000000 77 67 82 3f f2 ba 5d 3f c5 ee 83 3f 8a 09 8b 3f
       1.0187825 0.8661338 1.0307242 1.0862286
000010 02 28 7c 3f
       0.9849855

bias f4 [5]
000000 78 fd 6f 3c 66 eb c0 bd 2c 6e ad 3d e9 a2 0a 3e
       0.014647834 -0.09419899 0.08468279 0.13538708
000010 17 fe a0 3d
       0.07860964

running_mean f4 [5]
000000 19 68 76 c2 35 e6 82 42 07 82 03 c2 c1 93 24 c2
       -61.601658 65.44962 -32.87698 -41.14429
000010 b0 a2 27 42
       41.908875

running_var f4 [5]
000000 f2 05 78 43 5a c2 a2 43 53 a7 05 43 9f d9 84 43
       248.02322 325.51837 133.65361 265.70016
000010 75 e0 33 44
       719.50714

weight f4 [10]
000000 70 75 7a 3f 89 0f 7f 3f 2e a4 7c 3f eb f6 83 3f
       0.97835445 0.9963308 0.9868802 1.0309728
000010 32 37 85 3f 84 d2 80 3f 69 cf 82 3f ea da 76 3f
       1.0407469 1.0064244 1.0219547 0.96427786
000020 4f 8d 7e 3f f8 d3 79 3f
       0.9943437 0.97589064

bias f4 [10]
000000 8f c0 fc bd 80 c6 d8 3b 7a 99 48 3c 61 8e 01 3d
       -0.12341415 0.00661546 0.012243623 0.031629924
000010 8b 54 f2 bc 21 51 20 3c 12 85 55 3d 22 61 ee bc
       -0.029581329 0.009784968 0.05212886 -0.02909905
000020 15 2d b1 3b ae f1 1b ba
       0.0054069855 -0.0005948794

running_mean f4 [10]
000000 15 04 5f 3f ee 8f ae bf 41 a1 f1 bf 26 28 35 3f
       0.87115604 -1.3637674 -1.8877336 0.70764387
000010 bd 6d e1 3e 6a 42 ed bf 38 90 34 3f bb 6f 87 3f
       0.44029036 -1.8535893 0.7053256 1.0580972
000020 1c 88 b2 3f c1 3e 83 3f
       1.3947787 1.0253526

running_var f4 [10]
000000 a5 5b ab 3f 9f 5a cb 3f 75 84 b7 40 27 7f 48 3f
       1.3387343 1.588703 5.734919 0.7831902
000010 81 79 80 3f 7f f5 5a 40 c0 2b 14 40 ab ad de 3f
       1.003708 3.421234 2.3151703 1.7396749
000020 18 b8 a2 3f 5f 6b 3e 3f
       1.2712431 0.74382585

weight f4 [20]
000000 53 10 8b 3f d5 7e 7f 3f 89 e4 83 3f 6d a2 82 3f
       1.0864357 0.99802905 1.0304118 1.0205818
000010 be dc 8e 3f 30 49 85 3f 89 f9 83 3f 96 89 8d 3f
       1.1161115 1.041296 1.0310527 1.1057613
000020 94 70 8b 3f 2d 5e 79 3f d9 a3 72 3f 55 f4 69 3f
       1.0893731 0.97409326 0.9478126 0.91388446
000030 2e ec 73 3f 4f 6b 67 3f c0 e7 77 3f e8 9e 77 3f
       0.95282257 0.90398115 0.96838 0.96726847
000040 73 e7 6d 3f aa 88 81 3f 36 94 82 3f 3d 5a 71 3f
       0.9293129 1.0119832 1.020148 0.9427832

bias f4 [20]
000000 0a 88 20 3e df 81 f9 3c 2a 65 0d be 6f c4 76 3d
       0.15676895 0.030457435 -0.13808122 0.060245927
000010 e1 de 66 3e 36 3d bf 3d 5c 58 82 3d 28 90 6a 3e
       0.22545959 0.09337847 0.063645095 0.22906554
000020 e5 12 48 3e df ee b1 3b 0d 85 b4 bd 10 da cf bd
       0.19538458 0.005430087 -0.0881444 -0.10149014
000030 be 8e e6 bc 78 b9 9f bd 4a 9a 22 bc 64 b7 a6 bb
       -0.028144237 -0.07799047 -0.009924481 -0.00508778
000040 e3 1e 7a bd e5 d3 3e 3d 3e db 8f 3d 17 65 4a bd
       -0.061064612 0.046588797 0.07024239 -0.049412813

running_mean f4 [20]
000000 0d ae 77 bf a3 2d 63 bf de 8c 65 3e d5 d7 2f bf
       -0.96749955 -0.8874151 0.22417018 -0.6868871
000010 27 df f2 bf ed 8c a5 bf 7c 71 19 bf a7 ed 2d c0
       -1.8974351 -1.2933632 -0.5993879 -2.7176301
000020 7f 3e c1 bf b1 1f ec 3c f8 40 15 40 0d 48 c1 3f
       -1.5097197 0.028823705 2.3320904 1.5100113
000030 dc 67 c3 3e a4 34 ef 3f f0 f2 1b 3e ae b6 e4 be
       0.38165176 1.868794 0.15229392 -0.44670624
000040 68 3e 2b bf 1d b4 43 bf 80 c6 c1 bf 46 2c b9 3d
       -0.668921 -0.76446706 -1.5138702 0.090416476

running_var f4 [20]
000000 80 35 19 41 f3 cb 9c 40 77 46 cc 40 8b 3b 25 41
       9.575562 4.899896 6.3836017 10.327037
000010 ca d4 9e 40 a2 0f 26 41 4e c5 95 40 92 89 d5 40
       4.963475 10.378817 4.680335 6.6730433
000020 95 3d 7b 41 fe 52 18 41 4b 31 e7 40 8f f1 dd 40
       15.702535 9.520262 7.224767 6.935737
000030 5e 17 47 40 49 e0 9d 40 80 68 7d 40 03 36 53 40
       3.1108012 4.9336286 3.9595032 3.3001716
000040 ce 2b 1d 40 15 43 9a 40 5c 63 16 41 e2 7c 23 40
       2.4557986 4.8206887 9.399258 2.5544972

weight f4 [50]
000000 00 00 80 3f 00 00 80 3f 00 00 80 3f 00 00 80 3f
       1.0 1.0 1.0 1.0
000010 00 00 80 3f 00 00 80 3f 00 00 80 3f 00 00 80 3f
       1.0 1.0 1.0 1.0
000020 00 00 80 3f 00 00 80 3f 00 00 80 3f 00 00 80 3f
       1.0 1.0 1.0 1.0
000030 00 00 80 3f 00 00 80 3f 00 00 80 3f 00 00 80 3f
       1.0 1.0 1.0 1.0
000040 00 00 80 3f 00 00 80 3f 00 00 80 3f 00 00 80 3f
       1.0 1.0 1.0 1.0
000050 00 00 80 3f 00 00 80 3f 00 00 80 3f 00 00 80 3f
       1.0 1.0 1.0 1.0
000060 00 00 80 3f 00 00 80 3f 00 00 80 3f 00 00 80 3f
       1.0 1.0 1.0 1.0
000070 00 00 80 3f 00 00 80 3f 00 00 80 3f 00 00 80 3f
       1.0 1.0 1.0 1.0
000080 00 00 80 3f 00 00 80 3f 00 00 80 3f 00 00 80 3f
       1.0 1.0 1.0 1.0
000090 00 00 80 3f 00 00 80 3f 00 00 80 3f 00 00 80 3f
       1.0 1.0 1.0 1.0
0000a0 00 00 80 3f 00 00 80 3f 00 00 80 3f 00 00 80 3f
       1.0 1.0 1.0 1.0
0000b0 00 00 80 3f 00 00 80 3f 00 00 80 3f 00 00 80 3f
       1.0 1.0 1.0 1.0
0000c0 00 00 80 3f 00 00 80 3f
       1.0 1.0

bias f4 [50]
000000 00 00 00 00 00 00 00 00 00 00 00 00 00 00 00 00
       0.0 0.0 0.0 0.0
000010 00 00 00 00 00 00 00 00 00 00 00 00 00 00 00 00
       0.0 0.0 0.0 0.0
000020 00 00 00 00 00 00 00 00 00 00 00 00 00 00 00 00
       0.0 0.0 0.0 0.0
000030 00 00 00 00 00 00 00 00 00 00 00 00 00 00 00 00
       0.0 0.0 0.0 0.0
000040 00 00 00 00 00 00 00 00 00 00 00 00 00 00 00 00
       0.0 0.0 0.0 0.0
000050 00 00 00 00 00 00 00 00 00 00 00 00 00 00 00 00
       0.0 0.0 0.0 0.0
000060 00 00 00 00 00 00 00 00 00 00 00 00 00 00 00 00
       0.0 0.0 0.0 0.0
000070 00 00 00 00 00 00 00 00 00 00 00 00 00 00 00 00
       0.0 0.0 0.0 0.0
000080 00 00 00 00 00 00 00 00 00 00 00 00 00 00 00 00
       0.0 0.0 0.0 0.0
000090 00 00 00 00 00 00 00 00 00 00 00 00 00 00 00 00
       0.0 0.0 0.0 0.0
0000a0 00 00 00 00 00 00 00 00 00 00 00 00 00 00 00 00
       0.0 0.0 0.0 0.0
0000b0 00 00 00 00 00 00 00 00 00 00 00 00 00 00 00 00
       0.0 0.0 0.0 0.0
0000c0 00 00 00 00 00 00 00 00
       0.0 0.0

running_mean f4 [50]
000000 00 00 00 00 00 00 00 00 00 00 00 00 00 00 00 00
       0.0 0.0 0.0 0.0
000010 00 00 00 00 00 00 00 00 00 00 00 00 00 00 00 00
       0.0 0.0 0.0 0.0
000020 00 00 00 00 00 00 00 00 00 00 00 00 00 00 00 00
       0.0 0.0 0.0 0.0
000030 00 00 00 00 00 00 00 00 00 00 00 00 00 00 00 00
       0.0 0.0 0.0 0.0
000040 00 00 00 00 00 00 00 00 00 00 00 00 00 00 00 00
       0.0 0.0 0.0 0.0
000050 00 00 00 00 00 00 00 00 00 00 00 00 00 00 00 00
       0.0 0.0 0.0 0.0
000060 00 00 00 00 00 00 00 00 00 00 00 00 00 00 00 00
       0.0 0.0 0.0 0.0
000070 00 00 00 00 00 00 00 00 00 00 00 00 00 00 00 00
       0.0 0.0 0.0 0.0
000080 00 00 00 00 00 00 00 00 00 00 00 00 00 00 00 00
       0.0 0.0 0.0 0.0
000090 00 00 00 00 00 00 00 00 00 00 00 00 00 00 00 00
       0.0 0.0 0.0 0.0
0000a0 00 00 00 00 00 00 00 00 00 00 00 00 00 00 00 00
       0.0 0.0 0.0 0.0
0000b0 00 00 00 00 00 00 00 00 00 00 00 00 00 00 00 00
       0.0 0.0 0.0 0.0
0000c0 00 00 00 00 00 00 00 00
       0.0 0.0

running_var f4 [50]
000000 00 00 80 3f 00 00 80 3f 00 00 80 3f 00 00 80 3f
       1.0 1.0 1.0 1.0
000010 00 00 80 3f 00 00 80 3f 00 00 80 3f 00 00 80 3f
       1.0 1.0 1.0 1.0
000020 00 00 80 3f 00 00 80 3f 00 00 80 3f 00 00 80 3f
       1.0 1.0 1.0 1.0
000030 00 00 80 3f 00 00 80 3f 00 00 80 3f 00 00 80 3f
       1.0 1.0 1.0 1.0
000040 00 00 80 3f 00 00 80 3f 00 00 80 3f 00 00 80 3f
       1.0 1.0 1.0 1.0
000050 00 00 80 3f 00 00 80 3f 00 00 80 3f 00 00 80 3f
       1.0 1.0 1.0 1.0
000060 00 00 80 3f 00 00 80 3f 00 00 80 3f 00 00 80 3f
       1.0 1.0 1.0 1.0
000070 00 00 80 3f 00 00 80 3f 00 00 80 3f 00 00 80 3f
       1.0 1.0 1.0 1.0
000080 00 00 80 3f 00 00 80 3f 00 00 80 3f 00 00 80 3f
       1.0 1.0 1.0 1.0
000090 00 00 80 3f 00 00 80 3f 00 00 80 3f 00 00 80 3f
       1.0 1.0 1.0 1.0
0000a0 00 00 80 3f 00 00 80 3f 00 00 80 3f 00 00 80 3f
       1.0 1.0 1.0 1.0
0000b0 00 00 80 3f 00 00 80 3f 00 00 80 3f 00 00 80 3f
       1.0 1.0 1.0 1.0
0000c0 00 00 80 3f 00 00 80 3f
       1.0 1.0
