models/deepvesselnet1.model (torch_old, 243978 bytes, 26 tensors)

weight f4 [5, 1, 3, 3, 3]
0	0xbdbcbce6	-0.09215717
1	0x3e0fe2f9	0.14051427
2	0xbca3679d	-0.019946868
3	0xbda1ed88	-0.079066336
4	0x3d4c0471	0.049808923
5	0xbdaf1828	-0.08549529
6	0x3d512cd9	0.05106816
7	0x3c7c09ac	0.015383165
8	0xbde71040	-0.11282396
9	0xbd115a08	-0.03548625
10	0x3d3e22cf	0.046419915
11	0xbe142b49	-0.14469637
12	0xbe30ed3a	-0.17277995
13	0xbcdadf70	-0.026717871
14	0xbd0eaac4	-0.034830824
15	0xbe1b3bca	-0.15159526
16	0x3c8c8295	0.01715211
17	0xbd34d787	-0.044150855
18	0x3dca8153	0.09887948
19	0x3db7ae37	0.08968776
20	0x3ca77ef4	0.020446278
21	0x3cf9664d	0.030444289
22	0xbdc25671	-0.09489144
23	0x39de38d0	0.00042385468
24	0xbd1a252f	-0.037633117
25	0x3b9b112a	0.0047322707
26	0xbe1b2969	-0.15152515
27	0xbd60aaf0	-0.05485052
28	0x3d68f008	0.056869537
29	0xbdedb045	-0.11605886
30	0xbd734b2a	-0.059397854
31	0x3dda7e8c	0.10668668
32	0x3d9ee79c	0.0775902
33	0x3d42ad14	0.04752834
34	0xbdc47ac7	-0.095937304
35	0xbe060c97	-0.1309074
36	0xbe04f285	-0.12983139
37	0xbc297cba	-0.010344679
38	0x3c296275	0.010338415
39	0xbdca8883	-0.09889319
40	0x3e00e075	0.12585624
41	0x3e2cb15d	0.16864534
42	0xbd911506	-0.07084088
43	0xbdae61fe	-0.08514784
44	0x3dd462ab	0.10370382
45	0x3d747861	0.059685115
46	0x3bb869dd	0.0056278543
47	0xbd6cdc1b	-0.057827096
48	0xbcddf17f	-0.027092693
49	0xbd6d2a25	-0.05790152
50	0xbcfc3e5c	-0.030791454
51	0xbccda84c	-0.025104664
52	0xbe03ac4e	-0.12858698
53	0xbe03080e	-0.12796041
54	0xbd0785f6	-0.03308674
55	0x3d1f3df8	0.038877457
56	0xbd82db87	-0.06389528
57	0xbc242bb0	-0.010020182
58	0x3d64d792	0.055869646
59	0xbd77db00	-0.06051159
60	0xbdf71e17	-0.12066286
61	0x3da2bffa	0.07946773
62	0xbd5fda16	-0.054651342
63	0xbd1993d3	-0.03749449
64	0x3dad46f0	0.08460796
65	0xbce3c0b7	-0.027801855
66	0x3e1aa139	0.15100564
67	0x3ecc40bc	0.39893138
68	0x3e0fef1c	0.14056057
69	0xbd4a5377	-0.049396005
70	0x3ea7112b	0.32630286
71	0x3e317df4	0.17333204
72	0xbd9295d6	-0.07157485
73	0xbd9f0d68	-0.07766229
74	0xbdd8417e	-0.10559367
75	0x3b9cb1e1	0.004781947
76	0x3e399b95	0.18125756
77	0x3d8d1822	0.068893686
78	0xbda40c45	-0.08010153
79	0xbc28f460	-0.01031217
80	0xbd9adcb4	-0.07561627
81	0xbdc7e645	-0.09760717
82	0x3bccf8dd	0.0062552528
83	0xbde83164	-0.113375455
84	0xbcba7df0	-0.02276513
85	0xbc81ff31	-0.015868755
86	0xbe04b45a	-0.12959424
87	0xbd95da4f	-0.0731703
88	0x3dd44c7d	0.103661515
89	0xbd046a52	-0.032327957
90	0xbd1c3488	-0.038136035
91	0x3dd540d7	0.10412758
92	0x3e02b76b	0.12765281
93	0xbd61dd2a	-0.05514256
94	0x3dc7445d	0.09729836
95	0xbdd7fa13	-0.10545745
96	0xbc29f6a1	-0.010373742
97	0x3c7b158e	0.015324963
98	0x3d824608	0.06361014
99	0xbe066186	-0.1312314
100	0x3b85bce4	0.0040813554
101	0x3c051abd	0.008124051
102	0xbd885b9e	-0.066580996
103	0x3c865ea6	0.016402554
104	0xbda6ab2e	-0.08138119
105	0xbd58fc9f	-0.052975293
106	0xbc469ef6	-0.01212286
107	0x3dd5407c	0.1041269
108	0xbd336a82	-0.043802746
109	0xbd55cbfc	-0.052196488
110	0x3d4db178	0.050218076
111	0xbd0fbcde	-0.035092227
112	0xbd872b2a	-0.0660003
113	0x3d86300c	0.06552133
114	0x3d3519ef	0.044214185
115	0xbd200fe0	-0.03907764
116	0xbd7d1ab0	-0.06179303
117	0xbd89b10a	-0.06723221
118	0x3c3a9b1e	0.011389522
119	0x3d625a32	0.0552618
120	0x3e04cf6f	0.12969755
121	0x3d25fe37	0.04052564
122	0xbc7fc804	-0.015611652
123	0xbd8c0396	-0.068366215
124	0x3d81d050	0.063385606
125	0x3e4a57bc	0.1976003
126	0xbc85ede0	-0.01634878
127	0xbd73487c	-0.0593953
128	0x3ba72daf	0.0051018815
129	0xbdba02c8	-0.09082562
130	0x3d1d5a8b	0.038416427
131	0x3e4d781b	0.20065348
132	0x3d162833	0.03665943
133	0xbd7c73d7	-0.06163391
134	0x3e7f785c	0.24948257

bias f4 [5]
0	0xbdbb6a7c	-0.0915117
1	0x3d4903c6	0.049075864
2	0x3d8fb970	0.07017791
3	0x3dbec83a	0.09315534
4	0xbdd002a6	-0.10156755

weight f4 [10, 5, 5, 5, 5]
0	0x3c0afc7c	0.0084830485
1	0x3d513e29	0.05108467
2	0x3c8b5a5a	0.017010856
3	0xbd687f74	-0.056762174
4	0x3c06c24e	0.008225037
5	0x3cf15064	0.029457279
6	0x3d1ebbef	0.038753446
7	0xbd27678b	-0.04087023
8	0x3d5c8661	0.05383909
9	0xbd38b2ca	-0.04509238
10	0x3c38a336	0.011269381
11	0xbd86656e	-0.06562315
12	0x3c9d5d9a	0.019209672
13	0x3d5ebdf3	0.05438037
14	0xbd2b1cd1	-0.04177553
15	0xbabfee05	-0.0014643079
16	0x3ce029f9	0.027363764
17	0x3c59ff2f	0.013305469
18	0xbd2fa716	-0.042883955
19	0xbc7682ac	-0.015045803
20	0xbd153f88	-0.03643754
21	0x3d2508f3	0.040291738
22	0xbd99d2fa	-0.07510944
23	0x3d755d10	0.059903204
24	0x3d4a16f8	0.04933831
25	0xbcf4a7dd	-0.0298652
26	0xbb6c011c	-0.0036011403
27	0xbd8ec3e0	-0.06970954
28	0x3d14ee5d	0.036360133
29	0x3d4cef87	0.05003312
30	0xbd64bee5	-0.055846114
31	0x3d624b43	0.055247556
32	0xbc03c705	-0.008043055
33	0xbd29cf82	-0.04145766
34	0xbd2b45f2	-0.041814752
35	0xbc12f409	-0.008969315
36	0xbcb6e9b8	-0.022328243
37	0xbd02b326	-0.03190913
38	0xbd4b148f	-0.049580153
39	0xbd4d97aa	-0.050193466
40	0x3b62ccc7	0.003460692
41	0x3cbcf5fe	0.023066517
42	0xbc70cc09	-0.014697083
43	0xbc17778b	-0.00924481
44	0xbd8336df	-0.0640695
45	0xbc043392	-0.008068936
46	0x3b599d21	0.0033205228
47	0x3d5b5487	0.05354741
48	0x3c8023b0	0.015642017
49	0x3cd510a8	0.026008919
50	0xbd2f554a	-0.042805947
51	0x3d1004b9	0.035160754
52	0x3cd8a56d	0.026446069
53	0xbc97f822	-0.018550936
54	0xbd07ea64	-0.033182517
55	0xbd8fa467	-0.07013779
56	0x3d66576b	0.056235712
57	0x3c209ae5	0.009802555
58	0x3ab99d30	0.0014161225
59	0x3cf05a34	0.029339887
60	0xbd4d9049	-0.05018643
61	0xbb1e1872	-0.0024123457
62	0xbc4ceac7	-0.012507147
63	0xbd3870a8	-0.045029312
64	0xbd02d034	-0.03193684
65	0x3c5d5e42	0.013511242
66	0x3c858d07	0.016302599
67	0x3cd856f2	0.026408646
68	0xbd1297a2	-0.03578914
69	0xbc6ed792	-0.014577763
70	0x3d22e8b4	0.039772704
71	0xbd356378	-0.044284314
72	0xbb64e0d5	-0.003492405
73	0xbd9067b2	-0.07051028
74	0x3d72bd7c	0.059262738
75	0xbc25a8a6	-0.01011101
76	0x3c82c213	0.015961682
77	0x3d3ddd04	0.046353355
78	0xbc288ca7	-0.01028744
79	0xbd2c8bd7	-0.04212555
80	0x3d6ee868	0.05832711
81	0xbd82967f	-0.06376361
82	0xbc87e77b	-0.01658987
83	0xbbc14c01	-0.005898953
84	0xba33d0cb	-0.00068594207
85	0xbd8d4cea	-0.06899436
86	0xbd2160e1	-0.03939903
87	0x3bf312f0	0.007418029
88	0xbc8b0ac6	-0.01697291
89	0x3cb164f1	0.021654578
90	0xbccb1b48	-0.024793282
91	0x3c89b4d4	0.016809858
92	0xbd4e314d	-0.050339986
93	0xbd7b5a99	-0.061365698
94	0xbca38301	-0.019959928
95	0x3cd537c1	0.026027562
96	0xbcac7114	-0.021050014
97	0xbc8fdd66	-0.017561626
98	0xbd3652d5	-0.04451259
99	0x3d3c9ba6	0.046046875
100	0x3cd1cefa	0.02561139
101	0xbbf5f785	-0.0075063133
102	0xbd2ecd98	-0.04267654
103	0x3cd6af88	0.026206747
104	0x3c2af47e	0.010434268
105	0xbd027133	-0.031846236
106	0x3bc43643	0.005987914
107	0xbc4e8599	-0.012605094
108	0x3d6dcb25	0.05805506
109	0xbc4309b3	-0.011904168
110	0xbcd28b15	-0.025701085
111	0xbd56b929	-0.052422676
112	0x3ac4c825	0.0015013261
113	0xbd006666	-0.031347655
114	0x3922830c	0.00015498343
115	0x3d6559ab	0.055993717
116	0x3d71ff3e	0.05908131
117	0xba749ebf	-0.00093315163
118	0x39dbd0d0	0.00041926512
119	0x3bf66827	0.00751974
120	0x3d4ed709	0.050498042
121	0x3b99759b	0.004683209
122	0x3d33f480	0.043934345
123	0xbd200dd0	-0.039075673
124	0x3d717929	0.058953438
125	0xbc0ff5fb	-0.008786674
126	0x3d75238d	0.059848357
127	0xbd6e2b62	-0.05814684
128	0x3c008169	0.007843354
129	0x3d6e7739	0.05821917
130	0xbd85c468	-0.06531602
131	0x3baffa67	0.0053704265
132	0xbc135629	-0.00899271
133	0x3cb97b0f	0.022641687
134	0xbd0d3e4b	-0.034483235
135	0x3c16aa4e	0.009195877
136	0x3d235717	0.039877977
137	0xbd480973	-0.048837136
138	0x3d131de0	0.035917163
139	0x3c214075	0.009842028
140	0x3c6ec256	0.0145727005
141	0x3cefe86b	0.02928563
142	0xbd0a771a	-0.03380499
143	0xbd3d053d	-0.046147574
144	0x3d04a799	0.032386396
145	0x3c31debb	0.010856326
146	0x3abdc1aa	0.0014477272
147	0x3bd7c8d9	0.006585222
148	0xbd798be7	-0.060924437
149	0xbd6ed7f9	-0.058311436
150	0xbc51902f	-0.012790724
151	0xbd6f526f	-0.058428224
152	0xbd71c762	-0.059028037
153	0xbd2bb34c	-0.041919038
154	0xbd29430c	-0.041323707
155	0xbc0a9f95	-0.008460899
156	0xbd85323c	-0.06503722
157	0x3d478731	0.048712913
158	0x3b32a066	0.002725625
159	0xbc83bfda	-0.016082693
160	0xb8ce8702	-9.8479926e-05
161	0xbcdcf2bd	-0.026971215
162	0xbc8c5f30	-0.017135233
163	0x3b74ca9a	0.0037352205
164	0xbc4e51e9	-0.012592771
165	0xbc4de950	-0.012567833
166	0xbd048701	-0.032355312
167	0x3d59ca6f	0.05317157
168	0x3d61f101	0.05516148
169	0x3d432d2a	0.047650494
170	0x3d5f6bc0	0.054546118
171	0x3d0b8133	0.03405876
172	0xbd1e445c	-0.03863941
173	0x3d575d26	0.052579068
174	0x3be8d479	0.007105407
175	0x3cb583a2	0.022157494
176	0xbcb419d3	-0.02198497
177	0x3d497c83	0.04919101
178	0xbd4ee247	-0.050508764
179	0xbd5ec890	-0.05439049
180	0xbd3fadd0	-0.04679662
181	0xbcbbb373	-0.022912716
182	0x3cfbf8e5	0.03075833
183	0xbd7e3337	-0.06206056
184	0xbd16df00	-0.036833763
185	0x3d5155fc	0.05110739
186	0x3d5347ae	0.05158203
187	0x3b21f99a	0.0024715425
188	0xbd388064	-0.045044318
189	0x3d4639a0	0.0483948
190	0x3c7afab9	0.015318566
191	0xbcbd4c99	-0.023107814
192	0xbc036785	-0.008020286
193	0xbcb30728	-0.021853998
194	0x3d29cf46	0.041457437
195	0x3b69921f	0.0035640073
196	0x3ce40703	0.027835375
197	0xbd84b62f	-0.06480061
198	0xbd8099d4	-0.062793404
199	0xbc83ee0b	-0.016104719
200	0x3c88b98e	0.016690042
201	0xbd40ba26	-0.047052525
202	0xbd0ffe17	-0.03515443
203	0xbbc29c77	-0.005939062
204	0x3d194aa2	0.03742469
205	0x3d715c97	0.05892619
206	0xbd554159	-0.052064274
207	0xbbdb8756	-0.006699483
208	0x3d87d377	0.066321306
209	0xbcef93dc	-0.02924531
210	0xbd18ec33	-0.037334632
211	0x3d285ffe	0.04110717
212	0xbd185d7a	-0.03719852
213	0x3d0ffa1b	0.03515063
214	0x3d2bb05a	0.04191623
215	0xbcf5fa4d	-0.03002658
216	0xbd5da60a	-0.054113425
217	0x3d1f6435	0.038913924
218	0x3cd6441f	0.02615553
219	0xbcddc941	-0.027073504
220	0x3d153b9d	0.036433805
221	0xbd38b3a9	-0.045093212
222	0xbd439f02	-0.047759064
223	0xbcc578aa	-0.024105389
224	0xbd324eb3	-0.043532085
225	0xbcbe12ea	-0.023202378
226	0xbc245c66	-0.010031795
227	0x3d08338d	0.033252288
228	0xbb8c70a1	-0.0042858873
229	0x3c73da4d	0.01488359
230	0xbc3bda18	-0.011465572
231	0xbd6ef38d	-0.058337737
232	0xbd72b4f7	-0.059254613
233	0xbd6b839b	-0.057498556
234	0xbd1c57bd	-0.03816961
235	0x3d199e2d	0.037504364
236	0x3d37533b	0.04475711
237	0x3af62bf6	0.0018781412
238	0x3b2f6c25	0.002676734
239	0xbd2d31a2	-0.04228366
240	0xbd53d95d	-0.051720966
241	0xbd52adb0	-0.051435173
242	0xbbc201cd	-0.005920625
243	0xbc1f7a68	-0.009733774
244	0x3d393dac	0.04522483
245	0x3c932bba	0.017965186
246	0x3bb07d2d	0.005386016
247	0x3d243646	0.04009082
248	0xbd20dca5	-0.039272923
249	0xbd8b09ab	-0.067889534
250	0xbcf08aa3	-0.029362982
251	0x3cb514b2	0.022104595
252	0xbd20e133	-0.039277267
253	0xbd5e8810	-0.054328978
254	0x3ce910cf	0.028450398
255	0xbc15afcf	-0.009136154

bias f4 [10]
0	0xbc4483fe	-0.01199436
1	0xbbd843bc	-0.0065998714
2	0xbc6f7d28	-0.014617242
3	0xbcaff32a	-0.021478254
4	0xbc2a4082	-0.010391356
5	0xbc925249	-0.017861502
6	0x3c988dae	0.018622246
7	0xbad7501c	-0.0016427073
8	0x3cb967ec	0.022632562
9	0xbc4f937a	-0.0126694385

weight f4 [20, 10, 5, 5, 5]
0	0x3cb63e65	0.022246549
1	0x3d504071	0.050842706
2	0xbd8e4fff	-0.06948852
3	0xbd6d2718	-0.05789861
4	0xbd5a4bae	-0.05329483
5	0xbcfa5ff0	-0.030563325
6	0xbc32857e	-0.010896085
7	0x3d4da3c4	0.050205007
8	0x3d2fef88	0.042953044
9	0x3cdb6a59	0.026784109
10	0x3d184e22	0.03718389
11	0x3c8cef74	0.017204024
12	0xbc7d49d4	-0.0154594965
13	0xbd012271	-0.031526987
14	0x3c4b75d3	0.012418228
15	0x3cc31ceb	0.0238175
16	0xbbac6a42	-0.0052616904
17	0xbd50f78e	-0.051017337
18	0x3cc46c65	0.023977468
19	0xbd68fe3f	-0.056883093
20	0x3cfa24ce	0.030535128
21	0xbd2d820f	-0.04236036
22	0xbbeaf86e	-0.0071707284
23	0x3d3bf6a2	0.045889504
24	0xbcc441a1	-0.023957076
25	0x3bed23ea	0.0072369473
26	0xbd9053d4	-0.07047239
27	0xbd495a84	-0.049158588
28	0x3d391b96	0.045192324
29	0xbd7a6c07	-0.06113818
30	0x3d104752	0.035224266
31	0xbd29d885	-0.041466255
32	0x3c0425b6	0.008065632
33	0xbd66288f	-0.056191023
34	0xbd5dc006	-0.054138206
35	0x3c92ce4b	0.017920634
36	0x3d09c5d4	0.03363593
37	0x3d07621e	0.033052556
38	0xbd264669	-0.040594492
39	0x3d310722	0.043219693
40	0xbc108f00	-0.008823156
41	0x3cb021df	0.021500526
42	0x3d4c5812	0.049888678
43	0x3d3050e2	0.043045886
44	0x397c539c	0.0002406374
45	0xbb0a9ecf	-0.0021151786
46	0xbc8b341d	-0.016992623
47	0x3ceadcdb	0.028669765
48	0x3d199258	0.03749308
49	0x3c34e5b1	0.011041091
50	0xbcc7094c	-0.024296425
51	0x3cd65a19	0.026166009
52	0xbd55a725	-0.052161355
53	0xbd9542f5	-0.07288162
54	0x3c9a8223	0.018860882
55	0xbd3c1ef0	-0.04592794
56	0x3ba184dc	0.004929168
57	0x3ce70491	0.02820042
58	0xbd3a3514	-0.045460775
59	0xbd695323	-0.05696405
60	0xbd8a4912	-0.06752218
61	0xbd42f17d	-0.047593582
62	0x3afa427a	0.0019093298
63	0xbca3bfc5	-0.019988904
64	0xbce5945d	-0.028024847
65	0xbd1f2b4c	-0.03885965
66	0x3d15822c	0.036501095
67	0xbbe04323	-0.006843941
68	0xbc82c9d3	-0.015965378
69	0x3d265da2	0.04061664
70	0x3c9ab227	0.018883778
71	0xbb3e6633	-0.0029052615
72	0x3c9bca7e	0.019017454
73	0x3bb6c192	0.0055772746
74	0xbd649803	-0.055809032
75	0x3d788cb2	0.060681053
76	0xbcdc1b6d	-0.026868546
77	0x3d06588a	0.03279928
78	0x3c88d61f	0.016703663
79	0x3d1f7695	0.038931448
80	0x3ba52713	0.0050400584
81	0xbcdebea4	-0.027190514
82	0xbd1ce0df	-0.03830039
83	0x3bb2f764	0.00546162
84	0xbd5355cb	-0.05159549
85	0xbd85fa5b	-0.06541892
86	0x3d3cd819	0.046104524
87	0xbd7f97a2	-0.062400468
88	0xbcb6663d	-0.022265548
89	0xbd40b8f2	-0.047051378
90	0x3d2cfcde	0.04223334
91	0xbc075feb	-0.008262615
92	0xbd72be5a	-0.059263565
93	0xbc6bc0a7	-0.014389194
94	0x3b932bdc	0.0044913124
95	0xbd3f688b	-0.04673056
96	0xbcda68a3	-0.026661223
97	0x3d5a384e	0.053276353
98	0xbd4a6845	-0.049415845
99	0x3cb24910	0.021763355
100	0xbc786147	-0.0151599115
101	0xbc97f59d	-0.018549735
102	0x3c2251cf	0.0099072
103	0xbd6fbc4b	-0.05852918
104	0x3c8f4a7a	0.017491568
105	0xbd4692ff	-0.04848003
106	0xbd64743b	-0.05577491
107	0xbd6497c7	-0.05580881
108	0xbcd9ab5c	-0.026570968
109	0x3d0768be	0.033058874
110	0xb9e95a8a	-0.0004450868
111	0xbd34c972	-0.044137426
112	0x3cfefb6e	0.03112575
113	0x3d32852c	0.043584034
114	0xbc8b695f	-0.017018018
115	0x3d1073cf	0.035266694
116	0xbd0d6526	-0.03452029
117	0x3d1769d4	0.03696616
118	0x3d24d181	0.04023886
119	0x3d4203ce	0.04736691
120	0xbd77aaee	-0.060465746
121	0x3ca333a2	0.019922081
122	0x3d64de83	0.055876266
123	0xbd3fc498	-0.046818346
124	0xbce5f6ca	-0.02807178
125	0xbd05dd44	-0.03268172
126	0x3d865ccd	0.06560669
127	0x3d8a0a64	0.06740263
128	0xbb80db5f	-0.003932401
129	0x3ad866a6	0.0016510084
130	0x3d55bd19	0.05218229
131	0xbbf86d39	-0.0075813797
132	0x3c0750a1	0.0082589695
133	0xbcf3cf4b	-0.02976193
134	0x3bf52f41	0.0074824397
135	0xbd0d26e3	-0.034460913
136	0x3c93f48d	0.018060947
137	0xbcc668bb	-0.024219861
138	0xbce500ef	-0.027954547
139	0xbba12ebd	-0.0049189017
140	0x38e4a264	0.00010902135
141	0x3d8f67ca	0.07002218
142	0x3b9eb9bf	0.00484392
143	0x3d8b6f44	0.068083316
144	0x3d179020	0.037002683
145	0x3d561294	0.05226381
146	0x3d90823d	0.07056091
147	0x3d5edcfe	0.054409973
148	0xbc9a13e4	-0.018808313
149	0x3c719738	0.014745526
150	0x3d0b0265	0.03393783
151	0x3bef6d1e	0.007306709
152	0x3bbd20c3	0.0057717278
153	0x3d03efce	0.032211117
154	0x3d71d356	0.059039436
155	0x3d08c4aa	0.03339068
156	0x3d7b09c0	0.061288595
157	0xbd15837d	-0.03650235
158	0xbd0257a8	-0.031821877
159	0x3d739d72	0.059476323
160	0x3d53d668	0.051718146
161	0xbd4be734	-0.04978104
162	0x3c589bb6	0.013220718
163	0xbd37c854	-0.044868782
164	0x3cd2be32	0.025725458
165	0xbd0d6cdf	-0.034527656
166	0xbcced821	-0.025249543
167	0x3cfc64c6	0.030809771
168	0xbb7c6f02	-0.0038518314
169	0xbc703687	-0.014661438
170	0xbd4f08a9	-0.05054537
171	0xbbc71cc6	-0.006076428
172	0xbc555637	-0.0130210435
173	0x3cf968f6	0.030445557
174	0xbb6acc48	-0.0035827328
175	0x3cff0c86	0.031133901
176	0xbc917f08	-0.017760769
177	0xbaa70163	-0.0012741502
178	0x3d1e6392	0.038669176
179	0xbd697fac	-0.057006523
180	0x3d3856b8	0.045004576
181	0xbd3ee142	-0.04660154
182	0xbdc5560d	-0.096355535
183	0xbd583649	-0.052786145
184	0x3d2b283d	0.04178642
185	0x392fe28f	0.000167737
186	0xbd8cc259	-0.068730064
187	0x3c99d9b8	0.018780574
188	0xbcaa6dd2	-0.02080432
189	0x3d059d20	0.03262055
190	0xbd65056c	-0.055913374
191	0x3d09a994	0.033608988
192	0xbd9972c7	-0.07492595
193	0xbd91e3ee	-0.07123552
194	0x3bc71b10	0.006076224
195	0x3d036df4	0.03208728
196	0x3d722e8b	0.059126418
197	0xbc583a83	-0.013197544
198	0x3d6f67ba	0.05844853
199	0x3d7bffb4	0.061523154
200	0x39f03327	0.0004581448
201	0xbaa62d6e	-0.0012678334
202	0xbc9f66a7	-0.019458128
203	0x3c7fd6ba	0.01561516
204	0xbcf70bcb	-0.03015699
205	0x3d584387	0.052798774
206	0xbd27bd3a	-0.040951945
207	0xbd3066a2	-0.04306663
208	0xbb5cd0f9	-0.0033693893
209	0xbd4e2bda	-0.05033479
210	0xbc9d4973	-0.019200062
211	0xbd2d182c	-0.04225938
212	0xbdd04076	-0.10168545
213	0x3ab793c4	0.001400583
214	0xbd8e81ac	-0.06958327
215	0xbd7536d9	-0.05986676
216	0x3cebc057	0.028778238
217	0xbcc1a8ad	-0.023640001
218	0xbd82b9d4	-0.063831
219	0xbcb86aa5	-0.02251179
220	0x3d32dece	0.043669514
221	0xbd61db00	-0.055140495
222	0xbcfb9160	-0.030708969
223	0x3c5c97dc	0.0134639405
224	0xbd6ed57c	-0.058309063
225	0x3d7bfb1b	0.06151877
226	0x3c126b58	0.008936726
227	0x3cb05746	0.02152599
228	0xbdabcabf	-0.0838828
229	0xbd077bed	-0.03307717
230	0xbd4a98a6	-0.049461983
231	0xbbbac6ce	-0.005699969
232	0xb71c012a	-9.298596e-06
233	0x3c90b916	0.01766638
234	0xb8e3c0b8	-0.000108601
235	0xbd25d3c0	-0.040485144
236	0xbdbf98cd	-0.09355316
237	0xbc06ff74	-0.008239616
238	0xbd32c049	-0.04364041
239	0x3d4ae0e3	0.049530875
240	0xbab4d296	-0.001379567
241	0xbd50c68c	-0.0509706
242	0xbd3e976d	-0.04653113
243	0x3cf8905d	0.030342275
244	0xbd2294e7	-0.039692786
245	0x3cac5971	0.021038743
246	0x3d62af8d	0.0553432
247	0x3d2b06b2	0.041754432
248	0xbd399fc5	-0.045318384
249	0x3cd1f7a4	0.02563078
250	0x3cce9754	0.025218643
251	0xbd1b1eec	-0.037871286
252	0x3c93252e	0.017962065
253	0x3d135b2d	0.035975624
254	0xbbbe0952	-0.005799451
255	0xbd2a048f	-0.041508254

bias f4 [20]
0	0xbc8288c1	-0.01593435
1	0x3c3d4915	0.011553069
2	0xbbf677f6	-0.0075216247
3	0x3ba36827	0.004986781
4	0x3b5be262	0.0033551683
5	0x3c9b0000	0.018920898
6	0x3c5ff5ef	0.013669475
7	0x3c373ae1	0.011183471
8	0x3c0887e9	0.008333185
9	0x3bd3468a	0.006447618
10	0xbc9e7e37	-0.019347293
11	0xbc8fab63	-0.017537778
12	0x3bdaae37	0.0066736
13	0x3ca81791	0.02051905
14	0x3c812230	0.015763372
15	0xbc2c316b	-0.010509829
16	0xbbf3f9b7	-0.00744554
17	0xbc221025	-0.0098915445
18	0x3ba39fca	0.0049934136
19	0xbac4b06a	-0.0015006189

weight f4 [50, 20, 3, 3, 3]
0	0xbd7c3b7e	-0.061580174
1	0xbd88353a	-0.06650777
2	0xbd0d9c0f	-0.034572657
3	0xbd18af6b	-0.037276667
4	0xbdcad8a3	-0.099046014
5	0x3de64230	0.11243093
6	0x3ded1e9c	0.11578104
7	0xbdf57bcf	-0.11986505
8	0xbd74b1c9	-0.05973986
9	0xbc91345f	-0.017725168
10	0x3d4c400e	0.049865775
11	0x3d07501b	0.03303538
12	0x3db5eaec	0.088826984
13	0xbd22f686	-0.039785884
14	0x3daef74e	0.085432634
15	0xbcb652f6	-0.022256356
16	0xbdfd8b67	-0.123801045
17	0xbd66d3ff	-0.05635452
18	0x3cd61f31	0.02613792
19	0xbd917f2b	-0.071043335
20	0x3c169aba	0.009192163
21	0xbdb26db7	-0.08712333
22	0x3c215aa3	0.00984827
23	0x3da06661	0.07832027
24	0x3cc3d024	0.02390296
25	0xbd0243f4	-0.031803086
26	0x3ce410da	0.027840067
27	0xbd686c4e	-0.056743912
28	0x3cce0f37	0.02515374
29	0xbc8089d7	-0.015690727
30	0xbe0dd01a	-0.13848916
31	0xbdd974ba	-0.10617967
32	0xbdc9df29	-0.098570175
33	0x3cfce0c4	0.030868895
34	0xbd9f2061	-0.07769848
35	0x3dbf39e3	0.09337213
36	0x3d4be1e9	0.04977599
37	0x3d2425b1	0.040075008
38	0x3d82af95	0.06381146
39	0x3ca5e28b	0.020249626
40	0x3d3b643a	0.04574988
41	0xbccae3ec	-0.024766885
42	0x3dd15f36	0.10223238
43	0xbd53d335	-0.051715095
44	0xbdcc9787	-0.09989839
45	0xbdb69de7	-0.08916836
46	0xbdf8f3da	-0.12155886
47	0x3da459bf	0.0802493
48	0x3ca2651e	0.019823607
49	0xbdaa8813	-0.08326735
50	0xbdf179d8	-0.11790818
51	0xbdd72d3b	-0.10506674
52	0xbdeec8ba	-0.11659379
53	0x3dfc4a8c	0.12318906
54	0xbd8bf685	-0.06834129
55	0x3db3fcc7	0.08788448
56	0x3dea30f8	0.11435121
57	0xbe0e5a9b	-0.1390175
58	0xbe04023f	-0.12891482
59	0xbdfc3728	-0.12315208
60	0x3d8b957a	0.0681562
61	0xbbf352b2	-0.0074256295
62	0x3dfc9a00	0.12334061
63	0xbd995318	-0.07486552
64	0xbdedf7fe	-0.116195664
65	0x3d4cac05	0.049968738
66	0x3dee9b8c	0.11650762
67	0x3d9544be	0.07288502
68	0xbcf3fed9	-0.029784607
69	0x3e046e93	0.12932806
70	0x3c8413b9	0.016122686
71	0x3d49ca10	0.049264967
72	0xbc84804f	-0.016174464
73	0xbd6b597c	-0.057458386
74	0x3b78c314	0.0037958072
75	0x3db4be2f	0.08825337
76	0xbddb4b6c	-0.10707745
77	0xbd8904f0	-0.06690395
78	0x3cf273f7	0.029596312
79	0x3de05da1	0.10955358
80	0xbcb2778d	-0.021785522
81	0x3d12be53	0.03582604
82	0x3df73215	0.12070099
83	0x3df4c19f	0.11950993
84	0xbd8a9ae1	-0.06767822
85	0x3b801eb0	0.0039099082
86	0xbde2ceb6	-0.11074583
87	0xbde143ae	-0.10999237
88	0x3c49a563	0.012307498
89	0xbcc68f02	-0.024238113
90	0x3b1e3bac	0.0024144454
91	0x3db87fc6	0.09008746
92	0xbd3f3cf3	-0.046688985
93	0xbdda4709	-0.1065808
94	0x3b4f47b8	0.003162844
95	0xbcc68d0e	-0.024237182
96	0xbdd55340	-0.10416269
97	0xbdb529fd	-0.08845899
98	0xbe018912	-0.12649944
99	0x3d5de4a4	0.054173127
100	0x3d87f452	0.06638397
101	0xbe080ce2	-0.13286164
102	0xbda1141e	-0.07865165
103	0xbd1132ff	-0.035449024
104	0xbe0bb36b	-0.13642661
105	0xbc334879	-0.010942572
106	0x3c01c98a	0.007921586
107	0x3dc478d9	0.09593362
108	0x3d851bab	0.06499418
109	0xbe0fcad0	-0.1404221
110	0xbb4994f3	-0.0030758947
111	0xbdde654e	-0.10859166
112	0xbcd1ff90	-0.025634557
113	0xbde24b70	-0.11049545
114	0x3c86b0f9	0.016441809
115	0xbd64941b	-0.055805307
116	0x3dc2cbcb	0.09511527
117	0x3e07a6fc	0.13247293
118	0xbe12553f	-0.14290331
119	0xbc1cedd4	-0.009578187
120	0xbd7e207d	-0.062042702
121	0x3d958c2a	0.07302125
122	0xbd5eadb5	-0.05436488
123	0x3d976726	0.07392721
124	0x3b82c8ba	0.0039912136
125	0x3df747b6	0.12074225
126	0x3ca2500f	0.019813566
127	0xbdca9da5	-0.098933496
128	0x3dea7a0a	0.11449058
129	0xbad060bc	-0.001589797
130	0x3df72363	0.12067296
131	0xbdaf9e75	-0.08575145
132	0xbb8aa82c	-0.0042314734
133	0xbdcdb64b	-0.10044535
134	0x3cf4071f	0.029788552
135	0xbd3fb86a	-0.04680673
136	0xbd331163	-0.043717753
137	0x3d867c25	0.065666474
138	0xbd1d9aa3	-0.03847755
139	0x3dd15a13	0.102222584
140	0xbcca45ba	-0.024691451
141	0x3d2bfb44	0.041987672
142	0xbdbee304	-0.093206435
143	0xbd1fe965	-0.03904094
144	0x3daba7c9	0.08381612
145	0xbd32edaf	-0.043683704
146	0xbddf15c9	-0.10892827
147	0x3dc56fd1	0.09640468
148	0xbdb15eb5	-0.08660642
149	0xbab60e22	-0.001388971
150	0x3d0b820f	0.03405958
151	0x3d9c1ca3	0.076226495
152	0x3da00929	0.07814247
153	0x3de12b5b	0.109945975
154	0xbdd4ac3e	-0.10384415
155	0xbd510634	-0.051031306
156	0xbdbad894	-0.0912334
157	0xbe13ecf3	-0.14445858
158	0xbd12f97d	-0.03588246
159	0xbde27e09	-0.110591955
160	0x3d7da8f6	0.06192871
161	0xbdf46d37	-0.119348936
162	0xbd296e96	-0.04136523
163	0x3cf45c6f	0.029829232
164	0xbce17d63	-0.02752561
165	0xbe010c65	-0.12602384
166	0x3c3ab766	0.011396265
167	0xbd6988e9	-0.057015333
168	0xbd5385d9	-0.05164132
169	0x3dc1f12e	0.094698295
170	0x3889c706	6.56974e-05
171	0xbd08bd40	-0.033383608
172	0x3dd43378	0.103613794
173	0x3db5fa65	0.088856496
174	0xbe100c53	-0.14067201
175	0x3d9921b3	0.07477131
176	0x3da380b5	0.07983533
177	0xbcc73831	-0.024318786
178	0x3cde9049	0.02716841
179	0xbcb7118f	-0.02234724
180	0xbde553ae	-0.11197601
181	0xbd30a2be	-0.043123953
182	0x3c07331d	0.008251932
183	0x3d44a3d3	0.048007797
184	0xbcc76cd1	-0.02434388
185	0xbe10bfc4	-0.14135653
186	0xbe0ad1bc	-0.1355657
187	0xbdac487c	-0.08412263
188	0x3d85c0b5	0.065308966
189	0xbd51389f	-0.05107939
190	0xbde7b571	-0.11313904
191	0xbdd63f32	-0.10461272
192	0x3d42eccb	0.047589105
193	0xbca38a91	-0.019963535
194	0xbd5a7302	-0.053332336
195	0x3def4c27	0.11684447
196	0xbcd248fb	-0.025669565
197	0xbc9feddf	-0.019522605
198	0x3d0584d9	0.032597397
199	0x3d5000c9	0.050782
200	0xbc703265	-0.0146604525
201	0xbda1fa9b	-0.07909127
202	0xbe0c2261	-0.1368499
203	0xbd87029f	-0.06592297
204	0xbcc2ce53	-0.023780024
205	0x3da957f6	0.0826873
206	0xbdbe4a66	-0.09291534
207	0x3db04df1	0.08608616
208	0xbdfa758d	-0.12229452
209	0xbdaa77b7	-0.08323615
210	0xbca7eb4b	-0.020497939
211	0xbd245150	-0.04011661
212	0xb92b04bf	-0.00016309599
213	0xbe052ff3	-0.13006572
214	0x3c14ab30	0.009074017
215	0xbd5ef7c2	-0.0544355
216	0x3da433e5	0.080177106
217	0xbdb70769	-0.0893696
218	0x3cbf8c7a	0.023382414
219	0x3d095684	0.033529773
220	0xbc819bbf	-0.015821336
221	0x3c52e684	0.012872342
222	0xbd77221b	-0.06033526
223	0x3d941d1e	0.07232116
224	0x3dd28cf4	0.10280791
225	0x3b0b199c	0.0021224981
226	0xbdd37194	-0.10324398
227	0x3d3389cd	0.04383259
228	0xbd784cac	-0.060619995
229	0xbd960881	-0.07325841
230	0xbd4e7f9b	-0.050414663
231	0x3cc4eccb	0.024038693
232	0x3c2fa3d2	0.01072021
233	0x3cceb600	0.025233269
234	0xbe1127ce	-0.1417534
235	0xbc7dfd22	-0.015502246
236	0xbcd62965	-0.026142785
237	0xbde5f0f6	-0.112276
238	0xbb0d478c	-0.0021557538
239	0xbdfd6e51	-0.12374557
240	0xbe036d97	-0.12834774
241	0x3d96bf38	0.07360691
242	0x3dead6fd	0.11466787
243	0x3d805be8	0.0626753
244	0xbd90b006	-0.07064824
245	0x3cb21841	0.02174008
246	0xbd9c1603	-0.07621386
247	0xbd88ede9	-0.06686003
248	0xbe0a62e0	-0.1351428
249	0x3dd0a0fd	0.10186956
250	0x3d869296	0.06570928
251	0xbdc75c9a	-0.09734459
252	0x3d2b748a	0.041859187
253	0xbda12cbc	-0.078698605
254	0xbda0f803	-0.078598045
255	0xbdfa8e46	-0.12234168

bias f4 [50]
0	0xbc3f20a4	-0.011665497
1	0xbc4cfb6f	-0.012511118
2	0x3d3846f8	0.044989556
3	0xbd818632	-0.06324424
4	0xbc952dff	-0.01821041
5	0xbd609c76	-0.054836713
6	0xbd0b7b28	-0.034052998
7	0x3d73bd04	0.05950643
8	0xbd0ade45	-0.03390338
9	0xba437c65	-0.0007457196
10	0x3c9c144b	0.019052645
11	0xbc9aaa08	-0.018879905
12	0x3ab94515	0.0014134968
13	0xbd002cba	-0.031292655
14	0x3db3faf3	0.08788099
15	0x3d3e09bc	0.046396002
16	0xbcaaa43c	-0.020830266
17	0x3d00ad24	0.03141512
18	0xbd239306	-0.039935134
19	0x3cf14f0b	0.029456636
20	0xbcfa39df	-0.030545173
21	0xbcb0b878	-0.021572337
22	0x3b1b2ad0	0.0023676641
23	0x3d58bf1d	0.052916635
24	0xbd119772	-0.03554482
25	0x3d4a58c5	0.049401063
26	0x3da175e0	0.07883811
27	0xbd26d549	-0.04073075
28	0xbcf458ff	-0.029827593
29	0x3d549379	0.051898453
30	0xb9dd58ec	-0.00042218657
31	0x3c5bbb86	0.013411408
32	0x3d2611a3	0.040544163
33	0x3d429e9f	0.047514554
34	0x3d3c033e	0.04590153
35	0xbcd25cf9	-0.025679098
36	0xbc99cfde	-0.018775877
37	0x3c639a5f	0.013891785
38	0x3ddd4f63	0.108061574
39	0xbd6a5f7b	-0.057219964
40	0xbcc8c9ec	-0.024510346
41	0x3de401e8	0.11133176
42	0xbc184ad8	-0.009295188
43	0x3b19991d	0.002343721
44	0xbd363272	-0.044481702
45	0xbd718dbf	-0.05897307
46	0xbbc75da4	-0.006084161
47	0xbcf788f8	-0.030216679
48	0xbb2fb19b	-0.0026808742
49	0xbd911771	-0.07084549

weight f4 [2, 50, 1, 1, 1]
0	0xbe8aea51	-0.27131894
1	0xbdad3b10	-0.08458531
2	0x3e1868de	0.14883754
3	0xbe03e5a7	-0.12880574
4	0xbe8a5cdd	-0.27023974
5	0xbf1df9a1	-0.6170903
6	0x3e9faa01	0.3118439
7	0x3f0f7165	0.560324
8	0xbf1b2973	-0.6061012
9	0xbecb186b	-0.39667067
10	0x3edefa2e	0.43550247
11	0xbf32f01d	-0.69897634
12	0xbebadbf4	-0.36495936
13	0xbc15efa1	-0.00915137
14	0x3ecd584a	0.40106422
15	0x3ed31810	0.41229296
16	0x3c3d7f71	0.011566029
17	0x3eaadc9c	0.33371437
18	0xbf26d7e9	-0.651732
19	0xbcc194f1	-0.023630591
20	0xbf37f258	-0.7185416
21	0x3e59f914	0.21286422
22	0x3efd66d6	0.4949252
23	0x3f0ab82e	0.54187286
24	0xbee290f7	-0.44251224
25	0x3f35f198	0.7107177
26	0x3f0c196b	0.54726285
27	0xbf077286	-0.52909124
28	0xbda523f5	-0.08063499
29	0x3f2e3839	0.6805454
30	0x3d0189f7	0.031625714
31	0x3e07bd4c	0.13255805
32	0x3ea07e99	0.31346586
33	0x3ed7f4f3	0.4217907
34	0x3dd177c2	0.1022792
35	0x3ee8de83	0.45482263
36	0x3f1f7a08	0.6229558
37	0x3dd84d3b	0.105616055
38	0x3f3dc629	0.74130493
39	0xbf22158c	-0.6331413
40	0xbea85f5b	-0.3288525
41	0x3f3fc3ab	0.7490794
42	0x3e49c0f3	0.1970251
43	0xbf38c32b	-0.721728
44	0xbf127a2d	-0.57217675
45	0xbd4f1ad6	-0.050562702
46	0xbebdd6e9	-0.37078026
47	0xbeabd0ff	-0.3355789
48	0x3ec8e407	0.3923647
49	0xbf109c09	-0.5648809
50	0x3f0bd4c9	0.5462156
51	0x3e25accd	0.161792
52	0xbf31387f	-0.6922683
53	0x3e756a3e	0.2396631
54	0xbea1180a	-0.31463653
55	0x3f265be7	0.6498398
56	0x3f0d18b9	0.5511585
57	0xbee178b2	-0.44037396
58	0xbd357003	-0.044296276
59	0xbedc78ef	-0.43061015
60	0xbefaacc0	-0.48959923
61	0x3f03a201	0.51419073
62	0x3f0b416e	0.5439671
63	0x3ece39e4	0.40278542
64	0xbf3568d7	-0.708631
65	0xbf210b4c	-0.6290786
66	0x3e0368a9	0.12832893
67	0x3daf1cc9	0.08550412
68	0x3eb0ca01	0.34529117
69	0xbde26d2e	-0.110559806
70	0x3eebe250	0.460711
71	0x3e62c57b	0.22145645
72	0xbe46fd57	-0.19432579
73	0x3e022a9f	0.12711571
74	0xbf191104	-0.5979159
75	0xbdd56b97	-0.10420912
76	0xbf2d9be6	-0.6781601
77	0x3f204e48	0.6261945
78	0xbe77053e	-0.24123093
79	0xbea55e87	-0.3229868
80	0xbcc40b05	-0.023931036
81	0x3dcbb20d	0.0994607
82	0xbf34fe0f	-0.7070016
83	0xbeee07c7	-0.4649031
84	0xbf039eaa	-0.5141398
85	0x3e90501b	0.28186116
86	0x3ed74aa7	0.42049143
87	0xbecd091b	-0.4004601
88	0xbf335465	-0.7005065
89	0xbebf1857	-0.37323257
90	0xbe8b2abb	-0.27181038
91	0xbf1246a5	-0.57139045
92	0xbd924098	-0.071412265
93	0x3f277fcc	0.6542938
94	0x3df9a527	0.121897034
95	0x3efe8516	0.49710912
96	0x3e231866	0.15927276
97	0x3e1c6f9f	0.15276955
98	0x3ecd86c1	0.40141872
99	0x3f19a995	0.60024387

bias f4 [2]
0	0x3d1bf4b5	0.038075168
1	0xbdb61a10	-0.0889169

weight f4 [5]
0	0x3f36d0f6	0.714126
1	0x3f3c07b2	0.7344924
2	0x3f40025f	0.7500362
3	0x3f2ebdf7	0.68258613
4	0x3f412f11	0.7546244

bias f4 [5]
0	0xbb43aee3	-0.002985888
1	0xbcb1b565	-0.021692941
2	0xbdc9658c	-0.09833822
3	0xbd04d5d0	-0.03243047
4	0xba7c54ff	-0.00096257025

running_mean f4 [5]
0	0xc296dded	-75.43345
1	0xc264e3d9	-57.222507
2	0x42a6ec6f	83.461784
3	0xc2214aa6	-40.3229
4	0x4251610b	52.34477

running_var f4 [5]
0	0x43a09607	321.1721
1	0x438758da	270.69415
2	0x43e848d8	464.5691
3	0x43458bb3	197.5457
4	0x43a0ff79	321.99588

weight f4 [10]
0	0x3f3a3e0b	0.7275092
1	0x3f4dd200	0.8039856
2	0x3f3808fe	0.7188872
3	0x3f456725	0.7711051
4	0x3f367396	0.7127012
5	0x3f2c0ad7	0.6720404
6	0x3f2cac96	0.67450845
7	0x3f3c12ab	0.73465985
8	0x3f366add	0.7125681
9	0x3f3e6697	0.7437529

bias f4 [10]
0	0x3cdfb66e	0.027308669
1	0x3bfe2339	0.0077556637
2	0x3c29af5c	0.01035675
3	0x3c032838	0.008005194
4	0xbd6a5a67	-0.05721512
5	0xbd6d2945	-0.057900686
6	0xbd9ea8a9	-0.07747013
7	0x3c1ee2cd	0.009697628
8	0x3c7cb1fd	0.015423295
9	0x3c8ee1ce	0.017441656

running_mean f4 [10]
0	0xbf398e2a	-0.7248255
1	0x3ea473d9	0.32119635
2	0x3ebd45ba	0.3696726
3	0x3e572318	0.21009481
4	0x3eedf33a	0.4647463
5	0x3f7002c0	0.93754196
6	0x3f25f9c3	0.6483423
7	0xbd5b3a19	-0.053522203
8	0xbf748b01	-0.95524603
9	0xbe09ead5	-0.13468488

running_var f4 [10]
0	0x3ef395b4	0.47575152
1	0x3f16edef	0.5895681
2	0x3ec95d4d	0.39328995
3	0x3f07961e	0.52963436
4	0x3f930ca5	1.1488234
5	0x40089fb0	2.1347466
6	0x3f924ff7	1.1430653
7	0x3f1f1e3c	0.6215551
8	0x3ff5c189	1.9199687
9	0x3ef3068c	0.47465932

weight f4 [20]
0	0x3f55b980	0.83486176
1	0x3f3d5a53	0.7396595
2	0x3f15eae4	0.5856154
3	0x3f3d69d1	0.7398959
4	0x3f464c03	0.77459735
5	0x3f4ab58b	0.7918326
6	0x3f301bf4	0.68792653
7	0x3f54b98d	0.8309563
8	0x3f524c3d	0.8214758
9	0x3f1b3282	0.60623944
10	0x3f33364e	0.7000474
11	0x3f4438ee	0.7664937
12	0x3f30a19d	0.689966
13	0x3f164731	0.5870238
14	0x3f40a3fb	0.75250214
15	0x3f31b89c	0.69422317
16	0x3f2d4ed8	0.6769843
17	0x3f4045e8	0.7510667
18	0x3f40fb17	0.7538313
19	0x3f5aedbc	0.85519004

bias f4 [20]
0	0x3e8f3edb	0.27977642
1	0xbe2987c8	-0.16555703
2	0xbd617b76	-0.055049382
3	0x3d35617b	0.044282418
4	0x3e033a64	0.12815243
5	0x3e26fbb8	0.1630696
6	0xbcfe4cab	-0.031042418
7	0x3e70e090	0.23523164
8	0x3e8d9573	0.27653083
9	0xbe238813	-0.15969877
10	0xbc0b9a5d	-0.00852069
11	0x3dc9ad18	0.09847468
12	0x3c0ac49f	0.00846973
13	0xbe30144f	-0.17195247
14	0x3dd68f86	0.10476594
15	0xbd0038a9	-0.031304035
16	0xbdebd49a	-0.1151516
17	0x3dc1d2cc	0.094640344
18	0x3dd1bbb5	0.102408804
19	0x3e9d24f1	0.30692247

running_mean f4 [20]
0	0xbf25c302	-0.64750683
1	0x401cf64b	2.4525325
2	0x3f15e783	0.58556384
3	0xbed63b17	-0.41841957
4	0xbeb3ac87	-0.35092565
5	0xbf073ad3	-0.52824134
6	0xbecd832c	-0.4013914
7	0x3c772719	0.015085005
8	0xbf2b3e57	-0.66892
9	0x40257537	2.5852792
10	0xbe2f9704	-0.17147452
11	0xbd391bc4	-0.045192495
12	0xbeb4272b	-0.35186133
13	0x400e6edc	2.2255163
14	0xbd8783e8	-0.06616956
15	0xbeffa66f	-0.49931666
16	0x3ffae710	1.9601765
17	0xbf341e30	-0.7035856
18	0xbf1f3884	-0.6219561
19	0xbf6b122e	-0.91824615

running_var f4 [20]
0	0x404229ba	3.0337968
1	0x4201083d	32.258045
2	0x4040165c	3.0013647
3	0x402f675d	2.7406838
4	0x40444cd6	3.0671897
5	0x3ff16bdc	1.8861041
6	0x3fb76855	1.4328715
7	0x405549cd	3.3326294
8	0x404682ed	3.101741
9	0x41ea80d7	29.31291
10	0x401f9e14	2.4940233
11	0x3fbc536b	1.4712957
12	0x400230a7	2.0342195
13	0x41bc7f01	23.562014
14	0x406816ad	3.626384
15	0x3f8420e7	1.0322541
16	0x415ae4c6	13.680853
17	0x4050ee88	3.2645588
18	0x401ce2dc	2.4513464
19	0x403e107b	2.969756

weight f4 [50]
0	0x3f800000	1.0
1	0x3f800000	1.0
2	0x3f800000	1.0
3	0x3f800000	1.0
4	0x3f800000	1.0
5	0x3f800000	1.0
6	0x3f800000	1.0
7	0x3f800000	1.0
8	0x3f800000	1.0
9	0x3f800000	1.0
10	0x3f800000	1.0
11	0x3f800000	1.0
12	0x3f800000	1.0
13	0x3f800000	1.0
14	0x3f800000	1.0
15	0x3f800000	1.0
16	0x3f800000	1.0
17	0x3f800000	1.0
18	0x3f800000	1.0
19	0x3f800000	1.0
20	0x3f800000	1.0
21	0x3f800000	1.0
22	0x3f800000	1.0
23	0x3f800000	1.0
24	0x3f800000	1.0
25	0x3f800000	1.0
26	0x3f800000	1.0
27	0x3f800000	1.0
28	0x3f800000	1.0
29	0x3f800000	1.0
30	0x3f800000	1.0
31	0x3f800000	1.0
32	0x3f800000	1.0
33	0x3f800000	1.0
34	0x3f800000	1.0
35	0x3f800000	1.0
36	0x3f800000	1.0
37	0x3f800000	1.0
38	0x3f800000	1.0
39	0x3f800000	1.0
40	0x3f800000	1.0
41	0x3f800000	1.0
42	0x3f800000	1.0
43	0x3f800000	1.0
44	0x3f800000	1.0
45	0x3f800000	1.0
46	0x3f800000	1.0
47	0x3f800000	1.0
48	0x3f800000	1.0
49	0x3f800000	1.0

bias f4 [50]
0	0x00000000	0.0
1	0x00000000	0.0
2	0x00000000	0.0
3	0x00000000	0.0
4	0x00000000	0.0
5	0x00000000	0.0
6	0x00000000	0.0
7	0x00000000	0.0
8	0x00000000	0.0
9	0x00000000	0.0
10	0x00000000	0.0
11	0x00000000	0.0
12	0x00000000	0.0
13	0x00000000	0.0
14	0x00000000	0.0
15	0x00000000	0.0
16	0x00000000	0.0
17	0x00000000	0.0
18	0x00000000	0.0
19	0x00000000	0.0
20	0x00000000	0.0
21	0x00000000	0.0
22	0x00000000	0.0
23	0x00000000	0.0
24	0x00000000	0.0
25	0x00000000	0.0
26	0x00000000	0.0
27	0x00000000	0.0
28	0x00000000	0.0
29	0x00000000	0.0
30	0x00000000	0.0
31	0x00000000	0.0
32	0x00000000	0.0
33	0x00000000	0.0
34	0x00000000	0.0
35	0x00000000	0.0
36	0x00000000	0.0
37	0x00000000	0.0
38	0x00000000	0.0
39	0x00000000	0.0
40	0x00000000	0.0
41	0x00000000	0.0
42	0x00000000	0.0
43	0x00000000	0.0
44	0x00000000	0.0
45	0x00000000	0.0
46	0x00000000	0.0
47	0x00000000	0.0
48	0x00000000	0.0
49	0x00000000	0.0

running_mean f4 [50]
0	0x00000000	0.0
1	0x00000000	0.0
2	0x00000000	0.0
3	0x00000000	0.0
4	0x00000000	0.0
5	0x00000000	0.0
6	0x00000000	0.0
7	0x00000000	0.0
8	0x00000000	0.0
9	0x00000000	0.0
10	0x00000000	0.0
11	0x00000000	0.0
12	0x00000000	0.0
13	0x00000000	0.0
14	0x00000000	0.0
15	0x00000000	0.0
16	0x00000000	0.0
17	0x00000000	0.0
18	0x00000000	0.0
19	0x00000000	0.0
20	0x00000000	0.0
21	0x00000000	0.0
22	0x00000000	0.0
23	0x00000000	0.0
24	0x00000000	0.0
25	0x00000000	0.0
26	0x00000000	0.0
27	0x00000000	0.0
28	0x00000000	0.0
29	0x00000000	0.0
30	0x00000000	0.0
31	0x00000000	0.0
32	0x00000000	0.0
33	0x00000000	0.0
34	0x00000000	0.0
35	0x00000000	0.0
36	0x00000000	0.0
37	0x00000000	0.0
38	0x00000000	0.0
39	0x00000000	0.0
40	0x00000000	0.0
41	0x00000000	0.0
42	0x00000000	0.0
43	0x00000000	0.0
44	0x00000000	0.0
45	0x00000000	0.0
46	0x00000000	0.0
47	0x00000000	0.0
48	0x00000000	0.0
49	0x00000000	0.0

running_var f4 [50]
0	0x3f800000	1.0
1	0x3f800000	1.0
2	0x3f800000	1.0
3	0x3f800000	1.0
4	0x3f800000	1.0
5	0x3f800000	1.0
6	0x3f800000	1.0
7	0x3f800000	1.0
8	0x3f800000	1.0
9	0x3f800000	1.0
10	0x3f800000	1.0
11	0x3f800000	1.0
12	0x3f800000	1.0
13	0x3f800000	1.0
14	0x3f800000	1.0
15	0x3f800000	1.0
16	0x3f800000	1.0
17	0x3f800000	1.0
18	0x3f800000	1.0
19	0x3f800000	1.0
20	0x3f800000	1.0
21	0x3f800000	1.0
22	0x3f800000	1.0
23	0x3f800000	1.0
24	0x3f800000	1.0
25	0x3f800000	1.0
26	0x3f800000	1.0
27	0x3f800000	1.0
28	0x3f800000	1.0
29	0x3f800000	1.0
30	0x3f800000	1.0
31	0x3f800000	1.0
32	0x3f800000	1.0
33	0x3f800000	1.0
34	0x3f800000	1.0
35	0x3f800000	1.0
36	0x3f800000	1.0
37	0x3f800000	1.0
38	0x3f800000	1.0
39	0x3f800000	1.0
40	0x3f800000	1.0
41	0x3f800000	1.0
42	0x3f800000	1.0
43	0x3f800000	1.0
44	0x3f800000	1.0
45	0x3f800000	1.0
46	0x3f800000	1.0
47	0x3f800000	1.0
48	0x3f800000	1.0
49	0x3f800000	1.0
