models/deepvesselnet2.model (torch_old, 243940 bytes, 26 tensors)

weight f4 [5, 1, 3, 3, 3]
0	0x3d9272f9	0.071508355
1	0x3e3acb90	0.18241715
2	0x3dbbe2b3	0.09174099
3	0x3bc84822	0.0061121145
4	0x3e92fb9b	0.28707585
5	0x3e15c12d	0.14624472
6	0xbd9f0086	-0.07763772
7	0xbe142eb5	-0.14470942
8	0xbcba9a96	-0.02277879
9	0xbdb9a195	-0.090640225
10	0xbd55112f	-0.05201834
11	0x3c2a5c5c	0.010397997
12	0x3e91bcf4	0.28464472
13	0x3d871025	0.06594876
14	0x3dc0c7f7	0.0941314
15	0x3dbb7959	0.091540046
16	0x3db62897	0.08894461
17	0x3e1e6655	0.15468724
18	0x3d7a23f1	0.061069433
19	0xbdbd79fb	-0.092517816
20	0xbd520c72	-0.0512814
21	0x3e221d2a	0.15831438
22	0x3dc7e9f0	0.09761417
23	0xbdacbfd0	-0.08435023
24	0x3d85dd6f	0.06536376
25	0xbc2fbf84	-0.010726813
26	0xbc6eeeb8	-0.014583282
27	0x3d81dc2b	0.06340822
28	0xbdac0720	-0.083997965
29	0x3c8b128c	0.016976617
30	0xbcc3b902	-0.02389193
31	0x3dc28a07	0.09498983
32	0xbe2f941f	-0.17146347
33	0x3dbee338	0.09320682
34	0xbd71cb10	-0.059031546
35	0xbd0bdf75	-0.034148652
36	0x3e7b287e	0.24527165
37	0xbd467806	-0.048454307
38	0xbd86dff7	-0.06585687
39	0x3ea1097f	0.31452557
40	0x3d840e0f	0.06447994
41	0x3e3363c7	0.17518531
42	0x3e45bbed	0.19309969
43	0x3dbb39e5	0.09141902
44	0xbdbfbc3b	-0.09362074
45	0x3d095426	0.033527516
46	0x3d86c5b3	0.06580677
47	0x3c9f3c50	0.019437939
48	0x3da47e6b	0.08031925
49	0xbd0cc2e3	-0.034365546
50	0xbd2a5ff0	-0.0415954
51	0xbdaaef96	-0.08346479
52	0xbdc5f8a4	-0.09666565
53	0xbe07bc1f	-0.13255356
54	0x3e0b8f5e	0.13628909
55	0x3e14b478	0.14521968
56	0x3d7ab312	0.06120593
57	0xbe1a7e8c	-0.15087336
58	0x3e02f63d	0.12789245
59	0xbd7c3942	-0.061578043
60	0xbdfa4a65	-0.12221221
61	0x3e020b1a	0.12699547
62	0xbda4e3d0	-0.08051264
63	0xbe1d54d9	-0.15364398
64	0xbdc99f62	-0.09844853
65	0xbe3b24be	-0.18275735
66	0xbd085a51	-0.033289257
67	0x3ddf60e7	0.109071545
68	0xbe07f0d4	-0.13275462
69	0xbe460179	-0.193365
70	0x3e388905	0.18021019
71	0xbe48f2f9	-0.19623937
72	0xbe165f81	-0.1468487
73	0x3d66e6fe	0.056372635
74	0xbce9f2d7	-0.028558178
75	0x3ddb275e	0.10700868
76	0xbdd1538c	-0.102210134
77	0xbc2ac228	-0.010422267
78	0xbe2655a9	-0.16243614
79	0xbc29f61d	-0.010373619
80	0x3de15016	0.11001603
81	0xbd91184c	-0.070847124
82	0xbe09c45e	-0.13453814
83	0xbe08b912	-0.13351849
84	0x3df5aebd	0.11996219
85	0xbbd10838	-0.0063791536
86	0x3d64ab3a	0.055827357
87	0xbc020b48	-0.00793726
88	0xbe2e4fec	-0.17022675
89	0xbd23257a	-0.039830662
90	0x3c9a4414	0.01883129
91	0x3d34d436	0.044147693
92	0x3de4bd44	0.11168912
93	0x3de6a0a8	0.112611115
94	0x3e7d1e00	0.24718475
95	0xbd34071a	-0.043952085
96	0x3dc75386	0.09732728
97	0xbd3765f0	-0.04477495
98	0x3e3241cf	0.17407916
99	0x3d97a7a2	0.0740502
100	0xbd9e2602	-0.07722093
101	0xbe495a72	-0.19663408
102	0x3e15fb7b	0.14646713
103	0x3e356dd4	0.17717677
104	0x3d774895	0.060371954
105	0x3c86daac	0.016461693
106	0xbe2e9246	-0.17047986
107	0xbd91a270	-0.071110606
108	0x3be54695	0.0069969394
109	0x3d769b9a	0.060206987
110	0xbd6f5e28	-0.058439404
111	0xbd53ce70	-0.051710546
112	0xbe2c7e21	-0.1684499
113	0x3d471c3d	0.048610914
114	0x3dc854c8	0.09781796
115	0x3d89ff08	0.067380965
116	0x3d643c3a	0.0557215
117	0xbde2c12c	-0.11072001
118	0x3e0834ac	0.13301343
119	0xbd0cd825	-0.03438582
120	0xbe1b0d5b	-0.15141813
121	0xbe271074	-0.1631487
122	0xbdea58ce	-0.114427194
123	0xbda99ff4	-0.08282462
124	0x3dac284e	0.08406125
125	0x3e38ff2f	0.18066095
126	0x3d49ca49	0.04926518
127	0x3e06785e	0.13131854
128	0x3e3eaa4f	0.18619655
129	0xbe17d81b	-0.14828531
130	0xbd2cc828	-0.04218307
131	0x3dbdf465	0.0927513
132	0x3d960458	0.07325047
133	0x3dcd7079	0.10031218
134	0x3e240d22	0.16020635

bias f4 [5]
0	0xbe27f22b	-0.16400973
1	0x3d80135e	0.06253694
2	0x3e0654cf	0.1311829
3	0x3e187b87	0.14890872
4	0x3e093c17	0.13401829

weight f4 [10, 5, 5, 5, 5]
0	0x3d65f5e8	0.056142718
1	0xbda46cfb	-0.08028599
2	0xbc02a50a	-0.007973919
3	0x3aaf8ee3	0.0013394024
4	0xbd49b78e	-0.049247317
5	0xbce09685	-0.027415523
6	0xbdb2fa8b	-0.087391935
7	0x3d121fc8	0.03567484
8	0xbd6e63ce	-0.05820065
9	0x3d8e26f8	0.069410264
10	0x3db9f59f	0.09080052
11	0xb8db0271	-0.000104431885
12	0xbda598a5	-0.08085755
13	0x3dcbe505	0.099557914
14	0x3dcb89eb	0.09938415
15	0x3ca18626	0.019717287
16	0xbd5f63b3	-0.05453844
17	0xbd1cc21b	-0.03827105
18	0xbb20d239	-0.0024539365
19	0x3d3d957e	0.046285145
20	0xbdae6213	-0.085148
21	0x3ce6185f	0.028087793
22	0x3d7c30f4	0.061570123
23	0x3d2208b9	0.0395591
24	0xbb53f569	-0.003234232
25	0xbd3f3ca1	-0.04668868
26	0x3c5c46a7	0.013444579
27	0x3c24db0f	0.010061993
28	0xbd851070	-0.06497276
29	0x3d11dea3	0.035612714
30	0xbd860430	-0.065437675
31	0xbd717b08	-0.058955222
32	0x3cde7fbb	0.027160516
33	0x3c89068a	0.01672675
34	0x3ccaf4af	0.024774877
35	0xbce452e8	-0.027871564
36	0x3c949397	0.018136783
37	0x3cd9a08b	0.02656581
38	0x3c69b2a0	0.014263779
39	0xbbc1c946	-0.0059138862
40	0xbd9bc86d	-0.076065876
41	0x3d5db8d3	0.05413134
42	0xbd3cb3d9	-0.046069954
43	0xbd0df480	-0.034657
44	0x3d601702	0.054709442
45	0xbc1d386d	-0.0095959725
46	0xbbe66390	-0.0070309117
47	0xbd6aa57d	-0.05728673
48	0xbcf8b6c3	-0.030360585
49	0x3d5596a7	0.052145626
50	0x3d5dd51a	0.054158308
51	0xbd8ca2e0	-0.068670034
52	0xbdcc7b2d	-0.099844314
53	0xbd854256	-0.06506793
54	0x3daeda83	0.085377716
55	0xbd990b56	-0.07472865
56	0xbd87bbcd	-0.06627617
57	0xbc6481dc	-0.0139469765
58	0x3d23f6f5	0.04003044
59	0xbba0c36f	-0.00490611
60	0xbd6d6556	-0.05795797
61	0xbd6154bc	-0.05501245
62	0x3d4cbeb5	0.04998656
63	0xbd1ce7b8	-0.03830692
64	0x3d3f1d89	0.046659026
65	0x39bee046	0.0003640672
66	0x3d54165c	0.051779136
67	0xbcb8daae	-0.022565212
68	0xbcbda043	-0.023147708
69	0xbd52b34a	-0.051440515
70	0xbdbcdf02	-0.09222223
71	0xbdd98fb5	-0.10623113
72	0xbd294b69	-0.041331682
73	0x3dba647c	0.09101197
74	0x3def5a87	0.116871886
75	0xbd952b88	-0.072836936
76	0xbd6d904a	-0.057998933
77	0x3d5d8c9e	0.05408918
78	0x3d5e39af	0.05425423
79	0x3bcb3125	0.006200927
80	0xbcd24068	-0.025665477
81	0xbdcdd628	-0.10050613
82	0xbde24b75	-0.110495485
83	0x3d4de7e3	0.050269973
84	0xbcde6c00	-0.027151108
85	0xbcb0a32c	-0.021562181
86	0x3b8db43d	0.0043244646
87	0xbda5766f	-0.0807923
88	0xbc7ec9f7	-0.015551082
89	0xbc9c31df	-0.01906675
90	0x3d98868d	0.074475385
91	0xbc353218	-0.011059307
92	0xbd9674d5	-0.07346503
93	0x3d6c0e40	0.057630777
94	0xbd407a21	-0.04699147
95	0x3d78fba4	0.06078686
96	0xbcaa25b8	-0.020769939
97	0xbcaf8936	-0.021427732
98	0xbc144929	-0.009050646
99	0x3d2ec630	0.042669475
100	0xbb547217	-0.0032416636
101	0xbd6b136d	-0.057391573
102	0xbc77c9af	-0.015123769
103	0xbd814902	-0.06312753
104	0xbc899fb7	-0.01679979
105	0xbd53c61a	-0.051702596
106	0xbdb5e6c0	-0.08881903
107	0x3c1c4450	0.009537771
108	0xbd77e5e8	-0.06052199
109	0xbc28ede8	-0.0103106275
110	0x3d31667d	0.04331063
111	0x3d664e84	0.056227222
112	0xbceb5133	-0.028725242
113	0x3d80d39a	0.0629036
114	0xbd63941a	-0.055561163
115	0xbd2448c3	-0.040108453
116	0x3d553cbb	0.05205987
117	0xbd8196dc	-0.06327602
118	0x3d19f778	0.03758952
119	0x3d465dc0	0.04842925
120	0x3d3a404a	0.045471467
121	0x3d3ad9f1	0.045618
122	0xbdbf1be7	-0.09331494
123	0x3a8a493e	0.0010550392
124	0xbd62da44	-0.055383936
125	0x3c4b143a	0.012394959
126	0x3c8d5082	0.017250303
127	0x3d03ccfc	0.03217791
128	0x3d886e19	0.066616245
129	0x3dbeaa73	0.09309854
130	0xbcbfc6f1	-0.023410292
131	0xbc932771	-0.017963143
132	0xbd27c309	-0.040957484
133	0xbcdc3ce7	-0.02688451
134	0x3cf61e6f	0.030043809
135	0xbc18846f	-0.009308918
136	0x3db0d7c6	0.086349055
137	0xbd412012	-0.047149725
138	0xbd3a11e4	-0.045427218
139	0xbd95ea24	-0.073200494
140	0x3d87009e	0.065919146
141	0x3d917ec8	0.0710426
142	0xbd73ce83	-0.059523117
143	0xbd3fa50f	-0.04678827
144	0x3c7bcf95	0.015369316
145	0x3cc115cb	0.023569962
146	0x3cbfd9dc	0.023419313
147	0x3d065971	0.03280014
148	0xbd96f5c0	-0.07371092
149	0xbd6dc06d	-0.05804484
150	0xbb84e0de	-0.0040551266
151	0x3d8c5c75	0.06853572
152	0x3d293998	0.04131469
153	0xbd561fd4	-0.052276447
154	0xbb93421e	-0.004493966
155	0xbd410177	-0.047120538
156	0x3db60de7	0.088893704
157	0xbd6fd024	-0.058548108
158	0xbcabad25	-0.020956585
159	0x3d9924a9	0.074776955
160	0xbcbbaceb	-0.022909602
161	0x3ccd7981	0.025082352
162	0xbdbca4d3	-0.09211125
163	0xbddc14a1	-0.10746122
164	0xbd0c4fd5	-0.03425582
165	0x3d23eadd	0.040018905
166	0xbd9b61f5	-0.07587043
167	0x3d95808b	0.07299908
168	0xbd3836a1	-0.044973973
169	0xbd9a4566	-0.07532768
170	0xbc8fda21	-0.017560067
171	0x3d1aff01	0.037840847
172	0x3d477b56	0.048701607
173	0xbd68133d	-0.056658972
174	0xbd97bc6f	-0.07408988
175	0x3d71ce97	0.05903491
176	0x3d5783e3	0.05261601
177	0xbc7bdbfd	-0.0153722735
178	0xbd88a775	-0.06672565
179	0xbcf135be	-0.029444572
180	0x3d53515a	0.051591255
181	0xbb205431	-0.0024464244
182	0xbce5b4a1	-0.028040232
183	0xbdd6dc09	-0.10491187
184	0x3d0673ab	0.032825153
185	0xba8b0232	-0.0010605513
186	0xbd85e136	-0.06537096
187	0xbdaa2ecf	-0.08309709
188	0x3d49a8ef	0.049233373
189	0xbcc9fa8e	-0.024655607
190	0x3da08b1d	0.07839034
191	0x3d4251d0	0.047441304
192	0x3c9e9c3d	0.01936161
193	0xbd9fdbfa	-0.07805629
194	0x3d24b505	0.040211696
195	0x3d60227f	0.054720398
196	0xbdb287c1	-0.08717299
197	0xbcc7299c	-0.024311833
198	0x3d8a8527	0.06763678
199	0x3c5d9d22	0.013526233
200	0x3dd323cd	0.10309563
201	0x3d5eb679	0.05437324
202	0x3cd59aec	0.02607485
203	0xbd87b3bc	-0.066260785
204	0xbd36705f	-0.04454076
205	0x3d72f64a	0.05931691
206	0xbbe0b849	-0.006857906
207	0xbcf90b5a	-0.03040092
208	0xbb25aef0	-0.0025281273
209	0x3da42d6a	0.080164745
210	0x3d9ffe25	0.07812146
211	0xbd3a4b20	-0.0454818
212	0x3bea957d	0.0071589337
213	0xbd9667c3	-0.0734401
214	0xbd4c9252	-0.04994423
215	0xbd3bf08a	-0.045883693
216	0x3cf92319	0.030412244
217	0x3d698641	0.0570128
218	0xbb9e8d44	-0.0048386175
219	0x3a52a37a	0.0008035224
220	0xbd49abca	-0.049236096
221	0x3d2d9f10	0.042388022
222	0x3d9c63b1	0.07636202
223	0x3bcb9780	0.0062131286
224	0x3d92832c	0.07153925
225	0xbd000bf8	-0.031261414
226	0xbc87186b	-0.016491136
227	0xbd9b2150	-0.07574713
228	0xbd7b7bec	-0.061397478
229	0xbc66cb48	-0.014086552
230	0x3dbfd3a7	0.09366541
231	0xbd98102b	-0.07424959
232	0xbd0afdde	-0.033933513
233	0x3c8c608d	0.017135883
234	0xbd5fb8ff	-0.054619785
235	0xbc85c5b5	-0.016329626
236	0x3cbeed9d	0.023306662
237	0xbd989e3e	-0.07452057
238	0x3c6f1c00	0.014594078
239	0x3ae863c5	0.0017729929
240	0x3d9b7595	0.07590786
241	0x3ae9cbbd	0.0017837208
242	0xbc9b94ed	-0.018991912
243	0xbdb53c6f	-0.088494174
244	0xbd56bb9d	-0.052425016
245	0x3d00b085	0.031418342
246	0xbd8062e2	-0.062688604
247	0xbd23236a	-0.039828695
248	0xbc75d72c	-0.015004914
249	0x3bd2b356	0.00643007
250	0xbdab1702	-0.08353998
251	0x3d2bdc68	0.041958243
252	0xbd6b2005	-0.057403583
253	0xbcc2be82	-0.023772482
254	0x3d6e2262	0.05813826
255	0xbcf3d762	-0.029765788

bias f4 [10]
0	0xbc3ae0f5	-0.011406173
1	0xbbf5378c	-0.0074834283
2	0xbc383a90	-0.011244431
3	0xbd141dd6	-0.036161266
4	0x3c956ffa	0.018241871
5	0x3d10fa44	0.035394922
6	0xbc89a126	-0.016800474
7	0xbc4848d8	-0.012224399
8	0xbc20917d	-0.009800312
9	0x3cf4f8ec	0.029903851

weight f4 [20, 10, 5, 5, 5]
0	0x3d59e0b9	0.053192828
1	0x3d9c2345	0.07623915
2	0xbd890ff5	-0.06692497
3	0x3d875c49	0.06609399
4	0xbcbe249d	-0.023210818
5	0x3c440229	0.011963406
6	0x3d0ef4c9	0.034901414
7	0xbd707729	-0.05870739
8	0xbcf76f6a	-0.030204494
9	0x3c4ff7a7	0.012693322
10	0x3acccb17	0.001562449
11	0x3c11b37d	0.008892891
12	0xbd1027c6	-0.03519418
13	0x3d7fe6ff	0.062476154
14	0xbd024379	-0.03180263
15	0x3d151629	0.036398087
16	0xbd4b7e66	-0.04968109
17	0x3d946659	0.07246084
18	0xbc749a1a	-0.014929319
19	0x3d998bb3	0.07497349
20	0x3d8f0c05	0.069847144
21	0x3d3d0704	0.04614927
22	0x3c90e086	0.017685186
23	0x3af46e5e	0.0018648615
24	0x3d8799b1	0.06621111
25	0x3d0bba0d	0.03411298
26	0xbd60f8bd	-0.054924715
27	0x3da3affd	0.079925515
28	0x3cbf1b49	0.02332844
29	0xbd54e22e	-0.051973514
30	0x3d47f5f0	0.04881853
31	0xbd7a7772	-0.06114907
32	0x3da199c4	0.078906566
33	0x3d8e06e7	0.0693491
34	0xbd94c49c	-0.07264063
35	0xbc8ea068	-0.017410472
36	0x3d46885e	0.048469894
37	0x3b44baf4	0.003001866
38	0x3d82c751	0.06385673
39	0xbd1264c6	-0.035740636
40	0xbdbb729b	-0.09152719
41	0x3d7edd15	0.06222256
42	0x3cf41f3e	0.029800054
43	0x3d93c7bc	0.07215831
44	0x3c0feb61	0.008784146
45	0xbd333319	-0.043749902
46	0xbd335f6e	-0.04379218
47	0xbd89f1f8	-0.06735605
48	0x3cf96a12	0.030446086
49	0x3d53af37	0.05168077
50	0x3dbc76ef	0.09202372
51	0xbd9c79da	-0.07640429
52	0x3d4ed26f	0.050493654
53	0xbc233408	-0.009961136
54	0xbc2fc7d2	-0.010728793
55	0x3d8f3b76	0.06993763
56	0x3da050aa	0.078278854
57	0xbd7acea7	-0.061232235
58	0xbd62df68	-0.055388838
59	0x3d64f067	0.055893328
60	0x3cc3be61	0.02389449
61	0x3ca2b756	0.019862812
62	0x3d74bb60	0.059749007
63	0xbcdfb667	-0.027308656
64	0xbca282d5	-0.019837776
65	0x3cf6fb45	0.030149112
66	0xbd9257a7	-0.071456246
67	0xbda99da4	-0.08282021
68	0xbd3f803c	-0.046753153
69	0x3d701a53	0.058618855
70	0xbd01ca41	-0.031687025
71	0xbcf0d945	-0.029400477
72	0xbd2b8b16	-0.04188069
73	0x3cb49b54	0.022046722
74	0xbd6bfa2e	-0.057611637
75	0xbd9fc8e2	-0.07801987
76	0xbbf924c2	-0.007603259
77	0xbce00479	-0.027345883
78	0x3c1682d8	0.009186469
79	0x3d8b66e1	0.06806732
80	0x3db4a162	0.08819844
81	0x3b32651d	0.0027220913
82	0xbda6f62f	-0.081524245
83	0x3caa8c87	0.020818962
84	0x3d81216d	0.063052036
85	0x3c3512e8	0.011051871
86	0xbda7716b	-0.0817593
87	0xbd944b47	-0.072409205
88	0x3c4fc7a3	0.012681874
89	0x3d7b5e09	0.061368976
90	0xbdb8ba04	-0.09019855
91	0xbd8a0f12	-0.06741156
92	0x3d8d0724	0.068861276
93	0x3d47d0f7	0.04878327
94	0xbb5d197f	-0.003373712
95	0xbd188123	-0.03723253
96	0x3c6699ba	0.014074737
97	0xbd0dcffc	-0.034622177
98	0x3d925acb	0.07146224
99	0xbc8090dc	-0.015694074
100	0x3daa0a16	0.08302705
101	0xbd115f51	-0.03549129
102	0xbd4d2a4b	-0.05008916
103	0xbd31ff48	-0.043456346
104	0xbd41a576	-0.047276936
105	0x3d7dcc86	0.061962627
106	0x3af9aa87	0.0019048013
107	0x3d0abc3a	0.033870913
108	0xbc5e7c0e	-0.013579382
109	0xbb107af7	-0.002204595
110	0x3d8daa9c	0.06917307
111	0xbd843125	-0.06454686
112	0xbdbdc050	-0.09265196
113	0xbd79929e	-0.06093084
114	0x3c4a333d	0.012341318
115	0xbc847ad1	-0.016171845
116	0xbd89cbdc	-0.06728336
117	0x3d922b32	0.07137145
118	0xbd89fb3a	-0.06737371
119	0x3d309f35	0.04312058
120	0x3c4309f0	0.011904225
121	0xbc0bd14f	-0.00853379
122	0xbd9aa547	-0.075510554
123	0xbbf43573	-0.0074526607
124	0x3da984e4	0.082773
125	0x3c849c6a	0.016187865
126	0xbca037d9	-0.01955788
127	0x3d30de02	0.043180473
128	0x3d97a8f7	0.07405274
129	0xbc0b403c	-0.008499201
130	0x3da80761	0.082045324
131	0x3c98dd1c	0.01866012
132	0x3dafcf34	0.08584443
133	0x3dc0fc3d	0.09423111
134	0xbd6631cb	-0.05619983
135	0x3c4c80eb	0.012481908
136	0x3de4db13	0.111745976
137	0x3d0b762e	0.03404825
138	0x3d95a0c1	0.07306052
139	0xbc58cf78	-0.013233058
140	0x3dc6ee35	0.09713403
141	0x3cbb9e4a	0.022902627
142	0x3d82c33c	0.06384894
143	0x3da3733a	0.07980962
144	0x3d48c903	0.049019825
145	0x3db2e1d7	0.08734482
146	0x3d5da11d	0.054108728
147	0x3d7e851b	0.062138658
148	0xbcb330e4	-0.021873899
149	0x3d4f3f06	0.050597213
150	0x3dcd7fbd	0.1003413
151	0x3cffd486	0.031229269
152	0xbd7544ce	-0.05988007
153	0xbcabd14f	-0.02097383
154	0x3c26b5e8	0.010175206
155	0xbd33e234	-0.043916896
156	0xbd16d544	-0.03682448
157	0x3d2008b4	0.0390708
158	0x3d0d0280	0.034426212
159	0x3d2bdfa1	0.041961316
160	0x3bccb5a6	0.00624724
161	0xbcdef45d	-0.02721613
162	0x3d989722	0.07450701
163	0xbd40ddf1	-0.04708666
164	0x3c8bb14b	0.017052313
165	0xbd23528e	-0.039873652
166	0x3d60994d	0.0548337
167	0x3c18995f	0.00931391
168	0xbd18c8ea	-0.03730098
169	0x3d8d2074	0.068909556
170	0x3d98e429	0.07465393
171	0x3da9fdf0	0.08300388
172	0xbd805735	-0.062666334
173	0x3d9cafd4	0.07650724
174	0x3d08f1ed	0.033433843
175	0xbc34b176	-0.011028638
176	0xbcb2bb48	-0.021817818
177	0x3d869f0d	0.06573305
178	0xbc862d83	-0.016379124
179	0x3d05210b	0.032502215
180	0x3ddae899	0.10688896
181	0x3c50422e	0.012711091
182	0xbca8447f	-0.020540474
183	0x3c5a5c56	0.013327679
184	0x3cd87f03	0.026427751
185	0x3da4b8ed	0.08043084
186	0x3d89f36e	0.06735884
187	0x3dd30aa6	0.103047654
188	0x3d7fbbb6	0.062434874
189	0xbd1a5212	-0.037675925
190	0x3da5f156	0.08102672
191	0xbd5058c4	-0.050865903
192	0xbd0f3e4f	-0.03497153
193	0x3df7343c	0.1207051
194	0x3ce633ba	0.028100837
195	0x3d04f8ba	0.032463767
196	0x3daaf84a	0.08348139
197	0xbb09cf33	-0.0021028041
198	0x3de0e8dd	0.10981915
199	0x3d51952b	0.05116765
200	0x3d29538c	0.041339442
201	0x3da57d8c	0.08080587
202	0xbd3cd9e0	-0.04610622
203	0x3d072a11	0.032999102
204	0xbd659fff	-0.056060787
205	0xbd57d14a	-0.052689828
206	0x3db58e7d	0.08865068
207	0xbd617fa7	-0.05505338
208	0x3dafea02	0.08589555
209	0xbd7353b4	-0.059405997
210	0x3d2ad45a	0.04170642
211	0x3d9af075	0.07565395
212	0x3d9bcda4	0.07607582
213	0xbccd7f7b	-0.025085201
214	0x3d3cc980	0.046090603
215	0xbba75bea	-0.0051073926
216	0x3ce738c7	0.028225316
217	0xbbc25830	-0.005930923
218	0x3d995a5d	0.074879386
219	0xbbb7c200	-0.0056078434
220	0xba8d683a	-0.0010788508
221	0x3d93a15b	0.072085105
222	0xbcc6696e	-0.024220195
223	0x3d9e0df5	0.07717506
224	0xba11ed4a	-0.000556667
225	0x3d8dcd8e	0.06923972
226	0x3d10feed	0.035399366
227	0x3d856c6b	0.0651482
228	0xbd8bff34	-0.068357855
229	0xbbdd0b9e	-0.0067457696
230	0xbd19539d	-0.037433255
231	0x3d1acb85	0.037791748
232	0x3dd2e5cc	0.102977365
233	0xbd832952	-0.064043656
234	0x3dba47b6	0.09095709
235	0xbd87e5d0	-0.0663563
236	0x3cf67174	0.030083396
237	0x3d9d8af7	0.07692521
238	0xbba20049	-0.0049438816
239	0x3c13377c	0.0089853965
240	0xbd759e50	-0.05996543
241	0xbcdca69a	-0.02693491
242	0x3d9c7508	0.076395094
243	0x3d30f8f4	0.04320617
244	0xbbdadf4c	-0.006679451
245	0x3cb0ad0b	0.021566888
246	0xbd5b580a	-0.053550757
247	0xbc35cd54	-0.011096317
248	0x3dc7a88c	0.09748945
249	0x3c50be9f	0.01274076
250	0xbc7eef34	-0.01555996
251	0x3cc617a2	0.02418119
252	0xbcaff1ae	-0.021477547
253	0x3da27fd7	0.0793454
254	0xbd6e82a8	-0.058230072
255	0x3d66198d	0.05617671

bias f4 [20]
0	0xbc3ef1a4	-0.011654291
1	0xbcccecb0	-0.025015205
2	0x3ce07096	0.027397435
3	0xb77ba676	-1.4999523e-05
4	0xbc1a7c11	-0.009428994
5	0x3c73d166	0.014881467
6	0xbbef4b1b	-0.0073026544
7	0xbc9022b6	-0.017594676
8	0x3bc45b2a	0.005992313
9	0x3c12f55d	0.008969632
10	0xbc39327b	-0.011303539
11	0x3aa36143	0.0012464899
12	0x3cbda97b	0.023152104
13	0xbbfd6668	-0.007733155
14	0x3ca1ddc4	0.019759066
15	0x3b994d49	0.0046784026
16	0xbbfb5721	-0.0076702987
17	0x3c896890	0.016773492
18	0xbc9e2539	-0.019304859
19	0x3c14b174	0.009075511

weight f4 [50, 20, 3, 3, 3]
0	0x3e2b6f9e	0.16741797
1	0xbd9c4516	-0.076303646
2	0xbe0b108d	-0.13580532
3	0x3e3bed36	0.18352208
4	0x3df273e4	0.11838511
5	0xbe1928fc	-0.1495704
6	0x3d27a767	0.04093113
7	0x3d9ec901	0.07753182
8	0xbe2662be	-0.16248605
9	0x3dcda24f	0.100407235
10	0xbd4fee0c	-0.05076413
11	0x3e37704c	0.17913932
12	0x3daca3fd	0.08429716
13	0xbdcd0815	-0.10011307
14	0xbda56e98	-0.08077735
15	0x3e05e550	0.13075757
16	0xbdd554f1	-0.10416592
17	0xbd72c78f	-0.059272345
18	0x3e2ba0f3	0.16760616
19	0xbdafb9cb	-0.08580359
20	0xbe1e7bc9	-0.15476908
21	0x3dab8aa7	0.08376055
22	0x3e1b9bc0	0.15196133
23	0xbe001242	-0.12506965
24	0xbe25c669	-0.16188969
25	0xbe40392f	-0.18771814
26	0xbdf9ce15	-0.1219751
27	0x3d70ba7c	0.058771595
28	0xbdade20e	-0.08490382
29	0xbdc41bd3	-0.095756195
30	0xbe3d0fc2	-0.18463042
31	0xbca337c2	-0.019924048
32	0xbcaba7ff	-0.02095413
33	0x3e451f95	0.19250329
34	0xbdc54aea	-0.09633429
35	0xbdd22f3f	-0.10262918
36	0xbdb2a627	-0.08723097
37	0x3deef14e	0.11667119
38	0x3e0938ff	0.13400649
39	0xbdc63456	-0.09677951
40	0xbd18bec7	-0.037291314
41	0xbd8555e4	-0.06510523
42	0xbe05e0b7	-0.13074003
43	0x3df657a6	0.12028436
44	0x3e485295	0.19562753
45	0xbdefcb79	-0.11708731
46	0x3e0594e4	0.13045079
47	0x3c8063b6	0.015672546
48	0xbdaa09df	-0.08302664
49	0x3d8c1914	0.06840721
50	0xbe3ce9be	-0.1844854
51	0x3e0a8476	0.13527092
52	0x3cf788d5	0.030216614
53	0xbcfbbf2a	-0.030730803
54	0xbd9c78b4	-0.0764021
55	0x3d9a8021	0.0754397
56	0xbda24214	-0.0792276
57	0xbd26fdb1	-0.040769283
58	0x3e1cb103	0.153019
59	0xbca214aa	-0.019785244
60	0x39e9f3b0	0.00044622784
61	0xbe243a5c	-0.16037887
62	0x3df4feac	0.11962637
63	0x3d3f1bf0	0.046657503
64	0xbe048237	-0.12940298
65	0xbdebc7a9	-0.115126915
66	0x3d12be60	0.035826087
67	0xbda81404	-0.08206943
68	0x3c3e589d	0.011617807
69	0x3e45dcdd	0.19322534
70	0x3cd1836b	0.02557536
71	0x3d8a9a1e	0.06767677
72	0xbe07282b	-0.13198917
73	0x3e1bf61a	0.15230599
74	0x3e03ab9d	0.12858434
75	0xbd91c584	-0.07117751
76	0x3d3c9df4	0.046049073
77	0x3e27d034	0.16388017
78	0x3d772bce	0.06034451
79	0xbcfccb13	-0.030858552
80	0xbdb53f3e	-0.08849953
81	0xbe077763	-0.13229136
82	0xbe1667c6	-0.14688024
83	0xbe1b2e81	-0.15154459
84	0x3cf9622c	0.03044232
85	0xbd9d6bb0	-0.076865554
86	0xbcdd7b4d	-0.027036333
87	0xbe2a15ab	-0.16609828
88	0x3d65166c	0.055929586
89	0x3db70a7e	0.08937548
90	0xbd6bba9e	-0.05755102
91	0x3bf33d65	0.0074230903
92	0x3bed250d	0.007237083
93	0x3dfeb2e8	0.124364674
94	0x3d281dfd	0.041044224
95	0xbe124191	-0.14282824
96	0x3dd77352	0.105200425
97	0xbe238f75	-0.15972693
98	0x3dfb2ad9	0.12264032
99	0x3d4143ae	0.047183685
100	0xbd368450	-0.044559777
101	0x3e158565	0.14601667
102	0xbcc1a212	-0.023636851
103	0xbd9e5cc1	-0.07732535
104	0xbd11c255	-0.03558572
105	0x3c1e8ac8	0.009676643
106	0xbd687777	-0.056754556
107	0xbd0b1138	-0.033951968
108	0x3da1be4b	0.07897624
109	0xbd4038cb	-0.046929162
110	0xbdf4c73e	-0.11952065
111	0xbd9a2b70	-0.07527816
112	0xbd4be44e	-0.049778275
113	0xbe1ac3c7	-0.15113746
114	0xbc90f61a	-0.017695475
115	0xbe34f484	-0.176714
116	0xbd9e5994	-0.077319294
117	0xbe10efca	-0.14153972
118	0x3e16fa4f	0.14743923
119	0xbde627a1	-0.11238027
120	0xbe23f932	-0.16013029
121	0xbe19a297	-0.1500343
122	0xbd907dfd	-0.0705528
123	0xbdaa1ee5	-0.08306674
124	0x3e0e2cbb	0.13884251
125	0x3e35b6a9	0.1774546
126	0x3d512efe	0.051070206
127	0x3cf8896b	0.030338963
128	0x3c8d28a5	0.017231295
129	0x3e108a6c	0.14115304
130	0x3def93aa	0.116980866
131	0x3e3b2ab1	0.18278004
132	0xbe0ce890	-0.1376059
133	0x3dab6a46	0.083698794
134	0xbdd4f2ed	-0.10397897
135	0xbb4e2ef4	-0.0031461092
136	0x3dca703c	0.09884688
137	0xbcf36bb8	-0.02971445
138	0xbd0898df	-0.033348914
139	0xbd99acdd	-0.07503674
140	0x3e04f130	0.1298263
141	0x3e0bc5e8	0.13649714
142	0xbe0e0abb	-0.13871281
143	0x3c8696ac	0.016429268
144	0x3dc4aa0d	0.09602747
145	0xbe1bde3a	-0.15221491
146	0x3de85249	0.1134382
147	0x3dde782b	0.10862764
148	0xbdc21a2a	-0.09477647
149	0x3d5c5a5a	0.053797103
150	0x3ddde7ea	0.1083525
151	0x3dc0a4a7	0.09406405
152	0xbad257f1	-0.0016047937
153	0xbd7bd3b6	-0.0614812
154	0xbe0ba095	-0.13635476
155	0xbdfef743	-0.12449505
156	0xbdc02f2a	-0.09383996
157	0x3deba306	0.11505704
158	0xbde59986	-0.11210923
159	0xbe182868	-0.14859164
160	0xbe0f155a	-0.13972989
161	0xbe008b91	-0.1255324
162	0xbc6b1e7c	-0.01435053
163	0x3d6ffc83	0.058590423
164	0x3adc7731	0.001682019
165	0x3dd77736	0.105207846
166	0xbdc99326	-0.098425195
167	0x3c828264	0.015931316
168	0xbe3a5d61	-0.18199684
169	0x3c6bf18c	0.014400851
170	0xbd40660e	-0.046972327
171	0x3b3c496f	0.0028730293
172	0xbdb959bf	-0.09050321
173	0xbd610b45	-0.054942388
174	0xbdeaddc8	-0.11468083
175	0xbe355698	-0.17708814
176	0x3e0583c1	0.13038541
177	0x3e01501c	0.12628216
178	0xbdd52320	-0.1040709
179	0x3e25b3dc	0.16181892
180	0x3d412914	0.047158316
181	0x3e3945ec	0.1809308
182	0xbc93ed09	-0.018057363
183	0x3d6b3e7e	0.057432644
184	0xbe09e96b	-0.13467948
185	0x3db19e2c	0.08672747
186	0x3b4a88b7	0.0030904242
187	0xbdb4ffdb	-0.08837863
188	0x3c846d0b	0.016165277
189	0xbe483547	-0.19551574
190	0xbd900a0a	-0.07033165
191	0x3e0dfb29	0.13865341
192	0xbd71dcf0	-0.059048593
193	0xbe091e18	-0.13390386
194	0x3da6db8d	0.08147345
195	0xbe3f74e5	-0.18696935
196	0x3d0c394d	0.034234334
197	0x3e1b9954	0.15195209
198	0xbe20f2ed	-0.15717669
199	0xbe26b407	-0.16279612
200	0xbcc0ae3e	-0.023520585
201	0x3dad5db7	0.0846514
202	0xbdd78130	-0.105226874
203	0x3df5151c	0.11966917
204	0xbe07a64b	-0.1324703
205	0x3e0c6e08	0.13713849
206	0xbe151a6f	-0.14560865
207	0xbe29a951	-0.16568495
208	0x3de00e37	0.10940211
209	0xbe1107da	-0.14163151
210	0xbe0a5a1b	-0.13510935
211	0x3dca29f8	0.09871286
212	0x3daf1c08	0.085502684
213	0x3df40d07	0.11916547
214	0xbd4b0458	-0.04956469
215	0xbd64cf6f	-0.055861887
216	0x3e1f0420	0.15528917
217	0xbb1bfee2	-0.0023803045
218	0xbc9b9aa3	-0.018994635
219	0xbdb6c5af	-0.08924424
220	0x3da79f6b	0.081847034
221	0x3d3130b9	0.043259356
222	0xbe136203	-0.14392857
223	0x3dc8bf1b	0.098020755
224	0xbe09bd39	-0.13451089
225	0xbd68ac77	-0.0568051
226	0xbdeda382	-0.11603452
227	0x3c37af0c	0.011211168
228	0x3e11b1da	0.14228001
229	0x3e128c81	0.1431141
230	0x3da69181	0.081332214
231	0xbca2a827	-0.019855572
232	0xbd904fb4	-0.07046452
233	0xbc9e3f93	-0.019317424
234	0xbe0e8a38	-0.13919914
235	0x3e2dd12f	0.16974328
236	0xbdae4a97	-0.08510321
237	0x3b008414	0.0019609975
238	0x3d8ae660	0.06782222
239	0x3d0c70b4	0.03428717
240	0xbd9b33e5	-0.075782575
241	0x3cced649	0.025248663
242	0xbe330b0a	-0.1748468
243	0xbe1587c1	-0.14602567
244	0x3d1391d6	0.036027752
245	0xbda003b0	-0.07813203
246	0xbda9e50c	-0.0829564
247	0xbdeef84d	-0.11668453
248	0x3d15efaa	0.036605515
249	0xbd806abc	-0.06270358
250	0x3dee7be5	0.11644725
251	0xbd9c1731	-0.07621611
252	0x3cbb5411	0.022867234
253	0xbda97aa4	-0.08275345
254	0xbdb11e08	-0.08648306
255	0xbdca6754	-0.098829895

bias f4 [50]
0	0x3d061d67	0.032742884
1	0xbc885aff	-0.016644953
2	0xbcc900ff	-0.024536608
3	0xbd3f993f	-0.046777006
4	0x3cada411	0.021196397
5	0x3d5d80be	0.054077856
6	0x3c0525b2	0.008126663
7	0xbc8f0727	-0.017459465
8	0x3dcdcf6c	0.10049328
9	0xbd6a9fd9	-0.05728135
10	0xbd15461f	-0.036443826
11	0x3db63d36	0.08898394
12	0x3d25187c	0.040306553
13	0x3d829e97	0.06377905
14	0x3d962171	0.07330597
15	0xbcee7ee0	-0.029113233
16	0xbd2d8a84	-0.042368427
17	0x3c2600ec	0.010132056
18	0xbc50f7f9	-0.012754434
19	0xbb84341b	-0.004034532
20	0x3cacadc7	0.021078957
21	0x3dfa1a85	0.122120894
22	0xbb954ec5	-0.004556509
23	0x3c8c536f	0.017129628
24	0x3c117bfc	0.008879658
25	0xbc7a4d37	-0.0152771985
26	0x3c924d9d	0.017859275
27	0x3bc103af	0.0058903317
28	0xbcfdded0	-0.030990034
29	0xbc63b78f	-0.013898744
30	0x3c9b9332	0.018991087
31	0x3d2cf331	0.042224113
32	0xbce895ec	-0.0283918
33	0x3c1ede5b	0.009696568
34	0x3a520fd1	0.0008013221
35	0x3bb50cfa	0.0055252286
36	0xbd8dbe0d	-0.06921015
37	0x3ceed2f2	0.029153321
38	0xbc675ccd	-0.0141212465
39	0xbbc7474b	-0.006081497
40	0xbba0a576	-0.004902537
41	0x3c37aee5	0.011211132
42	0x3d6e1e52	0.058134384
43	0x3cb072b4	0.02153907
44	0x3d05e730	0.03269118
45	0x3c17e26a	0.00927029
46	0xbd38ed48	-0.045148164
47	0xbd30b42a	-0.043140568
48	0xbbafedcf	-0.005368925
49	0x3c4363ec	0.011925679

weight f4 [2, 50, 1, 1, 1]
0	0x3eadf72f	0.3397765
1	0xbe889e1b	-0.26683125
2	0xbe1ea64a	-0.15493122
3	0xbf4b5156	-0.79420984
4	0x3de00f99	0.10940475
5	0x3f0a3a10	0.53994846
6	0xbf2d7879	-0.6776195
7	0xbf29cec0	-0.663311
8	0x3f8c4ef4	1.0961595
9	0x3f2c0684	0.6719744
10	0xbf403eec	-0.7509601
11	0x3f3a0ad0	0.7267275
12	0x3eef32d5	0.4671847
13	0x3f80471b	1.00217
14	0xbe430b30	-0.19047236
15	0xbf0f0f30	-0.5588255
16	0xbf54a0b2	-0.830577
17	0xbe876e6b	-0.2645143
18	0x3e6016e2	0.21883729
19	0x3ea4dbfb	0.32199082
20	0xbdaa48c8	-0.08314663
21	0x3f8b9fa6	1.0908096
22	0xbf5237f2	-0.82116616
23	0x3ebbce19	0.36680678
24	0x3e040edc	0.12896293
25	0xbe99c9bc	-0.30036724
26	0xbe60a6df	-0.21938656
27	0xbf0f6e5e	-0.5602778
28	0x3f565b35	0.8373292
29	0x3ef1f478	0.47256827
30	0x3e8e5873	0.27801856
31	0x3f102524	0.5630667
32	0xbddfb469	-0.109230824
33	0xbe5819d1	-0.21103598
34	0x3f28e763	0.6597807
35	0x3e751bf3	0.23936443
36	0xbf264a11	-0.64956766
37	0xbecd269e	-0.40068525
38	0xbf700b00	-0.93766785
39	0x3e0a4735	0.13503726
40	0xbf5a9272	-0.8537971
41	0x3f031cc4	0.5121577
42	0xbd84410d	-0.0645772
43	0x3f0d6793	0.55236167
44	0xbdd41329	-0.10355217
45	0x3f395eaa	0.7241007
46	0xbe956b52	-0.2918344
47	0xbe309f93	-0.17248373
48	0x3e64f802	0.22360232
49	0x3e4c1441	0.19929601
50	0xbf3b8f89	-0.7326589
51	0xbd68c24f	-0.056825932
52	0xbdda9740	-0.1067338
53	0xbdf6e8c6	-0.12056117
54	0x3f04d4d8	0.51887274
55	0xbc992dab	-0.018698534
56	0x3f36d4d6	0.7141851
57	0x3eb6438a	0.35598403
58	0xbf5a4f88	-0.85277605
59	0x3f699a10	0.91250706
60	0x3f535059	0.82544476
61	0xbf0b3748	-0.5438123
62	0xbf288af3	-0.6583702
63	0x3e854b02	0.2603379
64	0xbf669845	-0.90076095
65	0x3f3d0f11	0.73851115
66	0x3f495bde	0.78655803
67	0xbf21d7b9	-0.6321979
68	0xbdf97d3b	-0.12182089
69	0x3f455a2a	0.77090704
70	0xbe8962b5	-0.2683312
71	0xbf242a7f	-0.64127344
72	0xbf5d5750	-0.86461353
73	0x3c829573	0.015940404
74	0xbefda0c8	-0.4953673
75	0xbf242157	-0.6411337
76	0xbf3f893e	-0.7481879
77	0xbf59dbd5	-0.8510106
78	0x3f033e1e	0.5126666
79	0x3e74aff2	0.23895243
80	0xbd901018	-0.0703432
81	0xbc433265	-0.01191387
82	0x3eba18e8	0.36347127
83	0x3d886c2f	0.066612594
84	0x3e939bd1	0.28829816
85	0xbeb21f51	-0.34789518
86	0x3e884d84	0.2662164
87	0xbf3ba023	-0.73291224
88	0xbf5721a7	-0.84035724
89	0x3e4ded91	0.20110156
90	0x3e1f986d	0.1558549
91	0x3f1e2f89	0.6179128
92	0xbf6eaa87	-0.93228954
93	0xbf087a4e	-0.5331162
94	0xbedb74ae	-0.42862457
95	0xbf614c29	-0.88006836
96	0x3f7ad964	0.9798796
97	0x3f605c7d	0.87641126
98	0xbf154a43	-0.5831644
99	0xbf74df07	-0.9565281

bias f4 [2]
0	0x3e1e8dd7	0.15483795
1	0xbe5dc5dd	-0.2165751

weight f4 [5]
0	0x3f747def	0.9550466
1	0x3f89c3bb	1.0762857
2	0x3f811f8d	1.0087754
3	0x3f7ed4a6	0.99543226
4	0x3f75d88b	0.96033543

bias f4 [5]
0	0xbd1bba91	-0.03801972
1	0x3b9e95d0	0.0048396364
2	0xbbbf66c9	-0.0058411104
3	0xbcab7433	-0.020929432
4	0xbd0a84e3	-0.033818137

running_mean f4 [5]
0	0x4306d7b0	134.84253
1	0x426ba1d9	58.908054
2	0xc28e6908	-71.20514
3	0x41fe7206	31.805676
4	0x4224a486	41.160667

running_var f4 [5]
0	0x443907be	740.121
1	0x43f25143	484.63486
2	0x43e7fd83	463.98056
3	0x439c2320	312.2744
4	0x43deec2d	445.84512

weight f4 [10]
0	0x3f8056c6	1.0026481
1	0x3f8873b5	1.0660311
2	0x3f8277fe	1.0192869
3	0x3f7ea5cf	0.99471754
4	0x3f7068fb	0.9391019
5	0x3f82baf8	1.0213308
6	0x3f7fe3d3	0.9995701
7	0x3f786bd6	0.97039545
8	0x3f7f9f47	0.9985241
9	0x3f7b27a0	0.9810734

bias f4 [10]
0	0x3cbce5d0	0.023058802
1	0xbc8e4b55	-0.017369905
2	0x3d0464c7	0.03232267
3	0x3c46022c	0.012085479
4	0xbd8bfb2a	-0.06835015
5	0x3c4ac88a	0.012376914
6	0x3ce82981	0.028340103
7	0xbce644e1	-0.028109016
8	0x3ca64ebf	0.020301221
9	0xbd151015	-0.03639229

running_mean f4 [10]
0	0xbe8b368f	-0.27190062
1	0x3f16be52	0.58884156
2	0xbe8ed2e3	-0.2789527
3	0xbf900132	-1.1250365
4	0x3f9c9e60	1.2235832
5	0x3d8653b7	0.06558936
6	0xbfc3472c	-1.5256095
7	0x3f688d2f	0.9084043
8	0xbfbc903c	-1.4731517
9	0x3f5c9e24	0.86178803

running_var f4 [10]
0	0x3fc3e990	1.5305653
1	0x3fb85b77	1.4402913
2	0x3f4d197d	0.8011702
3	0x3fe3f4dc	1.78091
4	0x401433e5	2.3156674
5	0x3f69b658	0.9129386
6	0x40592aed	3.393245
7	0x3fe9f071	1.8276502
8	0x403f0cb1	2.9851496
9	0x40307178	2.7569256

weight f4 [20]
0	0x3f5d2ff2	0.86401284
1	0x3f8bb1a0	1.0913582
2	0x3f8a04b9	1.0782691
3	0x3f80f8b5	1.0075899
4	0x3f7cd5d8	0.987638
5	0x3f74b5f7	0.95590156
6	0x3f81ef81	1.0151216
7	0x3f81a52c	1.0128531
8	0x3f7d8c2d	0.99042016
9	0x3f916b81	1.1360933
10	0x3f6a3a76	0.91495454
11	0x3f73f82f	0.95300573
12	0x3f81de3b	1.0145944
13	0x3f598358	0.8496604
14	0x3f8aa4c9	1.0831538
15	0x3f87be34	1.060492
16	0x3f88dbd7	1.069209
17	0x3f87c63c	1.0607371
18	0x3f850c9e	1.0394475
19	0x3f72e17c	0.9487531

bias f4 [20]
0	0xbe034d87	-0.12822543
1	0x3e596e8f	0.21233581
2	0x3e44c795	0.1921676
3	0x3ccea809	0.02522661
4	0x3c7b3278	0.015331857
5	0xbe0b4150	-0.13599133
6	0x3d30cbd7	0.043163147
7	0xbda4759b	-0.08030244
8	0x3b599cec	0.0033205105
9	0x3e9a0276	0.30080003
10	0xbdbd4e87	-0.092434935
11	0xbd1a7460	-0.03770864
12	0x3d807fd6	0.06274383
13	0xbdf4a5cd	-0.119456865
14	0x3e60533a	0.21906748
15	0x3dd726a1	0.10505415
16	0x3e045ba5	0.12925585
17	0x3e322a7b	0.17399018
18	0x3daea67d	0.08527849
19	0xbde43db2	-0.1114458

running_mean f4 [20]
0	0x400f6bac	2.2409468
1	0xbf380f84	-0.71898675
2	0xbf4f8ba0	-0.81072426
3	0xbbb52792	-0.005528399
4	0xbf2bbb17	-0.6708235
5	0x3fea6211	1.8311177
6	0xbdbef778	-0.09324545
7	0x3ff4fd22	1.913975
8	0x3cfce4b2	0.03087077
9	0xbee0c21e	-0.438981
10	0x3fd544ce	1.6661623
11	0xbf3dcc9f	-0.7414035
12	0xbeb62473	-0.35574684
13	0x3f561f3e	0.8364142
14	0xbf1b4407	-0.60650676
15	0x3f167959	0.5877891
16	0xbd83e0b9	-0.06439347
17	0xc0064f1a	-2.098578
18	0xbef42efd	-0.476921
19	0x3ff03abd	1.8767926

running_var f4 [20]
0	0x41b3ee59	22.49138
1	0x40375687	2.8646562
2	0x40123cfa	2.2849717
3	0x401685d5	2.3519185
4	0x404301f8	3.0469952
5	0x417da318	15.852318
6	0x402b1c15	2.673589
7	0x41c69e58	24.827316
8	0x4030a878	2.7602825
9	0x40531897	3.2983758
10	0x41a1ba2d	20.215906
11	0x4062547d	3.5364068
12	0x400ed6a6	2.231851
13	0x412f853f	10.970031
14	0x40242d01	2.5652468
15	0x400fdd6c	2.2478895
16	0x40311f29	2.7675269
17	0x4051548d	3.2707856
18	0x403225d8	2.7835598
19	0x41aca43d	21.580194

weight f4 [50]
0	0x3f800000	1.0
1	0x3f800000	1.0
2	0x3f800000	1.0
3	0x3f800000	1.0
4	0x3f800000	1.0
5	0x3f800000	1.0
6	0x3f800000	1.0
7	0x3f800000	1.0
8	0x3f800000	1.0
9	0x3f800000	1.0
10	0x3f800000	1.0
11	0x3f800000	1.0
12	0x3f800000	1.0
13	0x3f800000	1.0
14	0x3f800000	1.0
15	0x3f800000	1.0
16	0x3f800000	1.0
17	0x3f800000	1.0
18	0x3f800000	1.0
19	0x3f800000	1.0
20	0x3f800000	1.0
21	0x3f800000	1.0
22	0x3f800000	1.0
23	0x3f800000	1.0
24	0x3f800000	1.0
25	0x3f800000	1.0
26	0x3f800000	1.0
27	0x3f800000	1.0
28	0x3f800000	1.0
29	0x3f800000	1.0
30	0x3f800000	1.0
31	0x3f800000	1.0
32	0x3f800000	1.0
33	0x3f800000	1.0
34	0x3f800000	1.0
35	0x3f800000	1.0
36	0x3f800000	1.0
37	0x3f800000	1.0
38	0x3f800000	1.0
39	0x3f800000	1.0
40	0x3f800000	1.0
41	0x3f800000	1.0
42	0x3f800000	1.0
43	0x3f800000	1.0
44	0x3f800000	1.0
45	0x3f800000	1.0
46	0x3f800000	1.0
47	0x3f800000	1.0
48	0x3f800000	1.0
49	0x3f800000	1.0

bias f4 [50]
0	0x00000000	0.0
1	0x00000000	0.0
2	0x00000000	0.0
3	0x00000000	0.0
4	0x00000000	0.0
5	0x00000000	0.0
6	0x00000000	0.0
7	0x00000000	0.0
8	0x00000000	0.0
9	0x00000000	0.0
10	0x00000000	0.0
11	0x00000000	0.0
12	0x00000000	0.0
13	0x00000000	0.0
14	0x00000000	0.0
15	0x00000000	0.0
16	0x00000000	0.0
17	0x00000000	0.0
18	0x00000000	0.0
19	0x00000000	0.0
20	0x00000000	0.0
21	0x00000000	0.0
22	0x00000000	0.0
23	0x00000000	0.0
24	0x00000000	0.0
25	0x00000000	0.0
26	0x00000000	0.0
27	0x00000000	0.0
28	0x00000000	0.0
29	0x00000000	0.0
30	0x00000000	0.0
31	0x00000000	0.0
32	0x00000000	0.0
33	0x00000000	0.0
34	0x00000000	0.0
35	0x00000000	0.0
36	0x00000000	0.0
37	0x00000000	0.0
38	0x00000000	0.0
39	0x00000000	0.0
40	0x00000000	0.0
41	0x00000000	0.0
42	0x00000000	0.0
43	0x00000000	0.0
44	0x00000000	0.0
45	0x00000000	0.0
46	0x00000000	0.0
47	0x00000000	0.0
48	0x00000000	0.0
49	0x00000000	0.0

running_mean f4 [50]
0	0x00000000	0.0
1	0x00000000	0.0
2	0x00000000	0.0
3	0x00000000	0.0
4	0x00000000	0.0
5	0x00000000	0.0
6	0x00000000	0.0
7	0x00000000	0.0
8	0x00000000	0.0
9	0x00000000	0.0
10	0x00000000	0.0
11	0x00000000	0.0
12	0x00000000	0.0
13	0x00000000	0.0
14	0x00000000	0.0
15	0x00000000	0.0
16	0x00000000	0.0
17	0x00000000	0.0
18	0x00000000	0.0
19	0x00000000	0.0
20	0x00000000	0.0
21	0x00000000	0.0
22	0x00000000	0.0
23	0x00000000	0.0
24	0x00000000	0.0
25	0x00000000	0.0
26	0x00000000	0.0
27	0x00000000	0.0
28	0x00000000	0.0
29	0x00000000	0.0
30	0x00000000	0.0
31	0x00000000	0.0
32	0x00000000	0.0
33	0x00000000	0.0
34	0x00000000	0.0
35	0x00000000	0.0
36	0x00000000	0.0
37	0x00000000	0.0
38	0x00000000	0.0
39	0x00000000	0.0
40	0x00000000	0.0
41	0x00000000	0.0
42	0x00000000	0.0
43	0x00000000	0.0
44	0x00000000	0.0
45	0x00000000	0.0
46	0x00000000	0.0
47	0x00000000	0.0
48	0x00000000	0.0
49	0x00000000	0.0

running_var f4 [50]
0	0x3f800000	1.0
1	0x3f800000	1.0
2	0x3f800000	1.0
3	0x3f800000	1.0
4	0x3f800000	1.0
5	0x3f800000	1.0
6	0x3f800000	1.0
7	0x3f800000	1.0
8	0x3f800000	1.0
9	0x3f800000	1.0
10	0x3f800000	1.0
11	0x3f800000	1.0
12	0x3f800000	1.0
13	0x3f800000	1.0
14	0x3f800000	1.0
15	0x3f800000	1.0
16	0x3f800000	1.0
17	0x3f800000	1.0
18	0x3f800000	1.0
19	0x3f800000	1.0
20	0x3f800000	1.0
21	0x3f800000	1.0
22	0x3f800000	1.0
23	0x3f800000	1.0
24	0x3f800000	1.0
25	0x3f800000	1.0
26	0x3f800000	1.0
27	0x3f800000	1.0
28	0x3f800000	1.0
29	0x3f800000	1.0
30	0x3f800000	1.0
31	0x3f800000	1.0
32	0x3f800000	1.0
33	0x3f800000	1.0
34	0x3f800000	1.0
35	0x3f800000	1.0
36	0x3f800000	1.0
37	0x3f800000	1.0
38	0x3f800000	1.0
39	0x3f800000	1.0
40	0x3f800000	1.0
41	0x3f800000	1.0
42	0x3f800000	1.0
43	0x3f800000	1.0
44	0x3f800000	1.0
45	0x3f800000	1.0
46	0x3f800000	1.0
47	0x3f800000	1.0
48	0x3f800000	1.0
49	0x3f800000	1.0
