models/deepvesselnet4.model (torch_old, 243940 bytes, 26 tensors)

weight f4 [5, 1, 3, 3, 3]
0.026215056 0.0083431555 -0.099684566 0.13990271 0.2000877 -0.13420545 -0.047489546 0.17334616
0.035091985 0.1368927 -0.04138961 -0.09840416 -0.022674879 0.16609631 -0.07347393 -0.01805763
-0.011846584 0.057714656 -0.11301631 0.066021286 0.122521825 -0.08403728 0.036469176 -0.08073006
-0.14933424 0.10849301 -0.11492439 -0.12621568 -0.00849128 -0.14716114 0.045481663 0.008432087
0.036728583 0.09577152 -0.10894711 -0.16030692 -0.17292304 -0.010672351 0.00750322 -0.084247336
0.038858756 -0.005005902 0.032709137 -0.06201154 0.14656016 0.10432249 0.03762051 -0.079533465
-0.008734184 0.1485707 -0.14769666 0.045300122 0.12006178 -0.17683335 -0.054838534 -0.014658173
0.13880523 0.055215534 0.2068051 0.09913681 0.13883413 0.08782924 0.104162775 -0.067899264
-0.059325863 0.049329154 0.017341461 0.2552967 0.05401611 0.084863536 0.19669503 0.12642197
0.0431186 -0.066093035 -0.12984172 -0.01282054 0.094189785 -0.067476295 -0.034231987 -0.05678505
0.08345069 -0.15046303 -0.0067345765 -0.18246348 -0.070168994 0.25468487 0.11100217 0.036650475
-0.08103811 -0.019953215 0.15365626 0.17481175 0.09201979 0.14864482 0.057874512 0.038078528
-0.085776895 -0.005189436 0.084318936 0.018741164 0.03396018 -0.14180154 0.06817703 0.12307216
0.0695557 -0.06758595 0.017888553 -0.064112484 -0.18353896 0.08986784 0.0003419516 -0.051219307
0.084866926 -0.15646541 0.010518125 -0.04807274 -0.107251056 0.021900536 0.06372464 0.0053926455
0.14029296 -0.11766161 0.12787038 -0.14524001 0.098199666 0.15657906 0.0015656033 -0.13205642
-0.028062569 -0.0537014 -0.114472166 -0.051287938 -0.13098948 0.1522517 -0.06658347
00000000: f5c0 d63c bbb1 083c 6c27 ccbd a842 0f3e
00000010: cae3 4c3e 276d 09be 6684 42bd a881 313e
00000020: 9dbc 0f3d 9a2d 0c3e 2788 29bd 1f88 c9bd
00000030: abc0 b9bc 2715 2a3e 8079 96bd 98ed 93bc
00000040: 2d18 42bc 3466 6c3d 1875 e7bd 2b36 873d
00000050: b9ec fa3d bd1b acbd b460 153d cd55 a5bd
00000060: 13eb 18be 9531 de3d 7b5d ebbd af3e 01be
00000070: 021f 0bbc 69b1 16be fb4a 3a3d bc26 0a3c
00000080: b670 163d dc23 c43d aa1f dfbd 7f27 24be
00000090: bd12 31be 16db 2ebc 92dd f53b de89 acbd
000000a0: 5c2a 1f3d 8d08 a4bb 04fa 053d d0ff 7dbd
000000b0: de13 163e 08a7 d53d f717 1a3d 71e2 a2bd
000000c0: d319 0fbc eb22 183e cb3d 17be 9f8c 393d
000000d0: f3e2 f53d cd13 35be 5f9e 60bd d528 70bc
000000e0: f522 0e3e af29 623d b7c4 533e 3d08 cb3d
000000f0: 892a 0e3e d1df b33d 4b53 d53d c50e 8bbd
00000100: adff 72bd 5e0d 4a3d ae0f 8e3c 40b6 823e
00000110: ff3f 5d3d efcc ad3d 6c6a 493e c374 013e
00000120: 219d 303d c95b 87bd 3af5 04be 3e0d 52bc
00000130: 93e6 c03d 0331 8abd d736 0cbd 7197 68bd
00000140: 32e8 aa3d fb12 1abe b9ad dcbb b5d7 3abe
00000150: c3b4 8fbd 0e66 823e 1b55 e33d cf1e 163d
00000160: 4ff7 a5bd ed74 a3bc 1158 1d3e da01 333e
00000170: df74 bc3d 5936 183e d30d 6d3d 3bf8 1b3d
00000180: ccab afbd 250c aabb 68af ac3d 1287 993c
00000190: d419 0b3d 6c34 11be 66a0 8b3d 420d fc3d
000001a0: 3873 8e3d 816a 8abd 048b 923c 684d 83bd
000001b0: a3f1 3bbe a10c b83d f847 b339 56cb 51bd
000001c0: b6ce ad3d 7838 20be 3754 2c3c ece7 44bd
000001d0: 71a6 dbbd c168 b33c 1082 823d cab4 b03b
000001e0: f5a8 0f3e 92f8 f0bd 74f0 023e ccb9 14be
000001f0: e81c c93d 4356 203e ee34 cd3a cc39 07be
00000200: 79e3 e5bc 00f6 5bbd 6270 eabd 4d13 52bd
00000210: 1b22 06be dfe7 1b3e ea5c 88bd

bias f4 [5]
0.14734069 -0.1581147 0.013649185 -0.13680795 0.072426945
00000000: 7ae0 163e d2e8 21be d5a0 5f3c 6217 0cbe
00000010: 9454 943d

weight f4 [10, 5, 5, 5, 5]
0.045214653 -0.018065112 0.027655808 -0.074562356 0.04568657 -0.037008297 0.06604973 0.015189518
0.038081016 -0.051371813 -0.0019872263 0.055378135 0.0020411615 0.035752945 0.02926229 -0.06688674
-0.010218345 0.06849414 0.017947545 -0.017914707 -0.06433974 -0.013632379 -0.03750214 0.030923208
0.051022246 0.07200134 0.0033445617 0.046191648 0.004093446 -0.011925771 -0.0763649 0.03266766
-0.046824124 0.030261016 -0.013363014 0.050090063 0.058470614 0.0008781472 0.032911953 -0.07429954
0.0491928 0.0031851635 0.0180496 0.0111317495 -0.010776301 0.04022649 -0.045845788 -0.04967056
-0.033122927 -0.02054773 -0.011223668 0.08094796 -0.036413923 -0.031548973 -0.072176926 0.06953456
0.019793712 -0.032966815 0.07429993 -0.010059791 -0.037459332 0.06201884 0.055512965 0.007058582
-0.0030511136 0.010602395 -0.013125205 0.046824787 0.054719836 0.0072337687 -0.007955184 0.0588557
-0.06631132 0.01976744 -0.06606519 0.034308273 -0.035230782 -0.008248506 -0.0024319591 0.0045650206
-0.01021158 0.021232337 0.027262762 0.043991666 -0.0057620453 0.06718862 0.0461344 0.07012035
0.0016856503 0.04499622 -0.010718895 0.009089197 0.053422023 0.045219075 0.051268097 0.04745639
0.040016443 0.041079056 0.06048052 0.062184595 0.03896161 0.023382522 -0.05084698 0.077936046
-0.008228103 0.0064487006 -0.03918421 0.07382953 -0.056378298 -0.05931532 0.013325623 -0.04366564
0.050996475 0.019268792 0.07664752 0.047310516 0.03948534 0.026615724 -0.04987948 0.02264794
-0.04688471 -0.06460768 -0.043248348 0.03864283 0.04634153 -0.050974675 -0.007316933 0.014316638
0.01255738 0.031016974 0.06085973 -0.019692402 0.01592185 0.014982803 0.043366864 0.07309787
0.022984307 0.038337406 -0.015101944 -0.056962833 -0.03794338 0.044394832 -0.049472682 0.0032174694
-0.0066123903 -0.05741622 0.030756745 -0.0009960276 -0.025481869 0.043390017 0.039383065 0.057846025
0.07843572 -0.01679647 -0.0052751354 0.05865687 0.06911912 -0.00060286483 0.051061444 0.056567393
0.033415314 -0.06503324 0.08218181 -0.02033216 -0.06444205 -0.010583762 0.061403193 -0.058100432
0.004384523 0.049966212 0.013805498 -0.019163942 -0.0253436 -0.006721671 0.004948182 0.0010395293
0.010745454 0.0821287 0.0017731658 -0.011267655 -0.06469261 0.015990855 0.041828416 0.01890645
-0.029871678 -0.008037799 -0.06610683 0.01433098 -0.045125756 0.04367554 -0.033330917 -0.01527594
-0.008331472 0.00888496 0.07065512 0.05940132 0.041938838 0.028632767 0.002035261 0.014563708
0.011752933 -0.04963614 0.046267692 0.025041517 -0.012065898 -0.027800646 0.0765711 0.06693134
0.04983969 -0.031959217 -0.03709954 -0.018647816 0.0106914 0.06285564 0.057062354 0.06825147
0.014950009 -0.0053645326 -0.046618994 0.030594395 -0.017478736 0.019168237 -0.0059350356 -0.02594035
0.04954589 0.011793641 0.060965084 -0.042042714 -0.0029335986 -0.031374566 0.06294268 0.053770613
-0.059323054 -0.03924567 0.05552852 0.016392687 0.012458745 0.0086189695 0.012199576 0.06868602
0.027139656 -0.017549237 -0.0086472025 0.044773813 0.0020186112 0.053446505 -0.026491864 -0.048981242
-0.06249681 0.051417623 0.056172516 0.0673894 -0.03503487 0.046580374 -0.07296121 0.005357298
00000000: 0033 393d 49fd 93bc 6f8e e23c 26b4 98bd
00000010: d721 3b3d 0396 17bd 1545 873d 75dd 783c
00000020: d7fa 1b3d 406b 52bd 203c 02bb 2fd4 623d
00000030: 02c5 053b ae71 123d 78b7 ef3c eafb 88bd
00000040: d86a 27bc a846 8c3d bb06 933c ddc1 92bc
00000050: 8ec4 83bd 575a 5fbc d89b 19bd ab52 fd3c
00000060: b4fc 503d 7075 933d 6f30 5b3b 7433 3d3d
00000070: 5022 863b 4f64 43bc 3365 9cbd 86ce 053d
00000080: a7ca 3fbd f3e5 f73c 8bf0 5abc 3d2b 4d3d
00000090: e27e 6f3d 7633 663a afce 063d 5b2a 98bd
000000a0: 647e 493d 2dbe 503b c1dc 933c f161 363c
000000b0: 158f 30bc 88c4 243d cbc8 3bbd 5b73 4bbd
000000c0: e8ab 07bd b753 a8bc 7ae3 37bc 0bc8 a53d
000000d0: c426 15bd 7f39 01bd 7fd1 93bd 2368 8e3d
000000e0: 6c26 a23c 3608 07bd 902a 983d d2d1 24bc
000000f0: f56e 19bd 7807 7e3d 9061 633d ad4b e73b
00000100: 31f5 47bb abb5 2d3c 1a0b 57bc 59cb 3f3d
00000110: e821 603d 4009 ed3b 7656 02bc ad12 713d
00000120: 3bce 87bd 54ef a13c 304d 87bd d586 0c3d
00000130: 274e 10bd be24 07bc 8161 1fbb 2b96 953b
00000140: 794e 27bc 70ef ad3c 2856 df3c 9b30 343d
00000150: 8acf bcbb 309a 893d 6df7 3c3d 429b 8f3d
00000160: 0af1 dc3a f54d 383d 4e9e 2fbc dbea 143c
00000170: 0dd1 5a3d a337 393d 7ffe 513d a261 423d
00000180: 48e8 233d 8342 283d 6cba 773d 46b5 7e3d
00000190: 3696 1f3d b48c bf3c ec44 50bd ef9c 9f3d
000001a0: 2acf 06bc 9f4f d33b 9f7f 20bd f033 973d
000001b0: eeec 66bd 9ff4 72bd b753 5a3c beda 32bd
000001c0: aee1 503d 96d9 9d3c 60f9 9c3d acc8 413d
000001d0: 61bb 213d 3809 da3c 6d4e 4cbd 2c88 b93c
000001e0: 2f0a 40bd 0851 84bd 2e25 31bd f247 1e3d
000001f0: 9ed0 3d3d d2ca 50bd e2c2 efbb 5590 6a3c
00000200: 78bd 4d3c 4f17 fe3c 0d48 793d f651 a1bc
00000210: 8a6e 823c 6e7a 753c 74a1 313d 56b4 953d
00000220: 9649 bc3c af07 1d3d 256e 77bc dc51 69bd
00000230: 856a 1bbd 5bd7 353d dea3 4abd 2edc 523b
00000240: c0ac d8bb 452d 6bbd 92f5 fb3c 248d 82ba
00000250: 5abf d0bc bbb9 313d 2350 213d f4ef 6c3d
00000260: e8a2 a03d c098 89bc 0bdb acbb 3042 703d
00000270: 538e 8d3d 9309 1eba ce25 513d 36b3 673d
00000280: 7fde 083d 2630 85bd f04e a83d a18f a6bc
00000290: 32fa 83bd 8467 2dbc ea81 7b3d b8fa 6dbd
000002a0: 0bac 8f3b 5fa9 4c3d 7530 623c b3fd 9cbc
000002b0: 629d cfbc 7741 dcbb 5c24 a23b d140 883a
000002c0: b30d 303c 1833 a83d 9269 e83a f89b 38bc
000002d0: 8f7d 84bd 41ff 823c 4654 2b3d b3e1 9a3c
000002e0: 73b5 f4bc f9b0 03bc 0563 87bd 7dcc 6a3c
000002f0: c9d5 38bd 1fe5 323d 0086 08bd f047 7abc
00000300: ba80 08bc 3992 113c a2b3 903d cc4e 733d
00000310: 0fc8 2b3d 448f ea3c 0362 053b 9e9c 6e3c
00000320: 608f 403c 444f 4bbd 3183 3d3d de23 cd3c
00000330: 0bb0 45bc 2ebe e3bc 4fd1 9c3d 4c13 893d
00000340: b424 4c3d abe7 02bd b0f5 17bd 4ec3 98bc
00000350: fb2a 2f3c 75ba 803d 37ba 693d 6dc7 8b3d
00000360: e2f0 743c f6c8 afbb 8ff3 3ebd 19a1 fa3c
00000370: 912f 8fbc b506 9d3c b07a c2bb db80 d4bc
00000380: a2f0 4a3d 1e3a 413c 86b6 793d fb34 2cbd
00000390: 9e41 40bb 9e82 00bd 18e8 803d 933e 5c3d
000003a0: bbfc 72bd 11c0 20bd e071 633d f549 863c
000003b0: c41f 4c3c 9436 0d3c bbe0 473c 42ab 8c3d
000003c0: fc53 de3c 6bc3 8fbc ffac 0dbc bf64 373d
000003d0: ad4a 043b b9ea 5a3d 7705 d9bc 8ea0 48bd
000003e0: a8fc 7fbd 499b 523d 2715 663d 7403 8a3d
000003f0: b980 0fbd 10cb 3e3d b06c 95bd 468c af3b

bias f4 [10]
-0.0133106215 -0.01307823 -0.0043919426 -0.013160636 0.0066836905 -0.027457513 0.0006306906 -0.033756763
-0.016967162 0.030193584
00000000: cb14 5abc 1346 56bc 49ea 8fbb b59f 57bc
00000010: dc02 db3b 94ee e0bc ee54 253a 8844 0abd
00000020: b8fe 8abc 8958 f73c

weight f4 [20, 10, 5, 5, 5]
-0.019679254 0.03868867 0.061333627 0.045363996 -0.019301534 0.02747641 -0.020815946 0.05270201
-0.018082127 -0.030930674 -0.06498061 -0.016437097 0.049516212 -0.022464972 -0.012166386 0.02101034
0.06327561 0.004071512 -0.024392072 -0.044042688 -0.06072409 0.026161363 -0.026518181 0.07379006
-0.033950545 -0.02920432 -0.00043302684 -0.067733556 -0.06480088 0.06830938 -0.06150218 -0.061598916
-0.017515106 -0.058089152 0.05135234 0.045094684 0.023364056 -0.06582692 -0.05582393 -0.06468465
-0.065917164 -0.007882536 0.047811065 0.03170751 0.012763114 -0.014597798 -0.03441604 -0.04701796
-0.06991319 -0.060813818 -0.0053578564 -0.010366865 -0.060502302 0.03671277 0.0011985364 -0.02505555
-0.05001763 0.055612 0.006985355 0.042986367 0.005317174 0.030589553 0.034136776 -0.029653944
-0.029301308 -0.066249445 0.008790499 0.006065025 -0.0016145952 -0.07006279 0.02650439 -0.025015043
0.0305841 -0.058161825 0.04971507 -0.017516041 -0.03801328 -0.000996483 0.05139853 0.08265121
-0.07289719 0.05988841 -0.04581613 0.02549368 0.059472173 0.042816512 0.050718285 0.06690307
0.01583776 -0.033692695 0.015387653 0.06024487 -0.055613983 -0.05346681 0.062214464 0.03886814
0.08308872 -0.05562403 0.038013685 0.04238294 -0.02956968 0.0032375723 -0.020277537 -0.04736226
-0.05618468 0.068627834 -0.05971076 0.084946044 0.05186468 0.05398988 -0.06332046 -0.030254388
0.025647633 -0.04433 0.07595054 0.045385003 0.052765448 0.018097056 0.062244143 0.043920163
0.034889672 0.04193338 -0.06923009 0.03573251 0.021747561 0.09009522 0.021604152 -0.040552415
-0.038060762 0.003662625 -0.0067531248 -0.051389962 0.0663104 -0.066608414 -0.0105154235 -0.028160522
-0.02352157 -0.00484105 -0.07170817 -0.025764106 -0.057295255 -0.011855451 0.0049399734 -0.027855836
-0.06582668 0.017294763 -0.05311941 0.031032955 0.019995801 0.047155485 -0.058897298 0.058230083
0.04127803 -0.043130655 -0.055168148 -0.04784259 0.00012303705 0.048977476 0.042569134 -0.04340327
0.049128175 0.0010204432 -0.086288154 -0.06796805 -0.07821692 0.019131197 0.010329468 -0.04705741
0.04819813 -0.041184604 -0.025749283 0.07890887 -0.027626254 -0.05412478 -0.04589681 0.0011257317
0.060443934 0.073676035 0.01528547 0.06833446 0.039281897 0.06321322 0.031966623 0.024399845
-0.0795806 -0.012152704 -0.06420428 -0.09307824 -0.04733193 -0.061800603 -0.015731579 -0.07801555
-0.056484204 -0.05145849 -0.0054463097 -0.06170917 0.03053115 0.013263276 0.004034964 -0.001369505
0.015727393 0.084421635 0.09825894 -0.020604845 0.026083972 0.02008847 0.0083599705 0.06681082
-0.038927943 -0.022015927 0.015302555 0.01137949 0.015193997 -0.086222485 0.046328165 0.051645055
-0.076977305 -0.02576462 -0.023704307 0.051316254 -0.00057210453 -0.055867635 -0.05412233 -0.07144232
0.03125625 0.04396247 0.08307506 -0.024852028 0.034209408 0.061881185 0.05417516 -0.030008005
-0.023497503 0.006359607 0.076713555 -0.045314092 -0.029726109 -0.023715818 -0.03930861 -0.053995114
0.033201896 -0.026578339 -0.020702222 -0.018214779 0.042874444 -0.007160146 0.013804093 -0.028529467
0.06294435 0.021013666 -0.04204472 -0.051380854 0.061249692 -0.06699088 -0.048964236 -0.07344945
00000000: 6336 a1bc 0378 1e3d f838 7b3d 99cf 393d
00000010: 401e 9ebc 3516 e13c 3486 aabc 10de 573d
00000020: f820 94bc 5362 fdbc 8e14 85bd 17a7 86bc
00000030: 83d1 4a3d 7608 b8bc 8555 47bc e01d ac3c
00000040: a596 813d 516a 853b e2d1 c7bc 1b66 34bd
00000050: d3b9 78bd 5b50 d63c a83c d9bc 3e1f 973d
00000060: ba0f 0bbd e63d efbc e107 e3b9 e4b7 8abd
00000070: 53b6 84bd cae5 8b3d b6e9 7bbd 254f 7cbd
00000080: d77b 8fbc e4ee 6dbd d556 523d 34b5 383d
00000090: fa65 bf3c 44d0 86bd a2a7 64bd 6379 84bd
000000a0: 94ff 86bd c125 01bc 89d5 433d bcdf 013d
000000b0: 611c 513c 9a2b 6fbc d5f7 0cbd e895 40bd
000000c0: a62e 8fbd e917 79bd f590 afbb c9d9 29bc
000000d0: 43d1 77bd 2160 163d 3518 9d3a 4c41 cdbc
000000e0: 49df 4cbd 69c9 633d 68e5 e43b 7912 303d
000000f0: b03b ae3b f196 fa3c 01d3 0b3d d4ec f2bc
00000100: 4c09 f0bc caad 87bd 0606 103c 1ebd c63b
00000110: d3a0 d3ba 147d 8fbd bc1f d93c 59ec ccbc
00000120: 828b fa3c 183b 6ebd 07a2 4b3d cd7d 8fbc
00000130: d0b3 1bbd 6c9c 82ba 4487 523d 0a45 a93d
00000140: 1f4b 95bd 8d4d 753d b2a9 3bbd 1fd8 d03c
00000150: 1899 733d 5e60 2f3d fabd 4f3d 7a04 893d
00000160: 31be 813c 5a01 0abd 7f1c 7c3c 53c3 763d
00000170: 7dcb 63bd 0400 5bbd 98d4 7e3d 3334 1f3d
00000180: 6b2a aa3d 06d6 63bd 3db4 1b3d bc99 2d3d
00000190: 1d3c f2bc 732d 543b 141d a6bc eefe 41bd
000001a0: e821 66bd c08c 8c3d 4593 74bd 31f8 ad3d
000001b0: 0f70 543d 7e24 5d3d 28ae 81bd 0dd8 f7bc
000001c0: fc1a d23c 6093 35bd f58b 9b3d a0e5 393d
000001d0: 9520 583d 4740 943c b7f3 7e3d a1e5 333d
000001e0: 79e8 0e3d 56c2 2b3d 81c8 8dbd 415c 123d
000001f0: f127 b23c d883 b83d 31fb b03c 4a1a 26bd
00000200: 9ae5 1bbd a708 703b 5149 ddbb 487e 52bd
00000210: bfcd 873d fe69 88bd e248 2cbc e5b0 e6bc
00000220: 4fb0 c0bc aca1 9ebb bcdb 92bd 3f0f d3bc
00000230: 6eae 6abd 5e3d 42bc 80df a13b ec31 e4bc
00000240: 23d0 86bd bfad 8d3c bd93 59bd d338 fe3c
00000250: 3cce a33c 1c26 413d 4b3e 71bd ab82 6e3d
00000260: 2713 293d c5a9 30bd fff7 61bd 97f6 43bd
00000270: 8203 0139 9b9c 483d f95c 2e3d a1c7 31bd
00000280: a03a 493d 64c0 853a d8b7 b0bd d532 8bbd
00000290: 3130 a0bd 07b9 9c3c ee3c 293c 45bf 40bd
000002a0: 676b 453d 30b1 28bd 29f0 d2bc f99a a13d
000002b0: 7450 e2bc f2b1 5dbd 4bfe 3bbd 4a8d 933a
000002c0: 0f94 773d 76e3 963d e86f 7a3c f0f2 8b3d
000002d0: 0ee6 203d ef75 813d 6fef 023d 2fe2 c73c
000002e0: 27fb a2bd 231c 47bc 897d 83bd ce9f bebd
000002f0: 20df 41bd a122 7dbd 83df 80bc 9ec6 9fbd
00000300: fb5b 67bd 23c6 52bd f576 b2bb c1c2 7cbd
00000310: 761c fa3c 364e 593c bb37 843b f680 b3ba
00000320: bcd6 803c 40e5 ac3d fc3b c93d 7ecb a8bc
00000330: 0eae d53c 9390 a43c 42f8 083c 1cd4 883d
00000340: e872 1fbd bf5a b4bc 91b7 7a3c 0a71 3a3c
00000350: 3ef0 783c 6a95 b0bd 9ac2 3d3d c489 533d
00000360: 47a6 9dbd 5310 d3bc 892f c2bc fe30 523d
00000370: 49f9 15ba 76d5 64bd 60af 5dbd 5a50 92bd
00000380: 8e06 003d fe11 343d 4223 aa3d 7b96 cbbc
00000390: 2a1f 0c3d 2077 7d3d c6e6 5d3d 59d3 f5bc
000003a0: d67d c0bc 4064 d03b ff1b 9d3d 459b 39bd
000003b0: 2b84 f3bc ad47 c2bc 1102 21bd fb29 5dbd
000003c0: b6fe 073d d1ba d9bc b597 a9bc 2937 95bc
000003d0: 1d9d 2f3d a89f eabb 902a 623c a1b6 e9bc
000003e0: f8e8 803d da24 ac3c 1637 2cbd bb74 52bd
000003f0: f5e0 7a3d 8432 89bd b98e 48bd aa6c 96bd

bias f4 [20]
-0.00899267 -0.005172427 -0.017567968 -0.008114802 -0.0051503046 0.010117645 -0.019647637 0.01690681
-0.012749655 0.007011451 -0.020757524 -0.011907204 -0.015847888 0.0017032343 0.022964595 -0.022177683
0.01871509 0.014246673 0.021402404 -0.010145255
00000000: fe55 13bc 767d a9bb b3ea 8fbc f2f3 04bc
00000010: e3c3 a8bb 7bc4 253c 15f4 a0bc 2780 8a3c
00000020: eee3 50bc 50c0 e53b af0b aabc 6f16 43bc
00000030: 6ed3 81bc 0f3f df3a 3f20 bc3c f9ad b5bc
00000040: 6350 993c e16a 693c 1854 af3c 4938 26bc

weight f4 [50, 20, 3, 3, 3]
-0.022446508 -0.01941155 0.15190515 -0.08574152 -0.077828825 -0.031376258 0.11028738 0.06783335
-0.006061014 0.019915791 0.1675818 0.0044456194 0.13106114 0.03498178 0.027120145 -0.08720189
0.1573447 0.090444505 0.0563136 0.09831297 0.058441956 0.017251264 0.004625983 0.14225006
0.0059618535 0.03150428 0.020650584 0.11743399 -0.010959854 0.10381783 0.100932755 0.1294366
0.16253655 0.08634994 0.10396341 0.053414516 0.0034840545 0.11876147 -0.07308618 0.17583074
-0.02365606 -0.13361281 0.11292795 -0.14417753 -0.12068516 -0.096397616 0.1166067 -0.12538467
0.041747883 0.15220198 -0.12247322 0.1264219 -0.07443268 -0.04631964 -0.066392615 0.17406508
0.100870915 0.1439786 -0.13006756 0.015184219 -0.07224252 -0.102174446 -0.08021302 -0.0008695967
0.17086759 0.0227149 -0.054644637 -0.11192106 -0.1339445 -0.01371059 0.1123061 0.17001845
0.0486355 0.05379486 0.02786583 0.16737461 0.01847861 -0.06730137 0.083933644 -0.10966193
0.091523446 0.052377094 -0.05463898 -0.07175356 0.037879907 0.15082376 -0.009056723 0.040527254
0.021031998 -0.01567307 -0.03379391 0.13792838 0.09193793 0.018329462 -0.079030395 -0.108117975
0.017829038 0.09454005 0.042205263 -0.0977942 0.073530465 -0.11162556 0.067887805 -0.07304136
-0.03723813 0.014626949 -0.0148570845 0.05185739 -0.12092038 -0.087952234 0.15697727 0.09522411
0.11313153 0.05326369 -0.14182805 -0.12641059 -0.07255654 -0.1237139 0.006092798 0.08754997
-0.13847633 -0.050175525 -0.06093229 -0.084587514 0.09123295 -0.06722537 -0.117100894 0.00026997153
0.13371217 0.08508217 0.13805339 -0.07529389 0.024729574 0.060629617 0.036555406 -0.02956718
0.10481936 -0.1358636 -0.0225754 -0.004326867 0.12548833 0.004583476 0.027737211 0.16079393
0.05243997 0.1446361 0.022007668 0.108722165 -0.07625341 -0.06839395 0.14588934 0.15622969
-0.124171935 0.106718756 0.032265604 -0.06251336 0.011350302 0.031002447 -0.0739925 0.15192807
-0.0188485 0.13448177 -0.030748976 0.06947985 -0.010458665 -0.096056424 -0.00033599982 0.09501555
0.10258387 0.015403877 0.13254884 -0.0013118817 0.078965314 -0.0056006857 0.041622154 -0.04583377
-0.14555629 -0.043840677 0.02765819 0.068240054 0.17377351 -0.0037214474 -0.04310015 0.017434407
-0.11499858 -0.05039371 0.07519065 0.15980078 -0.067961544 0.032693785 -0.10989428 0.031307526
0.022126816 -0.12127861 -0.12803927 0.06973899 -0.03842766 0.10351084 -0.00065667124 0.15951683
0.01080303 -0.041328326 -0.097681746 -0.1212811 0.11980478 0.113158375 -0.119087234 0.13542059
-0.12162136 -0.120764494 0.042045556 -0.060586438 -0.1295611 -0.05979303 0.0006505337 -0.05071524
-0.06304222 0.12666641 0.17143989 0.033028744 0.079041526 -0.0099555915 0.10428325 0.045063093
-0.12139419 0.044136 0.006118414 0.07533932 -0.050839625 0.13812898 -0.057502512 0.096947856
-0.030777551 0.04729232 -0.07378226 0.12035915 0.16435458 -0.13572565 0.085595205 -0.13893802
0.15867825 0.16072963 0.009302078 -0.1320707 0.04172572 -0.024733739 0.064154744 0.04701907
0.088082366 -0.0031440512 0.10017641 0.010344109 -0.0006361053 0.08579245 -0.01889467 -0.036087688
00000000: bde1 b7bc f904 9fbc 068d 1b3e 4099 afbd
00000010: b864 9fbd 6484 00bd 5ade e13d 36ec 8a3d
00000020: 789b c6bb 7126 a33c 909a 2b3e 8fac 913b
00000030: e434 063e 0e49 0f3d 112b de3c e896 b2bd
00000040: f81e 213e f83a b93d 17a9 663d 4f58 c93d
00000050: d560 6f3d 8652 8d3c 8f95 973b 00aa 113e
00000060: a75b c33b a20a 013d 6a2b a93c 3b81 f03d
00000070: f690 33bc 719e d43d d5b5 ce3d 078b 043e
00000080: fb6f 263e 3dd8 b03d c5ea d43d 2ec9 5a3d
00000090: bc54 643b 3739 f33d 35ae 95bd f90c 343e
000000a0: 5bca c1bc ccd1 08be c546 e73d 46a3 13be
000000b0: c829 f7bd 1d6c c5bd 7ecf ee3d d764 00be
000000c0: d4ff 2a3d d6da 1b3e 3dd3 fabd be74 013e
000000d0: 2970 98bd aab9 3dbd daf8 87bd 1e3e 323e
000000e0: 6995 ce3d 206f 133e 6e30 05be 3bc7 783c
000000f0: e3f3 93bd d640 d1bd b946 a4bd a6f5 63ba
00000100: eaf7 2e3e 9914 ba3c 0ed3 5fbd de36 e5bd
00000110: bf28 09be 62a2 60bc be00 e63d 5119 2e3e
00000120: 0536 473d 0058 5c3d e246 e43c 4064 2b3e
00000130: 7460 973c 4dd5 89bd 67e5 ab3d 6f96 e0bd
00000140: a570 bb3d 5d89 563d 20cd 5fbd 88f3 92bd
00000150: f627 1b3d 8b71 1a3e a662 14bc e8ff 253d
00000160: 4c4b ac3c cf64 80bc 7c6b 0abd 193d 0d3e
00000170: f449 bc3d ab27 963c b0da a1bd f56c ddbd
00000180: 340e 923c 379e c13d 6ddf 2c3d 5348 c8bd
00000190: 2497 963d f19b e4bd c308 8b3d b596 95bd
000001a0: 0287 18bd dfa5 6f3c 216b 73bc 6a68 543d
000001b0: 1ba5 f7bd 4d20 b4bd a6be 203e dc04 c33d
000001c0: 81b1 e73d 072b 5a3d 5f3b 11be c771 01be
000001d0: 8698 94bd b75d fdbd 18a6 c73b 664d b33d
000001e0: bdcc 0dbe da84 4dbd 2394 79bd 383c adbd
000001f0: 57d8 ba3d 74ad 89bd 98d2 efbd f78a 8d39
00000200: d8eb 083e 903f ae3d de5d 0d3e af33 9abd
00000210: ad95 ca3c c356 783d 1fbb 153d df36 f2bc
00000220: 88ab d63d d41f 0bbe 0cf0 b8bc 64c8 8dbb
00000230: 0380 003e fc30 963b 2639 e33c 2aa7 243e
00000240: 4bcb 563d 7c1b 143e 6d49 b43c baa9 de3d
00000250: bf2a 9cbd 2112 8cbd 0464 153e adfa 1f3e
00000260: db4d febd 5d8f da3d f028 043d 0107 80bd
00000270: 9ef6 393c d8f8 fd3c 6189 97bd 0893 1b3e
00000280: 2b68 9abc 97b5 093e 47e5 fbbc 744b 8e3d
00000290: d25a 2bbc 3bb9 c4bd 2229 b0b9 8397 c23d
000002a0: 7e17 d23d 8b60 7c3c e2ba 073e 72f3 abba
000002b0: 91b8 a13d f585 b7bb fe7b 2a3d 31bc 3bbd
000002c0: b50c 15be 4892 33bd 6e93 e23c 71c1 8b3d
000002d0: aff1 313e 87e3 73bb c889 30bd 9ad2 8e3c
000002e0: 6084 ebbd a369 4ebd 8efd 993d d1a2 233e
000002f0: 6c2f 8bbd ebe9 053d 4110 e1bd 523c 003d
00000300: 4c43 b53c eb60 f8bd ba1c 03be 51d3 8e3d
00000310: 5266 1dbd 7efd d33d 7624 2cba 6158 233e
00000320: 31ff 303c e447 29bd 5e0d c8bd 3a62 f8bd
00000330: 355c f53d 94bf e73d 02e4 f3bd b2ab 0a3e
00000340: 9f14 f9bd 6053 f7bd f637 2c3d 7c29 78bd
00000350: aaab 04be 89e9 74bd 9488 2a3a c9ba 4fbd
00000360: 481c 81bd d7b4 013e f08d 2f3e 2649 073d
00000370: 86e0 a13d c71c 23bc 7592 d53d 1494 383d
00000380: 849d f8bd f3c7 343d fa7c c83b 804b 9a3d
00000390: 363d 50bd af71 0d3e c187 6bbd 998c c63d
000003a0: 3421 fcbc 97b5 413d 271b 97bd dc7e f63d
000003b0: 914c 283e aafb 0abe 8a4c af3d c545 0ebe
000003c0: 8d7c 223e 4f96 243e be67 183c 8b3d 07be
000003d0: 97e8 2a3d 699e cabc 9063 833d 1197 403d
000003e0: 8764 b43d 6d0c 4ebb 4a29 cd3d 567a 293c
000003f0: 4ec0 26ba f4b3 af3d ffc8 9abc afd0 13bd

bias f4 [50]
0.022557896 -0.004809981 0.015257552 -0.0073617077 -0.047753666 0.010109773 0.034053966 -0.0053391936
0.037074573 -0.0059758727 0.03971313 0.05739234 -0.016159654 -0.044882067 0.00062457693 -0.0072917533
-0.024862224 0.042774115 0.034348655 -0.039098665 8.853242e-05 0.008314758 -0.029455297 -0.02429674
-0.013393694 -0.03303834 0.0066103195 7.4797485e-05 0.045513924 -0.04899569 0.02391035 -0.0065661753
0.13978668 0.022399597 -0.0030279905 0.048629455 0.018416692 -0.021345565 -0.047910467 0.0051916726
0.010801485 -0.051489845 0.03096594 0.0028521717 -0.033398584 -0.011896874 -0.02429825 -0.041820124
-0.038968775 0.00023219851
00000000: 56cb b83c 0c9d 9dbb d0fa 793c 7b3a f1bb
00000010: 5999 43bd 76a3 253c 2c7c 0b3d 67f4 aebb
00000020: 82db 173d 41d1 c3bb 3caa 223d 3b14 6b3d
00000030: 4061 84bc 42d6 37bd a6ba 233a a9ef eebb
00000040: ddab cbbc e933 2f3d 2db1 0c3d ec25 20bd
00000050: 7baa b938 9f3a 083c 3c4c f1bc f509 c7bc
00000060: 3971 5bbc 3653 07bd 619b d83b 98dc 9c38
00000070: cf6c 3a3d b4af 48bd a3df c33c 1229 d7bb
00000080: 3d24 0f3e 5c7f b73c 4071 46bb ae2f 473d
00000090: 9ade 963c e5dc aebc c43d 44bd e81e aa3b
000000a0: b6f8 303c 04e7 52bd 48ac fd3c 80eb 3a3b
000000b0: f4cc 08bd 1beb 42bc 200d c7bc 944b 2bbd
000000c0: b99d 1fbd 507a 7339

weight f4 [2, 50, 1, 1, 1]
0.527057 -0.58417654 0.2890044 -0.227131 0.093366176 -0.4499101 -0.35034975 0.09574558
0.6038441 -0.6704561 0.5930745 0.6216492 -0.61459064 -0.52761847 0.78528696 -0.2613687
0.21114628 -0.3802155 0.60175765 -0.20947707 0.14065842 0.7743644 0.3711343 -0.043821707
0.32338125 -0.2843622 -0.41195548 -0.83870935 0.55813015 0.073395975 -0.3714058 0.18135689
0.9320346 0.09667361 0.63940126 0.5001836 0.47073475 -0.5856884 -0.20069768 -0.7791602
0.06274953 -0.47336182 -0.17365284 0.046998415 0.16335733 0.7642109 0.3732972 0.7920524
-0.40170982 0.27552262 -0.4171992 -0.29260275 0.2785242 -0.13008863 0.09775761 -0.16638994
-0.74950975 0.09661682 -0.63329273 0.74361736 -0.16434355 -0.5278047 -0.51087224 0.62464267
0.65370363 0.2352667 -0.107957065 -0.41215637 0.030972596 0.36780968 -0.101113066 0.047135126
0.11959116 0.7550998 -0.7078566 0.64120966 -0.24316038 0.029729156 -0.39226082 0.34196088
-0.7790826 -0.10421904 -0.78846323 -0.20979972 0.716967 -0.35139766 -0.16614667 -0.32595336
0.6672125 0.5127177 -0.8293258 0.80362374 -0.8380051 0.62684757 0.013677815 0.41833094
0.14252974 0.52256876 0.45658532 0.027020544
00000000: 35ed 063f 988c 15bf 62f8 933e 0795 68be
00000010: c436 bf3d 9e5a e6be 0b61 b3be 4216 c43d
00000020: 8795 1a3f 03a3 2bbf bbd3 173f 6724 1f3f
00000030: d055 1dbf 0112 07bf 9108 493f 1ed2 85be
00000040: bb36 583e 9bab c2be ca0c 1a3f 2881 56be
00000050: c308 103e bf3c 463f 5105 be3e 647e 33bd
00000060: 3a92 a53e ec97 91be d4eb d2be a8b5 56bf
00000070: 9ee1 0e3f a150 963d e728 bebe 9fb5 393e
00000080: d299 6e3f d0fc c53d cdaf 233f 080c 003f
00000090: 2504 f13e adef 15bf b183 4dbe 0b77 47bf
000000a0: d382 803d 7b5c f2be 0dd2 31be 6981 403d
000000b0: 2547 273e 53a3 433f d020 bf3e f2c3 4a3f
000000c0: e9ac cdbe 4d11 8d3e 229b d5be 07d0 95be
000000d0: b99a 8e3e f435 05be 2435 c83d 2062 2abe
000000e0: dfdf 3fbf 0adf c53d 791f 22bf b55d 3e3f
000000f0: ad49 28be 351e 07bf 86c8 02bf 95e8 1f3f
00000100: 1f59 273f c1e9 703e 9818 ddbd 2906 d3be
00000110: 3eba fd3c 8d51 bc3e 5e14 cfbd c310 413d
00000120: 36ec f43d 384e 413f 1736 35bf 5126 243f
00000130: 09ff 78be 8f8a f33c 69d6 c8be 7f15 af3e
00000140: f571 47bf cb70 d5bd bad8 49bf bdd5 56be
00000150: 268b 373f 65ea b3be 5a22 2abe 5ce3 a6be
00000160: 70ce 2a3f 7841 033f b24e 54bf 49ba 4d3f
00000170: 8187 56bf 1579 203f ea18 603c 792f d63e
00000180: 51f3 113e 11c7 053f 8dc5 e93e 305a dd3c

bias f4 [2]
0.024023332 -0.18217517
00000000: 94cc c43c 218c 3abe

weight f4 [5]
0.8787265 0.8198407 0.87571764 0.8401961 0.8534208
00000000: 38f4 603f 15e1 513f 082f 603f 1717 573f
00000010: c979 5a3f

bias f4 [5]
-0.0025984729 -0.014922767 -0.03369365 -0.0056419964 0.001112905
00000000: 244b 2abb 9f7e 74bc 5a02 0abd 7fe0 b8bb
00000010: e5de 913a

running_mean f4 [5]
22.356388 -43.56269 129.82083 66.43982 -44.246223
00000000: e2d9 b241 3240 2ec2 22d2 0143 30e1 8442
00000010: 22fc 30c2

running_var f4 [5]
213.93024 262.1575 800.1247 274.8464 250.4853
00000000: 24ee 5543 2914 8343 fb07 4844 576c 8943
00000010: 3d7c 7a43

weight f4 [10]
0.7762201 0.87686616 0.88808507 0.876162 0.86526203 0.8664008 0.8868161 0.8316354
0.8656534 0.79734355
00000000: 5cb6 463f 4d7a 603f 8b59 633f 274c 603f
00000010: d081 5d3f 71cc 5d3f 6106 633f 0fe6 543f
00000020: 769b 5d3f b51e 4c3f

bias f4 [10]
-0.028113028 -0.005733087 0.035154227 0.01978569 0.006958015 0.002110598 0.016770327 -0.022008857
0.01831329 -0.031012427
00000000: 4b4d e6bc 9fdc bbbb e1fd 0f3d 9915 a23c
00000010: 0f00 e43b f551 0a3b ed61 893c eb4b b4bc
00000020: c105 963c c60d febc

running_mean f4 [10]
1.6132114 0.4965527 -0.15586399 -0.4472551 0.17459932 0.054171346 0.4131612 0.3937062
-0.18720938 1.4027421
00000000: b67d ce3f 283c fe3e cf9a 1fbe 9ffe e4be
00000010: 2aca 323e c6e2 5d3d dd89 d33e dc93 c93e
00000020: d1b3 3fbe 0e8d b33f

running_var f4 [10]
5.6746335 0.8284236 0.3156823 0.64173454 0.5240059 0.74277365 0.46862674 0.92415273
0.37879556 4.9751816
00000000: 9996 b540 9213 543f 1ca1 a13e b748 243f
00000010: 4025 063f 6a26 3e3f d8ef ef3e 4695 6c3f
00000020: 7ef1 c13e b034 9f40

weight f4 [20]
0.91279703 0.8722837 0.86265707 0.926142 0.7994751 0.86604375 0.84978724 0.8439434
0.8898006 0.9027863 0.93383515 0.8484831 0.8751863 0.8199763 0.8472918 0.8716354
0.8364194 0.8676149 0.85162765 0.89534
00000000: 11ad 693f fc4d 5f3f 18d7 5c3f a417 6d3f
00000010: 66aa 4c3f 0bb5 5d3f a88b 593f ad0c 583f
00000020: f9c9 633f 011d 673f d20f 6f3f 3036 593f
00000030: 360c 603f f7e9 513f 1ee8 583f 7f23 5f3f
00000040: 951f 563f 031c 5e3f 4504 5a3f 0135 653f

bias f4 [20]
0.16034171 0.049222376 0.04733993 0.1831179 -0.08445719 0.0449986 0.03676618 0.036316097
0.10171442 -0.034406558 0.20512226 -0.07667552 0.097437315 -0.06661605 0.030337727 0.06666438
0.017673545 0.10078337 0.012518255 0.12904344
00000000: 9e30 243e 679d 493d 84e7 413d 4283 3b3e
00000010: e4f7 acbd 7450 383d 2298 163d 30c0 143d
00000020: a64f d03d e4ed 0cbd 920b 523e 0e08 9dbd
00000030: 378d c73d ff6d 88bd d386 f83c 5687 883d
00000040: 1cc8 903c 8367 ce3d 5e19 4d3c f723 043e

running_mean f4 [20]
-0.18720032 0.39519116 -0.81910217 -0.140801 0.6200677 0.7037119 -0.6121188 0.4179593
0.27308992 0.4174363 -0.20281726 1.781005 -1.2458143 1.6234007 -0.21072617 0.06688116
-0.8759043 -1.9395219 -0.21692598 -0.87091476
00000000: 71b1 3fbe 7f56 ca3e aeb0 51bf 232e 10be
00000010: c2bc 1e3f 7726 343f d1b3 1cbf c3fe d53e
00000020: 71d2 8b3e 36ba d53e 54af 4fbe f9f7 e33f
00000030: d876 9fbf 98cb cf3f 9ac8 57be fdf8 883d
00000040: 443b 60bf 4142 f8bf d821 5ebe 45f4 5ebf

running_var f4 [20]
1.5604646 1.1601483 1.0364927 2.146983 13.088557 0.7967931 2.475475 0.9918902
1.0949523 4.4054914 2.1636257 24.492664 12.742127 16.258396 1.7882192 1.8953687
3.6375694 28.68807 1.6866374 4.775496
00000000: 4ebd c73f bd7f 943f cbab 843f 2b68 0940
00000010: bb6a 5141 a2fa 4b3f 2f6e 1e40 84ec 7d3f
00000020: 6627 8c3f c9f9 8c40 d878 0a40 faf0 c341
00000030: c1df 4b41 3211 8241 5ee4 e43f 719b f23f
00000040: f0cd 6840 2b81 e541 bce3 d73f ddd0 9840

weight f4 [50]
1.0 1.0 1.0 1.0 1.0 1.0 1.0 1.0
1.0 1.0 1.0 1.0 1.0 1.0 1.0 1.0
1.0 1.0 1.0 1.0 1.0 1.0 1.0 1.0
1.0 1.0 1.0 1.0 1.0 1.0 1.0 1.0
1.0 1.0 1.0 1.0 1.0 1.0 1.0 1.0
1.0 1.0 1.0 1.0 1.0 1.0 1.0 1.0
1.0 1.0
00000000: 0000 803f 0000 803f 0000 803f 0000 803f
00000010: 0000 803f 0000 803f 0000 803f 0000 803f
00000020: 0000 803f 0000 803f 0000 803f 0000 803f
00000030: 0000 803f 0000 803f 0000 803f 0000 803f
00000040: 0000 803f 0000 803f 0000 803f 0000 803f
00000050: 0000 803f 0000 803f 0000 803f 0000 803f
00000060: 0000 803f 0000 803f 0000 803f 0000 803f
00000070: 0000 803f 0000 803f 0000 803f 0000 803f
00000080: 0000 803f 0000 803f 0000 803f 0000 803f
00000090: 0000 803f 0000 803f 0000 803f 0000 803f
000000a0: 0000 803f 0000 803f 0000 803f 0000 803f
000000b0: 0000 803f 0000 803f 0000 803f 0000 803f
000000c0: 0000 803f 0000 803f

bias f4 [50]
0.0 0.0 0.0 0.0 0.0 0.0 0.0 0.0
0.0 0.0 0.0 0.0 0.0 0.0 0.0 0.0
0.0 0.0 0.0 0.0 0.0 0.0 0.0 0.0
0.0 0.0 0.0 0.0 0.0 0.0 0.0 0.0
0.0 0.0 0.0 0.0 0.0 0.0 0.0 0.0
0.0 0.0 0.0 0.0 0.0 0.0 0.0 0.0
0.0 0.0
00000000: 0000 0000 0000 0000 0000 0000 0000 0000
00000010: 0000 0000 0000 0000 0000 0000 0000 0000
00000020: 0000 0000 0000 0000 0000 0000 0000 0000
00000030: 0000 0000 0000 0000 0000 0000 0000 0000
00000040: 0000 0000 0000 0000 0000 0000 0000 0000
00000050: 0000 0000 0000 0000 0000 0000 0000 0000
00000060: 0000 0000 0000 0000 0000 0000 0000 0000
00000070: 0000 0000 0000 0000 0000 0000 0000 0000
00000080: 0000 0000 0000 0000 0000 0000 0000 0000
00000090: 0000 0000 0000 0000 0000 0000 0000 0000
000000a0: 0000 0000 0000 0000 0000 0000 0000 0000
000000b0: 0000 0000 0000 0000 0000 0000 0000 0000
000000c0: 0000 0000 0000 0000

running_mean f4 [50]
0.0 0.0 0.0 0.0 0.0 0.0 0.0 0.0
0.0 0.0 0.0 0.0 0.0 0.0 0.0 0.0
0.0 0.0 0.0 0.0 0.0 0.0 0.0 0.0
0.0 0.0 0.0 0.0 0.0 0.0 0.0 0.0
0.0 0.0 0.0 0.0 0.0 0.0 0.0 0.0
0.0 0.0 0.0 0.0 0.0 0.0 0.0 0.0
0.0 0.0
00000000: 0000 0000 0000 0000 0000 0000 0000 0000
00000010: 0000 0000 0000 0000 0000 0000 0000 0000
00000020: 0000 0000 0000 0000 0000 0000 0000 0000
00000030: 0000 0000 0000 0000 0000 0000 0000 0000
00000040: 0000 0000 0000 0000 0000 0000 0000 0000
00000050: 0000 0000 0000 0000 0000 0000 0000 0000
00000060: 0000 0000 0000 0000 0000 0000 0000 0000
00000070: 0000 0000 0000 0000 0000 0000 0000 0000
00000080: 0000 0000 0000 0000 0000 0000 0000 0000
00000090: 0000 0000 0000 0000 0000 0000 0000 0000
000000a0: 0000 0000 0000 0000 0000 0000 0000 0000
000000b0: 0000 0000 0000 0000 0000 0000 0000 0000
000000c0: 0000 0000 0000 0000

running_var f4 [50]
1.0 1.0 1.0 1.0 1.0 1.0 1.0 1.0
1.0 1.0 1.0 1.0 1.0 1.0 1.0 1.0
1.0 1.0 1.0 1.0 1.0 1.0 1.0 1.0
1.0 1.0 1.0 1.0 1.0 1.0 1.0 1.0
1.0 1.0 1.0 1.0 1.0 1.0 1.0 1.0
1.0 1.0 1.0 1.0 1.0 1.0 1.0 1.0
1.0 1.0
00000000: 0000 803f 0000 803f 0000 803f 0000 803f
00000010: 0000 803f 0000 803f 0000 803f 0000 803f
00000020: 0000 803f 0000 803f 0000 803f 0000 803f
00000030: 0000 803f 0000 803f 0000 803f 0000 803f
00000040: 0000 803f 0000 803f 0000 803f 0000 803f
00000050: 0000 803f 0000 803f 0000 803f 0000 803f
00000060: 0000 803f 0000 803f 0000 803f 0000 803f
00000070: 0000 803f 0000 803f 0000 803f 0000 803f
00000080: 0000 803f 0000 803f 0000 803f 0000 803f
00000090: 0000 803f 0000 803f 0000 803f 0000 803f
000000a0: 0000 803f 0000 803f 0000 803f 0000 803f
000000b0: 0000 803f 0000 803f 0000 803f 0000 803f
000000c0: 0000 803f 0000 803f
